final_presentation/final_results/shallow/interval1/7000/2021-10-14_02-13-47/checkpoints/best_model_1_trial_32_validation_acc=0.7270.pt (torch, 512143 bytes, 6 tensors)

conv_time.weight f4 [20, 62, 100, 1]
00000000: 11ef 82bc 9026 d53c 2926 68bc 94d9 ac3c
00000010: 1f10 de3c b7ab 893c 9a3e 813c 697f 55bb
00000020: 20ce 633a dda3 e93c f10b c73c adaa 7dbc
00000030: 223e 903c 5fa8 a83c 3b46 203c b5ef 8d3c
00000040: 790c 84bc e024 8d3b bbae 773b f9a3 443c
00000050: 1e55 8ebc eb00 bbbc 0abf 2b3c 4126 be3c
00000060: 7250 7f3a e53f da3c ee73 21bc 84ab ccbc
00000070: 2deb 97bc 19bf f5bb 4da3 edbb 81cf 7eba
00000080: 3724 c2bc 4aa4 43ba 6618 e7bb cfcd 91bc
00000090: e529 bfbc 1a4b ae3c 91a9 a03c 48e3 c1bc
000000a0: 86fd 9f3a 9f97 b13c d129 9abc ca45 78bc
000000b0: 376a 363b e2f5 343b 1fe4 19bc c53f c53c
000000c0: 739c 203c 1756 bf3c 87cd 923c 959f 3e3c
000000d0: 4b68 5a3b b3c9 c9bc ee00 7bbc 9dad e23c
000000e0: b118 e03b f566 c4bc 6178 b53a 0ca4 c93b
000000f0: d24a ca3b 0ac8 a43c 7ccb de3c cbf5 943c
00000100: a6dd a1bb fe6d 3c3c a6f1 64bb 336b fb3b
00000110: fa3c 86bc 749c 65bc d424 833b c360 ef3c
00000120: f3e5 983c 864d 823b b0d4 e83c 23e8 dd3c
00000130: 4491 54bc f904 f53c 6053 ee3c 0b97 f43c
00000140: b40b 8dbc 48f4 5d3c e2ef 1a3b 1099 1cbb
00000150: e2f6 c83c f405 b53c aba4 123c 438c df3b
00000160: be3a a33c 129d db3b e68b 233c fa36 4d3c
00000170: 06d0 623c b804 853c 046b 3639 476c f93c
00000180: 0cf9 743c b789 90ba 0ef3 3cbb 1628 89bc
00000190: 5ab2 6abc d206 27bc 9f3c 98bc dc3e 133b
000001a0: 49da b4bb bd22 fc3b 60ae b7bc 4818 43bc
000001b0: 8fb6 c13c 853e 11bc 3ba8 fbba 25e7 c0bb
000001c0: 40d5 85bb d65b a8bc 5c1b 083b 4b51 73bc
000001d0: d511 8d3a 8ffc 483b e27e c3bc 4e43 b1bc
000001e0: 1582 513c 0c1d a23c f14d 8cbc ebac cabc
000001f0: 08ab 6ebc b53e 593c 64ad 873c c493 63bc
00000200: a9b0 6bbc 111a 663c 163e 4fbc 4f8f d6bc
00000210: 2ded c23c 6eaf 193c 7924 acbc 60a0 b8bc
00000220: 6660 57bc 1fcb de3c 0298 c8bb f424 883c
00000230: abca 393c 5b1a 9cbb f818 67bc 3013 903c
00000240: 2633 e43c 016d 8b3c bb9c d83c 32d3 f13a
00000250: 970c e03c 2818 abbc ddea bc3c c2f3 92bc
00000260: a2a8 9cbc 84f4 d03c d31c 4e3b 7d89 e33c
00000270: 8b68 c0bc 15e3 a93b 2816 7e3c c962 b93c
00000280: 04c9 513c c46c 543c 4892 d7bb a871 4abc
00000290: d073 b83c 94ff 86bc e569 3a3c 39ab 43bc
000002a0: d266 3ebc 0c5b f23c 96a8 7abb 59cc 7c3c
000002b0: c9e6 ea3b 22b6 a6bc 962a ce3c 1138 d03b
000002c0: fc9e 03bc b719 df3c b50c 0ebc 0b9a 68bc
000002d0: 302d cabb 8ada 583c 40c0 75bb 88ee a33c
000002e0: 2d32 963c 1112 7e3c aad6 903c d2dd 8fbc
000002f0: b190 d23c 05d8 8d3c 27b0 16bb db28 d13c
00000300: 4a8e 61ba c7ee 9abc c6ea 3bbc 8aa4 103a
00000310: 60e9 80bc 005c 9fbc 2c86 bb3c f8f9 a7bb
00000320: 2903 88bc cc2f 59bc a15c 373c 30c7 b8bc
00000330: eb4b f43b 3bec e43c 980f b23b 2f77 7abc
00000340: 6257 ba3c d521 bcbb ceba 22bc c09f 8fbc
00000350: 4dec 3dbc c9d2 6fbc 453f 32bc 1dd7 2e3c
00000360: e96d 1f3c fffe ce3c da5e 8dbc f5f2 21bc
00000370: db4e bf3c 6dfe ac3b 56a9 a03c c4b5 37bb
00000380: 786f 96bc 789c 113c 7e04 7ebc d8f0 32bb
00000390: 7fbe bbbc a0ee ac3c b142 3e3c d245 4b3c
000003a0: fcc5 ad3a 8357 3fbc 84c4 203c bb2a 4f3b
000003b0: 0dba e23c 3639 82bb 54ef 41bc 7ce2 bf3c
000003c0: 2016 763b 91cc a0bc f163 3bbc 519e 4b3c
000003d0: 8427 dc3b dfe4 cf3b 2879 6ebc 0818 d83c
000003e0: 7bfa 8bbc 8683 3c3b c5ce 613b f3bc 9e3c
000003f0: 7026 66bc a79b b93c 560c 8dbc a18c 323c
-0.015983136 0.026019365 -0.014169254 0.021099843 0.027107297 0.016805513 0.015776921 -0.0032577163
0.0008690078 0.028520519 0.024297686 -0.015482587 0.017607752 0.020588098 0.009782369 0.017326215
-0.016119229 0.0043073744 0.0037793356 0.012001985 -0.017374571 -0.022827586 0.010482559 0.0232116
0.00097394653 0.026641795 -0.0098543 -0.024984129 -0.018544758 -0.0074995873 -0.007252133 -0.00097202515
-0.02369891 -0.00074631406 -0.007052469 -0.017798332 -0.023335407 0.021276046 0.019612106 -0.023667946
0.0012206293 0.021678744 -0.018818768 -0.015153358 0.0027834305 0.0027612378 -0.009392767 0.02407826
0.009802925 0.02335648 0.017920269 0.011634727 0.0033326324 -0.02463231 -0.015320046 0.027670676
0.006838881 -0.023974875 0.001384508 0.006153589 0.00617347 0.020114917 0.027196638 0.01818361
-0.0049397526 0.011500834 -0.0034934073 0.0076726913 -0.016386498 -0.014014352 0.004002193 0.029220944
0.018664336 0.0039765267 0.02842173 0.02708823 -0.012974087 0.029909598 0.02909249 0.02985718
-0.017217495 0.013547011 0.0023641516 -0.0023894943 0.024531785 0.022097565 0.008950393 0.0068221404
0.019925471 0.006702074 0.009982085 0.012525314 0.013843542 0.016237602 0.00017396739 0.030447138
0.0149519555 -0.001102737 -0.0028831395 -0.016742747 -0.014324749 -0.010194497 -0.018583594 0.0022467887
-0.0055191857 0.007694571 -0.022422016 -0.011907645 0.023646621 -0.0088650035 -0.0019199917 -0.0058869296
-0.0040842593 -0.020551603 0.002076826 -0.014850925 0.0010762761 0.0030668115 -0.023864213 -0.021638539
0.012787362 0.019789241 -0.01712701 -0.024740657 -0.014567144 0.013259579 0.016562171 -0.013890211
-0.014385381 0.014044301 -0.01264908 -0.026191382 0.023794735 0.009380205 -0.021013485 -0.02253741
-0.013145542 0.027196465 -0.0061216364 0.016619183 0.011339824 -0.004763884 -0.014105074 0.017587274
0.02785642 0.01701975 0.026441922 0.0018449782 0.027349753 -0.020885542 0.02306121 -0.017938498
-0.01912338 0.02550722 0.0031450286 0.02777552 -0.02348735 0.005184541 0.015508212 0.022630112
0.0128042735 0.012965385 -0.0065787174 -0.012356199 0.022516161 -0.016479291 0.011377786 -0.011942678
-0.011621194 0.02958443 -0.0038247458 0.01542958 0.007168625 -0.02035052 0.025166791 0.00635434
-0.00803351 0.027233941 -0.008670022 -0.014196883 -0.0061699376 0.0132356975 -0.0037498623 0.020011202
0.018334473 0.015507237 0.017680485 -0.017561827 0.02570376 0.01731492 -0.0022993179 0.025532177
-0.00086042716 -0.018912686 -0.011469549 0.00055176823 -0.015736282 -0.019453049 0.022891127 -0.005126234
-0.01660307 -0.013256025 0.011191518 -0.022555918 0.007455339 0.027944675 0.005433988 -0.015287205
0.022746745 -0.005741338 -0.009932233 -0.01753223 -0.011591983 -0.014637657 -0.010879342 0.010671404
0.0097307945 0.025268076 -0.017257143 -0.009884586 0.02335303 0.0052793534 0.019611996 -0.0028031925
-0.0183637 0.008887403 -0.015504001 -0.0027304199 -0.022917984 0.021109879 0.01161258 0.012406783
0.0013257856 -0.011678579 0.009812478 0.0031611163 0.027676607 -0.003974105 -0.011836845 0.023423426
0.0037549809 -0.019628795 -0.011437402 0.012427882 0.006718578 0.006344422 -0.014555253 0.026378646
-0.017087212 0.0028764918 0.003445552 0.019377207 -0.01404725 0.022657229 -0.017217796 0.010897786

bnorm.weight f4 [20]
00000000: 4b6e 933f 14b4 933f 4fb6 953f 1b6f 923f
00000010: 04fe 923f 1348 983f f01a 943f cfcf 943f
00000020: fa08 953f c9c1 953f ea16 923f df57 963f
00000030: dfa1 943f 5c27 963f c0d0 973f 07f6 983f
00000040: 5066 973f a06b 9a3f 9bb1 973f 8da5 913f
1.1518034 1.153933 1.1696261 1.1440157 1.148377 1.1896995 1.1570721 1.1625918
1.1643364 1.1699764 1.1413243 1.1745566 1.1611899 1.1730762 1.186058 1.1950082
1.1828098 1.2064095 1.1851076 1.1378647

bnorm.bias f4 [20]
00000000: ebb0 2a3d 4f7b 3f3d c26f 99bc 0fa8 043c
00000010: a4ce 14bd 3b8a c9bc 2b14 9abd 43e2 3c3e
00000020: 2426 3bbe fabe d23c f8fa 833e 86ea 3d3d
00000030: c569 c7bd 68e1 b33d 8811 7b3d 9e15 c73d
00000040: 3058 28be c2a7 e73d 1921 b13d 54a5 8bbc
0.04167263 0.046748456 -0.018730048 0.008096709 -0.03632988 -0.024602046 -0.07523378 0.18445687
-0.18276268 0.02572583 0.2577741 0.046366237 -0.09736971 0.08783227 0.061296016 0.0972092
-0.16439891 0.11311294 0.08648891 -0.017046608

bnorm.running_mean f4 [20]
00000000: 52e6 583c 6d1c 0a3c 5a26 d6bc af9e 903b
00000010: 2151 d93c eacf 64bc b43c 57bc 6c4a 1c3c
00000020: 2daf 283c be8b 8a3c f328 20bc 2564 be3b
00000030: a4d5 e939 05ee d4bc 5d02 6fbb 79aa 833b
00000040: ad10 433c 3d20 b93b 0339 eaba 7c05 bf3b
0.013238506 0.008429629 -0.026141334 0.004413448 0.026527943 -0.013965586 -0.013137031 0.009539228
0.010295671 0.016912337 -0.009775388 0.005810278 0.00044600398 -0.025992403 -0.0036469914 0.0040181247
0.011905831 0.005649595 -0.0017869774 0.005829511

bnorm.running_var f4 [20]
00000000: 9ac3 ea41 a0a9 d241 faf7 2742 871c b741
00000010: 0797 e041 4991 ca41 262d b241 1958 0342
00000020: a0eb 1642 e359 fd41 7ea0 9a41 c510 ff41
00000030: db57 ff41 c6d7 0942 c2d2 9241 4f3a 2042
00000040: 81d6 6d42 87bb 3442 db64 2742 8c2e bb41
29.345509 26.332825 41.992165 22.88893 28.073744 25.32094 22.272045 32.836033
37.730103 31.66889 19.328365 31.883188 31.917898 34.460716 18.35291 40.056942
59.459476 45.183132 41.84849 23.397728

conv_classifier.weight f4 [1, 20, 162, 1]
00000000: e694 f2bc 0a51 c63c 0c40 fd3c 8575 42bc
00000010: 4ae9 953c 1b14 7cbc 2733 d2bc daf6 1ebd
00000020: 914f 13bd bf16 693d ca75 d7bc f99c 54bb
00000030: 6d28 70bc 7067 e2bc df41 803b a6c5 0ebd
00000040: ed82 55bc f61c 603d 4f57 6fbc fc06 60bc
00000050: 4e31 38bc b5a6 ba3b c3b5 2ebd e54a 223a
00000060: 070a e93b bde7 013c 89c9 26bc 2ce8 b4bc
00000070: e424 5ebc 2629 023d 5035 5abc 4460 fb3a
00000080: daf8 f7bc b81d 55bc a37f cebc 3f90 2fbc
00000090: 3698 adbc 42ca 9ebc 6661 2fbd 3859 84bc
000000a0: 35e5 6cbc 178b 59b9 2908 7abc c051 d7bc
000000b0: 5f2d 83bb 65a3 da3b 916a 8cbc 6f77 13bc
000000c0: b791 1a3d ac38 883b fabf 063d 3c63 cb3c
000000d0: 12a7 973c 67d5 163d 62d5 dcbc 9a8f 043d
000000e0: e7cd 6bbc b572 503c 038c 61bd a653 3a3c
000000f0: 3575 e43c 9019 e63c 74f8 a93c 43f9 083c
00000100: 46da 29bc eb3e 96bc 0fdc a23b 8a4a aebc
00000110: fd0c cc3b b125 833d b6aa 8d3c cdfc 6cbc
00000120: 55f5 963c 84fc 04bd 0cd7 bd3b 8b49 eebb
00000130: bec3 993c 45f6 923b 4756 ac3c 39e4 8bbc
00000140: ce75 83bc 1519 dfbc 5ff4 45bc c96c 42bc
00000150: 2b2e f6bc 903c 7e3c 813b b73b 464c 243c
00000160: cefa 66bc dfe8 03bd f3e8 8cbb e419 65bd
00000170: e062 9dbc c1d9 b03c f13a c23c 0914 82bc
00000180: 93a0 05bd b686 ca3c c0dd aa3c 559c 0bbb
00000190: e4e6 5ab8 7d7d b43b be6f 42bd 4d96 763c
000001a0: c019 433c 48b6 0bbd d7ce 47bb 8867 e03c
000001b0: 977a 43bc ffcc 3dbd ddf5 e03b 64e9 36bd
000001c0: d747 abbc 0f97 bcbc f105 9fbc 891c 75bd
000001d0: 0d66 dbbb 2fe4 23bd 9e32 c9bb 5416 ff3c
000001e0: 0d8c c9bc 41ae c13c 42e9 3abd 5fa9 c8bc
000001f0: 6155 103d e568 02bc 1eaa 25bd 5841 ea3b
00000200: 4439 aebc 35fb 33bd 3197 bcbc 9f91 cc3c
00000210: 3eb1 85bc b4be 613c c229 26bd 7eda 8e3b
00000220: 56d1 cb3c 9503 9b3b 487c 4a3c e907 11bd
00000230: 34b3 2bbd 2559 47b9 b63a d0bc 7c06 8039
00000240: 9a5f 9e3c 52ee 7ebc d91a 023d ce04 253b
00000250: 00e6 a13c 668a 08bd 72ea 953c ce4d 25bc
00000260: b33e 913c 0ae9 7cbd 9681 b43c 8f99 2cbd
00000270: c582 38bc b9e8 9f3c 65d7 ebbc 4ce8 2cbd
00000280: 58a0 38bc 732b d83c 99d4 5e3c 4e27 83ba
00000290: 14de d0bb bd4d 94bc dd52 3ebb 7270 07bd
000002a0: 31dd 62bd b976 fcbc cefe 5bbc c192 413d
000002b0: 7298 fd3c 85b2 a2ba b2c8 303c 36a0 2a3d
000002c0: 2cec a23c 39a7 023d e26a 47bb ce36 7bbc
000002d0: 0c08 af3b 06c1 22ba 4b2b f23c 2b01 bc3c
000002e0: b35a 733c 882e d63b 9a27 e3bb 09f6 0b3d
000002f0: 6e92 08bd 1fe5 4f3c b888 99bb ee28 3e3d
00000300: 0702 4bbc ca5d 46bc b47a 83bc b6f9 c03b
00000310: 8242 56bc c7d4 efbc 21f3 44bd 82a7 5cbd
00000320: 19b9 0dbd 7f4f 60bd 56ba aebc 5265 0fbd
00000330: 8ad8 4bbc f56b 24bc 87f8 863c 353f 43bd
00000340: e415 f03b c432 943a b3b6 7ebc 9b94 65bc
00000350: abe6 efbc 47df a33c 720c 44bd e58c 41bd
00000360: b43f d43b 04be 533d 55a0 7bba 7693 b6bc
00000370: 4e7c b33c 21f1 843c 2cf5 30bd f248 17bd
00000380: d361 983c 77bd f7bb 79b6 59bd 5a37 bcbc
00000390: 6dac 21bd fa73 483c 2867 043d b948 fe3b
000003a0: 65b0 393c 97ee 8abc bbda 4cbd 4871 d4bb
000003b0: 6e90 9abb a10f 92bc a564 3ebc 2291 48bd
000003c0: 7611 ec3c 47eb 123d 67d6 b03b aa39 ba3c
000003d0: 4d25 f13b 1c2a 903c 6022 0cbd c60f e73c
000003e0: f310 b03c db97 813c 4704 c6bb fa7d 10bb
000003f0: 7ed2 0ebd 3cc3 1a3c 9f85 123c 7408 123d
-0.029612016 0.024208564 0.030914329 -0.011868839 0.018299717 -0.015385653 -0.025659157 -0.038809635
-0.035964552 0.056906458 -0.026301283 -0.0032442196 -0.014658076 -0.027637213 0.0039141024 -0.03485646
-0.013031703 0.05471512 -0.014608218 -0.01367354 -0.011242224 0.0056961426 -0.04265381 0.000619097
0.007111791 0.007928786 -0.010179886 -0.022083364 -0.0135586 0.031777523 -0.013318375 0.001917847
-0.030270029 -0.013007574 -0.025207346 -0.010715543 -0.021190744 -0.019383553 -0.042817496 -0.016155824
-0.014458944 -0.00020746548 -0.015260735 -0.026284099 -0.0040032114 0.00667231 -0.017140659 -0.009000643
0.03773662 0.0041571464 0.032897927 0.024827592 0.018512283 0.03682461 -0.026957218 0.03236351
-0.014392353 0.012722661 -0.055065166 0.011372482 0.02788792 0.028088361 0.020748354 0.00836021
-0.010366982 -0.018340549 0.0049700807 -0.021275777 0.0062271343 0.064036734 0.017293315 -0.014464569
0.01842753 -0.03246738 0.005793458 -0.0072719506 0.018770095 0.004484924 0.021037234 -0.017076598
-0.016047385 -0.02723364 -0.012082188 -0.011866757 -0.030051311 0.015517369 0.00559181 0.010027951
-0.014097882 -0.032204505 -0.0043002306 -0.055932894 -0.019212186 0.021588208 0.023709746 -0.015878694
-0.03262384 0.024722438 0.020857692 -0.0021302898 -5.2190284e-05 0.0055081234 -0.047469847 0.015050483
0.011907995 -0.034109384 -0.0030488276 0.027393118 -0.011931083 -0.046338078 0.0068652467 -0.044656172
-0.02090828 -0.02302125 -0.019412013 -0.059841666 -0.006695515 -0.040012535 -0.0061400672 0.031138577
-0.024602914 0.023642661 -0.04563261 -0.024494825 0.035237674 -0.007959579 -0.04044544 0.007148903
-0.02126754 -0.04394074 -0.023021312 0.024971781 -0.016319867 0.013778377 -0.040567167 0.0043595424
0.024880093 0.0047306516 0.0123587325 -0.035407934 -0.04191895 -0.00019011328 -0.02541862 0.00024418894
0.019332696 -0.01555975 0.031763885 0.0025179866 0.019762993 -0.033335112 0.018300269 -0.010089351
0.017730093 -0.06174568 0.022034448 -0.042138632 -0.011261647 0.01952015 -0.028789232 -0.042213723
-0.011268698 0.026387906 0.013600492 -0.001000622 -0.00637413 -0.018103475 -0.002904109 -0.03306622
-0.055386726 -0.03081833 -0.013427449 0.047259096 0.03095648 -0.0012412822 0.010790037 0.041656695
0.019888006 0.031897757 -0.0030428697 -0.015332891 0.0053415354 -0.00062085723 0.02956166 0.022949776
0.014853167 0.0065363087 -0.006932211 0.034170184 -0.03334277 0.012688904 -0.0046854876 0.046425752
-0.01239062 -0.012107322 -0.01604972 0.005889143 -0.01307738 -0.029276265 -0.04808343 -0.053870685
-0.03460035 -0.054763313 -0.021329086 -0.035008736 -0.012441764 -0.010035505 0.016475929 -0.0476677
0.0073268283 0.0011306633 -0.015546489 -0.014012481 -0.029284796 0.020003928 -0.04786343 -0.047253508
0.0064773206 0.051694885 -0.00095987815 -0.022287112 0.021909859 0.01622826 -0.043202564 -0.0369348
0.018601334 -0.0075604278 -0.053152535 -0.022975612 -0.03947108 0.012234682 0.03232494 0.007760134
0.01133356 -0.016959472 -0.050013285 -0.0064832307 -0.0047169244 -0.017829718 -0.011620675 -0.048966534
0.02881692 0.03586891 0.0053966525 0.022732574 0.007359183 0.017598204 -0.03421247 0.028205764
0.021492457 0.01581948 -0.0060429904 -0.0022047744 -0.03486871 0.009445962 0.008942991 0.035652593
