final_presentation/final_results/shallow/interval1/7000/2021-10-14_02-13-47/checkpoints/best_model_1_trial_8_validation_acc=0.9466.pt (torch, 507919 bytes, 6 tensors)

conv_time.weight f4 [20, 62, 100, 1]
000000 e6 28 c1 3c 1a 41 93 3b a3 fb 0a 3c 7e 4f a1 39
       0.023579072 0.0044938447 0.008482846 0.0003076754
000010 e6 d6 a7 bc 51 fb 21 bc b5 80 38 3c 3a 73 8e bb
       -0.020488214 -0.009886579 0.011261155 -0.004347232
000020 99 a4 c9 39 38 bb 79 bc 42 19 fe 3a b4 1b 7a 3c
       0.00038460342 -0.01524239 0.001938619 0.015265394
000030 d7 3d 80 bc d4 09 83 bc 18 85 84 bc 01 1a 46 bc
       -0.015654488 -0.015995897 -0.016176745 -0.012091161
000040 19 17 5f bc 0f a6 27 bc 78 d4 9c bb 65 e7 a2 3c
       -0.013616347 -0.010232463 -0.0047860704 0.019885728
000050 02 0c 48 3b 24 53 fc bc ab e3 21 3c b4 76 f7 bc
       0.0030524735 -0.030801363 0.00988094 -0.03020797
000060 bb e8 1f bc b1 b2 05 3c 9a a9 9e 3c b6 eb a8 bc
       -0.009760077 0.008160279 0.019367982 -0.020620208
000070 ae 2b 45 3b 36 e9 98 bc be dd 97 3b 18 fc 20 3b
       0.003008585 -0.018665891 0.004634588 0.0024564322
000080 66 68 ed 3a 3f 75 10 3b 62 5f d4 bc 83 b6 d7 3c
       0.0018112778 0.002204254 -0.025924388 0.026332146
000090 26 ff ba 3c 7b 1f 37 bc dc 33 e0 bb 4d de 92 bc
       0.022826742 -0.011176939 -0.0068421196 -0.017928267
0000a0 22 0a 55 ba be 45 3b 3c 57 03 9f bb 83 7e f5 3b
       -0.0008126815 0.011430202 -0.004852693 0.007491888
0000b0 8b 44 b3 3c 1c 4e 56 3c 69 f0 46 3c 26 73 c8 3c
       0.02188327 0.013080146 0.012142279 0.02446897
0000c0 29 68 fe 3b 9e 4f 1e 3a 37 b6 17 3c 3e d7 2e bc
       0.0077638817 0.00060390856 0.009259752 -0.010671435
0000d0 81 33 d9 bc 29 da c7 3c 8c a4 42 3b 94 13 9b bb
       -0.026513817 0.024396019 0.0029700128 -0.0047325585
0000e0 c2 9e 02 3c 6c 33 e9 bc 4c 84 31 bc 0d 08 83 bc
       0.007972421 -0.028466903 -0.010834765 -0.01599505
0000f0 14 43 74 3c a3 7d 51 bc d5 91 ab 3c b1 40 3a bc
       0.014908571 -0.012786302 0.020943562 -0.011367963
000100 62 4f 3f ba 07 ff e7 bc 4f b1 48 3b 98 ba af 3b
       -0.0007297901 -0.028319849 0.0030623262 0.00536282
000110 7d 72 78 bc 2a 03 9a bc b9 4d 1c bc 4e c7 75 3c
       -0.015164015 -0.018800337 -0.009540015 0.015001131
000120 5a d8 80 bc 97 fd d9 3a d8 c6 f5 bc bb eb 6a bc
       -0.015728164 0.0016631362 -0.030002043 -0.014338429
000130 e0 37 1d bc 94 5d f0 bc 16 f2 eb bc a5 28 e2 3b
       -0.009595841 -0.029341497 -0.028801959 0.006901818
000140 f4 de 62 bc a1 27 27 bc 6c 95 ba bc 3c 6e 59 3b
       -0.0138471015 -0.010202319 -0.022776328 0.0033177277
000150 d1 bf ef bc 07 a1 aa bc d3 a9 9f ba c6 1c 8b 3c
       -0.02926627 -0.020828737 -0.0012181349 0.016981494
000160 21 7f 98 bb 3a 6c ab 3c 9b dc 4b bc ec 3f f7 bc
       -0.004653827 0.02092563 -0.012442733 -0.030181848
000170 37 e4 ee bc 36 a3 e3 bc d0 06 a7 3c 5e a3 92 3b
       -0.029161556 -0.027787786 0.02038899 0.0044750413
000180 98 b1 b0 bc cc b4 d8 bc c7 0c d7 ba c5 3f 92 bc
       -0.021569058 -0.026453398 -0.0016407006 -0.017852673
000190 35 8c cf 3c 7a d8 47 3c 24 e5 b9 3c f7 52 52 bc
       0.02533541 0.012197608 0.02269227 -0.012837163
0001a0 93 16 e2 bb 7e 31 5b bc a9 5d 6e bc c5 ac 9e bc
       -0.0068996637 -0.013378499 -0.0145486975 -0.019369492
0001b0 5c 1e 37 bb 73 b9 7e 3b fa 83 96 bc 8c 68 86 bc
       -0.002794168 0.003886786 -0.018373478 -0.016407274
0001c0 b9 85 d6 bb 17 69 ba 3b d9 08 aa 3c 4c 52 36 3b
       -0.0065467027 0.005688797 0.020756172 0.002782005
0001d0 ff 1c b8 bc 14 13 81 39 20 bf 07 bd a2 89 8f 3c
       -0.022474764 0.00024619012 -0.033141255 0.017521683
0001e0 ab b9 1f 3b 6a 34 45 3c b4 a5 43 bc 80 4f ad bc
       0.0024372141 0.012036422 -0.011941362 -0.021156073
0001f0 a6 75 aa 3b be 46 0e bd f6 89 de bc f4 c3 40 3c
       0.005202013 -0.034735434 -0.027165394 0.011765469
000200 0d e1 a7 bc 9a 5f ff 3b 8e 51 56 3b ac d9 b9 bc
       -0.020493055 0.007793379 0.003270242 -0.022686802
000210 4a 43 f6 bb 8c dc 74 bc 01 a6 86 3b bf bc dd bc
       -0.0075153457 -0.014945161 0.0041091447 -0.02706754
000220 62 1a d1 bc cd de a7 bc dc 90 d9 3c d0 eb 25 3c
       -0.025525276 -0.020491982 0.026558332 0.010127023
000230 ea a0 9b 3c 42 8f bf bc 7f b0 78 bc 3a 6f ba 3a
       0.018997628 -0.02338374 -0.015178799 0.0014223822
000240 f4 40 1f bc 86 05 9d bc 07 9d 83 3c ab 3e 81 bb
       -0.009720076 -0.019167673 0.016066087 -0.003944238
000250 47 50 08 3c 56 3f 93 3c a2 1f 3b 3b 4c d2 fd bc
       0.008319921 0.017974537 0.002855279 -0.030984066
000260 38 3e 5f bc b8 88 80 3c 64 25 9a 3c d3 d8 43 3b
       -0.013625674 0.015690193 0.018816657 0.0029883876
000270 dc 80 db bb 07 e4 20 bb 9d b5 a2 bc 3c 40 fb bc
       -0.006698711 -0.0024549977 -0.01986199 -0.030670278
000280 56 c5 2c 3c 0b cb 55 bb 37 3a c0 bc 55 12 00 bc
       0.010545095 -0.0032622244 -0.023465259 -0.007816871
000290 e4 df 0c bd 5c cb cd bc 3b a1 0f bd fb 88 1d bd
       -0.034393206 -0.025121383 -0.03506587 -0.038460713
0002a0 c3 b0 d0 bc 2d 13 28 bd a2 95 78 bc 9c f7 65 bc
       -0.025474912 -0.041033912 -0.015172394 -0.014036085
0002b0 66 56 18 bd 91 4b 73 bb b8 e1 a2 bb 7a a8 93 bc
       -0.03719177 -0.0037123899 -0.0049707554 -0.018024672
0002c0 fc 8f 23 39 e4 dc 19 bc 46 65 56 3b 40 f4 fe bc
       0.0001559853 -0.009391043 0.0032714172 -0.031122327
0002d0 8d ce 4f 3c 5d 3d 6f bc 85 03 fd bc 74 26 5f bb
       0.012683523 -0.0146020325 -0.030885467 -0.003405002
0002e0 6a c4 f6 bc 45 95 6e bb 41 eb b0 bc 8e 82 6a bc
       -0.030122954 -0.003640489 -0.021596553 -0.014313353
0002f0 3d e4 07 3b 20 81 d3 bb 0c d2 80 bc 3b 6c d0 bc
       0.0020735406 -0.006454602 -0.015725158 -0.025442233
000300 4b db cd bc 7c 53 07 bd 1e fd b5 bc 1e 63 49 3b
       -0.025128981 -0.0330386 -0.022215422 0.0030729244
000310 6e bd d7 bc 33 04 04 3c 9b cb b4 3a 44 b4 54 3c
       -0.026335444 0.008057642 0.0013793589 0.012982432
000320 ac 89 e0 3b 58 5d 9a bc cb 25 62 3b 45 1b a8 3c
       0.0068523493 -0.018843338 0.003450739 0.020520816
000330 42 c4 80 bc 32 cb b7 bc 13 78 5f 3c 49 c9 1f 3c
       -0.015718583 -0.022435758 0.013639468 0.00975258
000340 7c c8 c3 bc 54 69 af 3a 2d a7 89 3b f5 d8 d9 3b
       -0.02389931 0.0013382831 0.004200837 0.0066481777
000350 b9 19 8c 3c c1 48 40 bc 64 42 6e 3c 7f 7b b8 bc
       0.01710211 -0.011736096 0.014542196 -0.022519825
000360 16 01 7a bc 8a 6e a2 bc 19 b9 07 bd 2f 30 94 bc
       -0.015259048 -0.0198281 -0.033135507 -0.018089382
000370 5d 54 2c bc 1f c9 e1 ba ae 1c 89 bb 4c c4 8d bb
       -0.010518161 -0.0017226076 -0.004184327 -0.004326379
000380 c3 39 11 bc 4d 85 fa 3b d4 f7 98 bc 43 57 a5 bb
       -0.008863869 0.007645285 -0.018672861 -0.005045803
000390 59 b0 eb bc 5f 99 d6 3b d3 51 a9 bc da d4 b3 bb
       -0.028770613 0.006549045 -0.0206689 -0.0054880204
0003a0 e4 49 69 3c 23 4e af 3c af f9 00 bc 58 37 05 bb
       0.014238808 0.021399563 -0.007872029 -0.0020327177
0003b0 6b 4f ef 3a a4 54 d5 bb 8a b5 86 3b da d5 96 bc
       0.0018257921 -0.006510334 0.0041109966 -0.01841252
0003c0 37 3b 39 3c 3b b2 8e bc 4e a8 ab bc 51 86 fe bc
       0.011305622 -0.017418971 -0.020954277 -0.031069906
0003d0 36 a3 44 3c 31 b8 91 3c 5d 76 c6 3b 8f 50 8c 3c
       0.012001803 0.017788025 0.0060565905 0.017128257
0003e0 fa 24 ce bc a9 27 35 bc e3 0a 89 3b 05 39 b0 ba
       -0.025164116 -0.011056819 0.004182206 -0.0013444728
0003f0 96 f0 fe bc 4d ed 88 3c 8e 5d bd 3c f1 87 8c bb
       -0.03112058 0.016714716 0.0231159 -0.0042886664

bnorm.weight f4 [20]
000000 3b 93 c9 3f 4d 1e c2 3f cf 2b c4 3f 00 41 c7 3f
       1.5748056 1.5165497 1.5325869 1.5566711
000010 05 f5 c2 3f 69 9f c0 3f 7d 52 c7 3f 64 8d c8 3f
       1.5231024 1.5048648 1.5572048 1.5668149
000020 ac ff c2 3f ab 4e bd 3f 6c 94 b9 3f f9 d0 c5 3f
       1.5234275 1.4789633 1.449842 1.5454398
000030 1d 0c bc 3f d5 8a c0 3f 1b 86 bf 3f 5c 06 c3 3f
       1.4691197 1.5042368 1.4962801 1.5236316
000040 dd 51 ca 3f 0a c4 c7 3f ef 62 c6 3f 7d fd c2 3f
       1.5806233 1.5606701 1.5498942 1.5233608

bnorm.bias f4 [20]
000000 88 be 3d 3c da 58 a2 be c5 25 84 be 88 9e c2 bd
       0.011581071 -0.31708413 -0.25810066 -0.09502894
000010 4a 05 4b be 2d 83 6e bd 3f e7 9a 3d be 8c 1d bd
       -0.19826236 -0.058230568 0.07563638 -0.0384643
000020 76 30 ab bc d6 7e 09 3f 9e 3e 1b bf c6 18 09 be
       -0.020897131 0.5370916 -0.6064242 -0.13388357
000030 9d 81 ac 3e 16 6d 95 3d 49 a4 16 3d d8 e9 02 3d
       0.33692637 0.07296197 0.03677777 0.031961292
000040 f5 3b 1f be 20 b6 ce be 75 e7 e2 3c 0b 96 b3 be
       -0.15550216 -0.40373325 0.027698258 -0.3507541

bnorm.running_mean f4 [20]
000000 ea 3b 9e bc dc ba c0 bc c9 0d 2f 3d 8c 45 bf bc
       -0.019315679 -0.023526601 0.042737756 -0.023348592
000010 9a 14 82 39 80 d7 a0 3c 36 cf 3e bc 82 be 73 bc
       0.00024810882 0.019634008 -0.011646083 -0.014876964
000020 54 ad b1 3c 71 00 4b bc 54 c3 99 3c 05 81 88 3c
       0.021689095 -0.012390242 0.018769898 0.016663084
000030 00 f0 64 3c 45 29 d3 bc 7f 37 83 bc 48 51 ae bc
       0.013973236 -0.025776515 -0.016017674 -0.021278992
000040 02 dd c3 3c a5 41 90 3c ff 7a 8c bc 13 2e 97 bc
       0.023909096 0.017609427 -0.017148493 -0.018454587

bnorm.running_var f4 [20]
000000 49 82 11 42 09 a8 87 42 91 02 c0 42 3b 0f 54 42
       36.37723 67.82819 96.00501 53.014874
000010 4e a0 19 42 6a 94 e2 41 2a c5 22 42 68 d3 a6 42
       38.406548 28.322468 40.692543 83.4129
000020 0c 2e 2e 42 05 a8 b4 42 66 b2 b9 42 fc ae 11 42
       43.544968 90.32816 92.848434 36.420883
000030 21 2f 60 42 f1 22 68 42 67 36 b1 41 1f 93 36 42
       56.046024 58.034122 22.151564 45.643673
000040 ba 9d 3f 42 44 e8 ca 42 56 a2 90 42 ec 87 a4 42
       47.90403 101.45364 72.31706 82.26547

conv_classifier.weight f4 [1, 20, 109, 1]
000000 fd 7d e0 bc dd aa dc 3c 8e 28 87 3d c0 38 4d bd
       -0.027403826 0.026936943 0.06599532 -0.05010295
000010 54 d8 fc bb 97 71 4f 3c 1e c6 00 3e 03 17 18 3d
       -0.007716218 0.012661359 0.12575576 0.03713132
000020 02 29 02 3e 29 10 a9 3c c8 c2 ba bc 94 22 17 bd
       0.12710956 0.020637589 -0.022797957 -0.03689821
000030 7c 37 c3 bc c9 9b 6a 3d 42 36 bb 3d e4 cb c4 bb
       -0.023830168 0.057277475 0.09141208 -0.006005751
000040 3e b8 24 bb f7 92 85 3d be 3d 09 bc d8 d6 e3 3c
       -0.002513423 0.06522172 -0.008376537 0.027812406
000050 91 6e 97 3b 86 23 6d 3d 35 dd b1 bc f1 b6 12 3c
       0.004621335 0.057895206 -0.021711925 0.008954749
000060 e3 5f 37 bd f3 0d 0e bd 9b 8c 5e 3d 4b f9 99 3b
       -0.04476918 -0.03468127 0.05433331 0.0046989075
000070 75 ce f0 bc 4c e6 ce 3c 87 43 7d 3c c1 ce 27 bc
       -0.029395321 0.025256298 0.015457994 -0.010242165
000080 a6 60 32 3d 44 83 7d 3d fe 5d 0b 3e e8 e5 0b 3d
       0.043549202 0.061892763 0.13610074 0.034154803
000090 ee 59 4d bc a6 dd 03 3b 65 0c 86 bd 40 c6 88 3d
       -0.012533648 0.0020121126 -0.06545333 0.06678438
0000a0 18 d7 62 3d dd c9 a5 3d 0f cd 85 3d 28 61 2e bb
       0.05538091 0.08095143 0.065332524 -0.0026608203
0000b0 43 73 11 3d 26 1a 96 bd c1 fa 92 bd 8e ac 52 bd
       0.035510313 -0.07329206 -0.07176734 -0.051434092
0000c0 28 18 a6 3d d0 ef af bd 65 99 19 3d b2 d9 6d bd
       0.08110076 -0.085906625 0.037499804 -0.05806894
0000d0 5f 36 db bc 05 46 8e 3d 3b 86 eb 3c 29 d7 19 3e
       -0.026759325 0.06946949 0.02875053 0.15023483
0000e0 4f 4f 11 3d 8c 25 e5 ba ec 1e 9d bd ee aa 3c bd
       0.035476025 -0.0017482503 -0.076719135 -0.04606145
0000f0 0f e3 7f bd 46 e6 b2 bc 81 aa cd bd 9f ca 02 3d
       -0.0624724 -0.021838319 -0.10042287 0.031931516
000100 d8 13 5b 3c 22 3e 44 3c 99 35 c4 bd e5 18 27 3d
       0.01337143 0.011977704 -0.095805354 0.040795226
000110 03 4e 7a bd 3f 72 92 bc 42 54 8d bc 86 d9 51 bc
       -0.061109554 -0.017876742 -0.017252091 -0.012808209
000120 b4 a8 cd bc 64 e7 99 bd 80 3f 51 bd 1f 50 87 bd
       -0.025104858 -0.075148374 -0.05108595 -0.06607079
000130 f9 ee c3 bc 66 93 7f 3d 74 3d 47 3d 22 59 8e 3d
       -0.023917662 0.06239643 0.04864259 0.069505945
000140 7d 84 38 bd 20 00 9f 3c 3f af 5f 3d 2a 86 40 bd
       -0.045048226 0.01940924 0.054610487 -0.04700295
000150 fa 2f bb 3c 2c dc 6a bd 04 99 11 bd a7 64 85 bd
       0.022850025 -0.05733888 -0.035546318 -0.065133385
000160 71 3d e3 3a 0c 8f 42 3c 89 fd 4b 3d 6f 63 9b 3d
       0.0017337037 0.011874925 0.049802337 0.07587325
000170 a7 8c e5 bd 79 8b af bd bf 2c b2 3c 07 a6 2a 3c
       -0.11208468 -0.08571524 0.021749852 0.010415561
000180 93 5a 65 bd 38 bc c3 3a 8b 50 c8 3d c2 36 96 bc
       -0.05599458 0.0014933413 0.09780987 -0.018336657
000190 fb 72 17 bc c9 9f 94 3c 13 07 aa bc c0 8f f5 bc
       -0.009243722 0.018142598 -0.020755326 -0.029975772
0001a0 a5 98 33 bd 89 9b 52 bd a1 b4 27 3c 3f 63 01 3d
       -0.043846745 -0.05141786 0.010235936 0.03158879
0001b0 ec 9d 5b bd 3c ff b2 3d c5 15 8e ba 7b ea 6a bd
       -0.053617403 0.08740088 -0.0010840228 -0.057352524
0001c0 e0 d1 b1 3d 4a 53 24 bc 35 16 25 bd 58 ee ae bd
       0.086826086 -0.010029623 -0.04030438 -0.08541554
0001d0 dd 91 32 be 46 9d 1c be b0 b4 01 bd d1 68 c7 bd
       -0.17438455 -0.1529437 -0.031666458 -0.09736789
0001e0 63 04 28 3c d8 8d ec bc 48 5b ad bd 40 14 d9 bc
       0.010254952 -0.02887623 -0.08464676 -0.026498914
0001f0 eb 74 d7 bd 5e 90 34 bd 7b 8e 05 3d d3 ae ca bc
       -0.10520347 -0.04408299 0.032606583 -0.024741566
000200 69 db 36 bc 9d 6a 4e bd 92 f1 88 bd aa 92 50 3d
       -0.01116071 -0.050394643 -0.06686701 0.05092112
000210 df 99 85 3c 9e b8 cc bc fc 3b 21 3c d3 2d fa 3c
       0.016308723 -0.024990376 0.009840962 0.030539429
000220 0a bd b0 3d b4 05 8a bd 65 6b 13 bd c6 a3 32 bd
       0.08629806 -0.06739369 -0.03599109 -0.043613218
000230 44 99 c4 3d 37 8d 26 bd 95 1d 13 bd 5b f6 a6 3c
       0.095995456 -0.040662017 -0.035916883 0.020381143
000240 05 e8 8d 3d 2e ce 2d 3c 65 4e ea 3c 92 0b 64 bc
       0.0692902 0.010608239 0.028601835 -0.013918774
000250 89 6d 63 3d 00 66 6b bc 38 53 eb 3d db ef 1c 3c
       0.055524383 -0.01436758 0.11490482 0.00957867
000260 ac 03 1f 3d 1f ca c8 bc fc 7d 60 ba 16 37 e4 bb
       0.03882186 -0.024510441 -0.0008563695 -0.0069645746
000270 db 95 3d 3d f0 53 5f 3d 00 72 28 3e da 77 7d 3d
       0.04628549 0.05452341 0.16449738 0.061881877
000280 9f 36 7d bd 40 ab c5 3c 51 57 04 3d 75 10 cd 3d
       -0.06181967 0.02412951 0.032309834 0.100129046
000290 2b 7d 89 bd ef 03 ab bd c5 6c e3 b6 20 06 49 bc
       -0.06713327 -0.0835036 -6.7777896e-06 -0.012269527
0002a0 02 41 7e bc d2 19 82 bc 38 b1 b1 bd 83 a1 9a 3c
       -0.015518429 -0.015881453 -0.0867638 0.018875843
0002b0 22 81 fd bc eb 43 5d bd 91 45 41 bc d3 9f 13 3d
       -0.030945364 -0.05401985 -0.011796371 0.036041092
0002c0 4c 7b b4 3d cd 6a 0d bb 49 15 c0 bd 1b 06 8f bc
       0.088125795 -0.002157855 -0.0937906 -0.017458966
0002d0 1d d1 e8 3d 4a 13 64 3d 3d 36 13 bd 50 25 06 bd
       0.1136801 0.055682458 -0.035940398 -0.032750428
0002e0 ad f1 25 3d f1 6b 97 bc 6a d9 6f 3d f7 24 e5 3d
       0.040513683 -0.018484088 0.05855695 0.11188691
0002f0 24 91 d4 bd 61 37 a5 3d 05 74 57 3c 60 40 90 bd
       -0.10379246 0.08067203 0.01315022 -0.070435286
000300 ae 53 88 bd 73 b4 85 3d 7b 97 9e 3d aa 04 de bd
       -0.06656586 0.065285586 0.07743736 -0.10840733
000310 b8 b0 ba 3d be a8 80 3d fa 54 06 3e de 4b 22 3d
       0.09115738 0.06282185 0.13118353 0.039623134
000320 f5 88 8b bd 75 d2 a0 bd 11 d0 ba bb 03 4e 3b 3d
       -0.06813232 -0.078526415 -0.005701073 0.045728695
000330 ae 1e 10 3e 17 ed bb bd c4 d1 a7 3c 66 85 24 bc
       0.14074203 -0.09176081 0.020485766 -0.01004157
000340 75 a0 74 3d dc 86 2b 3d 94 24 a8 3d 81 66 59 ba
       0.059723336 0.04187666 0.08210102 -0.00082931673
000350 3b b1 bb 3c 84 c1 a5 bd e3 a3 47 3c b7 fa 5b bd
       0.022911659 -0.08093551 0.01218507 -0.053705897
000360 bd 9e 4c 3c b4 56 bb bc 1c 2b 86 bc a9 04 4d bd
       0.012489018 -0.022868492 -0.016377978 -0.050053272
000370 b4 23 c2 bd 67 5e 80 bd 21 08 13 bd 46 e2 88 3c
       -0.09479466 -0.06268006 -0.035896424 0.016709458
000380 71 2a 64 bc bf fa 18 bc 1b 6a 5d bd ed 6f c6 3b
       -0.013926134 -0.009337126 -0.05405627 0.006055823
000390 5e cc c3 bd 9e 89 cd 3b bb 9d c5 bd 6c 50 85 bd
       -0.09560464 0.0062725088 -0.09649225 -0.0650948
0003a0 75 61 89 bd fa 33 90 bd d4 94 86 3a 04 5c a3 3c
       -0.067080416 -0.07041164 0.0010267743 0.019941337
0003b0 92 7a b5 b9 67 a1 9d bd 96 45 fa bc 83 dd 84 bd
       -0.00034614332 -0.07696801 -0.03055076 -0.064875625
0003c0 6f e7 f6 3b 56 79 d5 3a 46 7f ad 3c d0 44 46 bd
       0.0075349133 0.0016286771 0.021178853 -0.04840547
0003d0 b0 0f 72 3b 24 b1 14 bd 65 c7 dd bd d6 04 48 bd
       0.003693562 -0.036301747 -0.10829047 -0.048832737
0003e0 66 a2 9b 3d 8f b6 11 3c 3d ce 33 bd c4 2f b9 bb
       0.075993344 0.008893623 -0.043897856 -0.005651446
0003f0 a5 85 3a bd 34 b3 af 3a 61 af e4 bb d0 8b d4 3c
       -0.04553761 0.0013404847 -0.0069789146 0.025945574
