final_presentation/final_results/shallow/interval1/7000/2021-10-14_02-13-47/checkpoints/best_model_1_trial_42_validation_acc=0.9723.pt (torch, 692367 bytes, 6 tensors)

conv_time.weight f4 [30, 62, 90, 1]
0.0046491134 0.031135462 0.031813346 0.008257211 -0.0020292134 -0.002140862 0.028733019 0.0019704702
-0.0021699262 -0.010535226 -0.013342056 0.009890679 0.01880867 0.0017668976 -0.00035821684 0.012168177
0.011598144 0.02261975 -0.0030834356 0.015578906 -0.012269778 -0.010129571 -0.01146244 0.029118331
-0.007935832 0.022825537 0.010606688 0.023947416 0.01239163 -0.0033983318 -0.011651308 0.012792373
-0.014637524 -0.00013977548 0.019362086 0.024064695 -0.005549718 -0.0047181286 -0.015012693 0.022040952
-0.015334934 -0.017051296 0.012914172 -0.016672775 0.0025146632 -0.0054518124 0.0049355533 0.025596274
0.0049882326 0.02411214 0.014206079 0.013108334 -0.0018617959 -0.0040908856 0.02652218 0.017548729
0.027601533 -0.016692566 0.00074914 0.010735067 -0.018475449 -0.009557283 0.022405295 -0.014492965
0.023716755 0.006099473 0.013373825 0.0032574134 0.019067679 -0.023641143 0.024758628 0.010633189
-0.004184859 0.00026399386 -0.0044689453 0.005415899 -0.01764592 -0.011492061 0.021783376 -0.012596176
0.0059282286 0.026683189 -0.019598087 0.012240015 -0.01962341 0.027037423 0.016725129 -0.023833519
0.02607144 -0.012760371 0.020084135 0.018998085 0.005344934 -0.00439234 -0.014311743 -0.003277477
0.01264986 0.0050489726 0.0030463226 0.010090065 0.023116203 0.026393903 0.02534262 0.0008030254
-0.010481011 0.011721758 0.009494583 -0.008563936 -0.019922413 0.01586318 0.022751877 0.026990224
0.010087192 0.027650565 -0.0055505275 0.006925962 0.015779918 0.014545353 -0.018451417 -0.022092605
-0.013877607 0.00016312672 -0.010000901 -0.012991924 -0.007643302 -0.0047000926 -0.024555117 0.0058213333
0.008421634 0.0142544955 0.010874538 -0.016211366 0.013340854 -0.022132197 0.010468048 0.016523914
0.0034794682 0.00062884577 0.02859382 -0.0037225066 -0.012157186 -0.0015647057 -0.0016348065 0.013505903
0.00041455863 -0.0006009594 -0.017469577 0.0113289505 0.0158904 -0.02355503 -0.01049431 0.013241802
0.0054033273 -0.028214991 -0.013899149 0.011669551 0.020976368 0.01015816 0.0008270215 -0.006068561
0.010376445 0.01495049 -0.0034581695 -0.024676863 0.017515725 -0.013915106 -0.009325292 -0.024762984
-0.00943843 0.008515012 0.017828608 -0.020864692 0.026537273 0.011650261 0.014870802 3.6442274e-05
0.025204357 0.006689409 0.014068591 0.013692065 -0.021425726 0.024681132 0.004000464 0.011728741
0.0019265988 -0.018394211 -0.008091689 0.027078738 -0.023277797 0.019586803 -0.018562993 -0.01973004
0.011774265 0.002122821 -0.013232826 -0.0065138023 -0.008228096 0.0005898228 -0.008164809 -0.016633455
-0.011874658 0.02053252 -0.01775454 0.0032827228 -0.014106449 0.0017799636 0.00048982014 0.017057296
-0.02246334 0.018881878 0.0092468895 -0.017261965 -0.02012894 -0.027292103 -0.01213503 0.010069557
0.012963678 -0.024686312 0.023691153 -0.021251462 -0.011957618 -0.0214578 0.012954962 -0.014829289
-0.0019635295 -0.021513365 -0.025984466 -0.010982219 0.015459522 0.020990174 0.0138490405 -0.021785963
0.010119885 0.0145818405 0.004796459 -0.0057638306 0.000670239 -0.009585181 -0.018463021 -0.0070656002
-0.011827819 -0.01600517 0.0077597024 -0.025506007 -0.021292685 -0.02587164 0.016047986 0.01666138
0.01505377 0.004184461 0.011632573 0.0022221745 0.01427083 -0.020294866 -0.023132196 -0.023106491
00000000: 9757 983b cc0f ff3c b64e 023d 4149 073c
00000010: 8dfc 04bb b44d 0cbb 8261 eb3c 0123 013b
00000020: 5235 0ebb f19b 2cbc a498 5abc 840c 223c
00000030: a414 9a3c 3f97 e73a 0dcf bbb9 095d 473c
00000040: 2406 3e3c 0e4d b93c 7713 4abb ab3e 7f3c
00000050: 2e07 49bc 80f6 25bc f5cc 3bbc 9189 ee3c
00000060: 4b05 02bc 9ffc ba3c adc7 2d3c 5f2d c43c
00000070: 4306 4b3c 8cb6 5ebb 21e5 3ebc 1a97 513c
00000080: 3ad2 6fbc b290 12b9 3d9d 9e3c 5323 c53c
00000090: 69da b5bb 889a 9abb ccf7 75bc 3a8f b43c
000000a0: 603f 7bbc 29af 8bbc f795 533c 5895 88bc
000000b0: 0ccd 243b 1ea5 b2bb 6cba a13b 47af d13c
000000c0: 5474 a33b d386 c53c 9dc0 683c 56c4 563c
000000d0: 8107 f4ba d60c 86bb 0b45 d93c 5ac2 8f3c
000000e0: 9c1c e23c d9be 88bc ef61 443a 22e2 2f3c
000000f0: d359 97bc 2696 1cbc 4f8b b73c e773 6dbc
00000100: a449 c23c 17de c73b e31d 5b3c 547a 553b
00000110: d233 9c3c 12ab c1bc 9bd2 ca3c d436 2e3c
00000120: 2421 89bb a868 8a39 3b70 92bb db77 b13b
00000130: 2d8e 90bc 3349 3cbc 0d73 b23c 3160 4ebc
00000140: 9641 c23b b496 da3c 2b8c a0bc 588a 483c
00000150: 46c1 a0bc 967d dd3c 2303 893c 833e c3bc
00000160: c693 d53c e010 51bc 7c87 a43c dfa1 9b3c
00000170: 8e24 af3b 9eed 8fbb cd7b 6abc f1ca 56bb
00000180: 5c41 4f3c da71 a53b d0a4 473b cd50 253c
00000190: 315e bd3c 0738 d83c 549b cf3c 1f82 523a
000001a0: 8cb8 2bbc 9e0c 403c 2b8f 1b3c c04f 0cbc
000001b0: 5434 a3bc 80f3 813c 2562 ba3c 9a1a dd3c
000001c0: c044 253c 7083 e23c 33e1 b5bb 2ef3 e23b
000001d0: e344 813c a24f 6e3c 6d27 97bc 8dfb b4bc
000001e0: e75e 63bc ff0c 2b39 d2da 23bc 14dc 54bc
000001f0: aa74 fabb 3c03 9abb d027 c9bc e2c0 be3b
00000200: e5fa 093c b08b 693c 1e2b 323c b3cd 84bc
00000210: 9993 5a3c 954e b5bc 2d82 2b3c 295d 873c
00000220: ca07 643b 20d9 243a 963d ea3c 4cf5 73bb
00000230: ef2e 47bc d016 cdba 0147 d6ba dd47 5d3c
00000240: 1e59 d939 b489 1dba 5c1c 8fbc 109d 393c
00000250: 962c 823c 7af6 c0bc 54f0 2bbc 25f4 583c
00000260: 650e b13b 2023 e7bc 42b9 63bc a531 3f3c
00000270: a2d6 ab3c 696e 263c 79cc 583a c8da c6bb
00000280: f701 2a3c e6f2 743c 75a2 62bb 2227 cabc
00000290: 237d 8f3c 2ffc 63bc 1cc9 18bc bedb cabc
000002a0: a5a3 1abc 8d82 0b3c 4d0d 923c 6eec aabc
000002b0: b264 d93c bce0 3e3c aaa4 733c 98d9 1838
000002c0: 5e79 ce3c d432 db3b f37f 663c af54 603c
000002d0: 0185 afbc 1630 ca3c 5316 833b e829 403c
000002e0: ee85 fc3a 75af 96bc 0193 04bc 3bd4 dd3c
000002f0: 14b1 bebc 8174 a03c 6b11 98bc e5a0 a1bc
00000300: d9e8 403c 071f 0b3b 7fce 58bc bc71 d5bb
00000310: 23cf 06bc 579e 1a3a b1c5 05bc e242 88bc
00000320: ed8d 42bc d133 a83c f871 91bc f322 573b
00000330: bc1e 67bc ab4d e93a 4667 003a bebb 8b3c
00000340: 0a05 b8bc 2bae 9a3c 4480 173c f768 8dbc
00000350: 72e5 a4bc b093 dfbc 01d2 46bc c9fa 243c
00000360: 9b65 543c f33a cabc f313 c23c 8c17 aebc
00000370: e3e9 43bc 45c8 afbc 0d41 543c 8cf6 72bc
00000380: 8fae 00bb cc3c b0bc 60dd d4bc c4ee 33bc
00000390: ef49 7d3c 96f3 ab3c 16e7 623c 7a78 b2bc
000003a0: e0cd 253c ace8 6e3c 9d2b 9d3b 84de bcbb
000003b0: fab2 2f3a 2a0b 1dbc c33f 97bc 8d86 e7bb
000003c0: 78c9 41bc 461d 83bc 1a45 fe3b f9f1 d0bc
000003d0: ff6d aebc c3f0 d3bc 1177 833c 727d 883c
000003e0: 16a4 763c ce1d 893b 8c96 3e3c e7a1 113b
000003f0: 33d0 693c 6b41 a6bc bb7f bdbc d349 bdbc

bnorm.weight f4 [30]
1.2002462 1.1940061 1.2081969 1.2345264 1.2349205 1.2164946 1.2236929 1.1862097
1.1689811 1.2239695 1.2031285 1.1492201 1.3004899 1.2688907 1.2057081 1.1945463
1.2001443 1.182571 1.2226634 1.2095877 1.1918238 1.2112443 1.2116748 1.2323552
1.2043775 1.206767 1.2260766 1.235091 1.2723666 1.2250749
00000000: aba1 993f 31d5 983f 32a6 9a3f f604 9e3f
00000010: e011 9e3f 18b6 9b3f f8a1 9c3f b8d5 973f
00000020: 2ca1 953f 08ab 9c3f 1d00 9a3f a519 933f
00000030: 7476 a63f 036b a23f a554 9a3f e5e6 983f
00000040: 549e 993f 7d5e 973f 3c80 9c3f c5d3 9a3f
00000050: af8d 983f 0e0a 9b3f 2918 9b3f d1bd 9d3f
00000060: 0b29 9a3f 5777 9a3f 14f0 9c3f 7617 9e3f
00000070: e9dc a23f 41cf 9c3f

bnorm.bias f4 [30]
0.038468856 -0.045637883 -0.016626546 -0.04414862 -0.027947696 0.05286793 0.026942106 0.0015523107
0.49214 -0.16090018 0.07539427 -0.46895573 0.14875723 0.0024724577 -0.05885976 -0.22494723
0.18394183 -0.035610557 0.13992916 0.14837597 -0.06270531 -0.23609109 0.21954583 0.020459415
0.026294522 0.011135839 0.020536352 -0.036958244 -0.06829744 -0.07398807
00000000: 8591 1d3d caee 3abd 6534 88bc 2fd5 34bd
00000010: 91f2 e4bc 0b8c 583d b1b5 dc3c e776 cb3a
00000020: c6f9 fb3e 04c3 24be 5068 9a3d f71a f0be
00000030: d153 183e f508 223b ef16 71bd 9158 66be
00000040: 3f5b 3c3e 60dc 11bd 9749 0f3e dfef 173e
00000050: a46b 80bd ddc1 71be 9fd0 603e 819a a73c
00000060: 9c67 d73c 1873 363c da3b a83c 8761 17bd
00000070: 87df 8bbd 0f87 97bd

bnorm.running_mean f4 [30]
-0.013217885 0.0025539012 -0.00038719983 -0.007913908 0.008030739 0.0072367713 -0.016705306 -0.0028338514
-0.003552231 0.00054707064 0.0035236857 -0.0039301827 0.0020686013 0.006929712 0.003315297 -0.010289891
-0.00021930103 -0.004679447 -0.010398684 0.0012033659 0.005159452 0.004879718 0.014566857 0.003309621
-0.003535997 0.010010445 -0.002515998 -0.010298529 0.015355049 0.013024775
00000000: d48f 58bc 5a5f 273b 1501 cbb9 56a9 01bc
00000010: 5c93 033c 7022 ed3b 91d9 88bc 23b8 39bb
00000020: 8ccc 68bb 4a69 0f3a a3ed 663b c3c8 80bb
00000030: 5f91 073b a312 e33b 7445 593b ee96 28bc
00000040: 2cf4 65b9 0c56 99bb 3e5f 2abc 42ba 9d3a
00000050: 9f10 a93b 0be6 9f3b d4a9 6e3c 3ae6 583b
00000060: 2fbc 67bb d902 243c 71e3 24bb 29bb 28bc
00000070: be93 7b3c de65 553c

bnorm.running_var f4 [30]
7.647728 5.5428433 10.8811455 9.499493 9.053134 11.963809 8.648512 4.4067364
33.827644 8.876294 7.4076138 20.129023 22.999468 17.570599 7.524871 13.743239
13.036261 8.640841 12.435386 12.223859 8.498997 10.618865 19.063438 15.482949
19.898888 10.023474 7.815523 10.148298 19.048254 12.041979
00000000: 30ba f440 f95e b140 2c19 2e41 ecfd 1741
00000010: a3d9 1041 c36b 3f41 4e60 0a41 fc03 8d40
00000020: 824f 0742 4d05 0e41 2c0b ed40 3d08 a141
00000030: e9fe b741 9690 8c41 becb f040 4fe4 5b41
00000040: 8694 5041 e240 0a41 57f7 4641 ed94 4341
00000050: e4fb 0741 dfe6 2941 ec81 9841 29ba 7741
00000060: ec30 9f41 2660 2041 c418 fa40 6e5f 2241
00000070: d362 9841 f2ab 4041

conv_classifier.weight f4 [1, 30, 163, 1]
-0.022517072 -0.022960478 -0.077212475 -0.030605769 0.031566918 -0.023774976 -0.033067506 -0.028940495
-0.030142376 0.007495782 -0.009639599 -0.009301164 -0.008419555 -0.0203489 0.010161777 -0.026077451
-0.023399903 -0.0147510925 -0.00022756474 -0.0042760936 -0.053424876 -0.066256605 -0.0009201525 -0.012876743
-0.048523422 -0.0423011 -0.042271327 -0.04518095 0.043819156 0.01814594 0.03920456 -0.02358992
-0.073094904 -0.023694286 -0.016355341 0.027605223 -0.016388388 0.00021784293 0.040119957 0.07174833
0.02742249 0.008790257 -0.009082933 0.0042235903 0.027799912 0.040884353 0.01513163 0.044596773
-0.016804617 -0.0003167187 -0.00022402343 0.036890168 0.018231543 0.0062335944 -0.041905906 0.00051797624
0.04750929 0.028755346 0.07387544 0.01401944 -0.01828797 -0.009520334 0.027903061 0.03934688
-0.047979806 -0.036536418 -0.010161896 -0.010694761 -0.006360551 -0.013378991 -0.029334255 -0.008001546
0.045071673 -0.008135873 0.0038919817 -0.055090707 -0.05445643 -0.01032699 0.0039673443 -0.0038839758
0.06682818 0.056369297 0.019788593 0.02936726 0.0328595 0.009009796 0.016102722 -0.019763736
-0.022565337 0.013552686 -0.0073990887 0.014468958 0.01867825 0.02797875 0.0031049165 -0.011931045
0.05516772 -0.038770515 -0.036119886 -0.015184832 -0.0085906405 -0.024727533 0.012948205 -0.0039862175
0.046089295 0.008776207 -0.001693034 -0.008054177 0.025338188 0.0035868215 0.020301241 -0.017602341
0.005626652 -0.013166199 0.03383727 0.03383289 -0.025179919 -0.08194721 -0.026999883 0.019795768
-0.004733715 -0.015845794 0.0060936976 -0.03259962 -0.010314344 -0.030177929 0.085171014 0.03480952
-0.01140223 0.0096752215 0.0047643157 0.034877796 0.0026925672 -0.007878656 0.070626356 0.021404453
0.03705077 -0.053281635 -0.022254506 -0.08040946 0.0131550655 0.024252161 0.024301361 -0.008260669
-0.041579396 -0.004783449 0.020274458 0.00063005876 -0.0030606426 -0.0045364895 -0.0026940627 0.042138804
0.035621297 0.040428422 0.046704948 0.03446315 0.0041376897 0.034404155 0.0148233725 0.032422807
0.051848684 0.046711586 0.06903069 0.019600255 0.044918507 0.09516842 0.01737954 0.013981834
0.024861846 0.038299963 0.030889884 0.03071324 0.080048464 0.034906283 0.03824898 0.09187551
-0.0032509337 0.011763683 0.05470307 -0.0071323337 -0.008509271 -0.0047980105 0.030225027 0.0009392121
0.004738043 0.0014058194 0.013174488 0.01773447 0.024139766 0.06618684 0.009089783 -0.017383186
-0.0012909996 -0.008339201 -0.014036315 -0.013281634 -0.013910506 -0.022342471 0.0037894382 0.00484875
-0.06150433 -0.04110694 -0.015797686 -0.017827911 -0.0018949233 -0.02566531 -0.0733735 0.001815365
0.03254276 0.021642474 -0.020296423 0.0050255693 0.0007622219 -0.0103242 -0.03899748 0.027487928
-0.037101135 0.012405827 0.040130567 0.0078894915 -0.031638265 -0.009111884 0.023754237 0.05627826
-0.017017271 -0.00035532957 0.006999261 0.027265742 -0.010849665 -0.028038507 0.03031608 0.024024999
0.039592084 0.08125512 0.04335853 0.0029236234 0.045178115 0.05216739 -0.0039044805 -0.07309678
-0.060226504 -0.017500736 0.010495461 0.024316952 -0.07135898 -0.06195259 0.030878525 -0.040409688
-0.04304735 -0.0031898094 -0.010669431 -0.0049402392 -0.016276037 0.03084331 -0.041855298 0.007429941
00000000: b975 b8bc 9d17 bcbc 9321 9ebd f3b8 fabc
00000010: 504c 013d bdc3 c2bc cb71 07bd 9e14 edbc
00000020: 25ed f6bc 2d9f f53b 69ef 1dbc e963 18bc
00000030: 2cf2 09bc bdb2 a6bc 957d 263c 61a0 d5bc
00000040: 27b1 bfbc 91ae 71bc 729e 6eb9 791e 8cbb
00000050: 0bd4 5abd 8bb1 87bd 6436 71ba faf8 52bc
00000060: 7fc0 46bd eb43 2dbd b324 2dbd a90f 39bd
00000070: b77b 333d cba6 943c f694 203d a63f c1bc
00000080: c8b2 95bd 851a c2bc a3fb 85bc 5924 e23c
00000090: f140 86bc c46c 6439 d354 243d caf0 923d
000000a0: 21a5 e03c 0305 103c 95d0 14bc 0b66 8a3b
000000b0: a4bc e33c 5a76 273d a8ea 773c 1bab 363d
000000c0: d6a9 89bc 440d a6b9 d5e7 6ab9 251a 173d
000000d0: 515a 953c 2e43 cc3b 87a5 2bbd ccc8 073a
000000e0: 1a99 423d 5590 eb3c 024c 973d cbb1 653c
000000f0: a7d0 95bc 2dfb 1bbc f694 e43c 322a 213d
00000100: 7986 44bd 36a7 15bd 157e 26bc 1439 2fbc
00000110: 2b6c d0bb 8e33 5bbc 644e f0bc eb18 03bc
00000120: 139d 383d 534c 05bc 9e10 7f3b cba6 61bd
00000130: b50d 5fbd 8932 29bc 7f00 823b 4d8a 7ebb
00000140: 36dd 883d 7ee3 663d b01b a23c 9c93 f03c
00000150: af97 063d d39d 133c dbe9 833c 8fe7 a1bc
00000160: f1da b8bc 160c 5e3c 0e74 f2bb 350f 6d3c
00000170: 2103 993c b133 e53c db7b 4b3b 6e7a 43bc
00000180: 8cf7 613d d5cd 1ebd 72f2 13bd cdc9 78bc
00000190: c2bf 0cbc 6591 cabc b524 543c d19e 82bb
000001a0: 21c8 3c3d 15ca 0f3c cbe8 ddba abf5 03bc
000001b0: 0892 cf3c e110 6b3b ca4e a63c c932 90bc
000001c0: c75f b83b 0bb7 57bc f398 0a3d 5b94 0a3d
000001d0: 1e46 cebc f0d3 a7bd dc2e ddbc bc2a a23c
000001e0: 481d 9bbb 0acf 81bc a4ad c73b 2e87 05bd
000001f0: 7ffd 28bc b437 f7bc 246e ae3d 6d94 0e3d
00000200: 6bd0 3abc d284 1e3c fa1d 9c3b 05dc 0e3d
00000210: c875 303b 7a15 01bc 8da4 903d 6458 af3c
00000220: 8cc2 173d d83d 5abd 154f b6bc b7ad a4bd
00000230: 5888 573c 78ac c63c a613 c73c c257 07bc
00000240: 284f 2abd 7bbe 9cbb 9f16 a63c 872a 253a
00000250: 1095 48bb d5a6 94bb df8e 30bb bd99 2c3d
00000260: a3e7 113d 4698 253d b04d 3f3d 3b29 0d3d
00000270: 7595 873b 5feb 0c3d bbdd 723c c7cd 043d
00000280: 495f 543d a654 3f3d f65f 8d3d b790 a03c
00000290: 78fc 373d a9e7 c23d 895f 8e3c 1014 653c
000002a0: 12ab cb3c 6ce0 1c3d c80c fd3c 559a fb3c
000002b0: 73f0 a33d e4f9 0e3d f6aa 1c3d 3a29 bc3d
000002c0: 9e0d 55bb 76bc 403c 5410 603d 5ab6 e9bb
000002d0: 786a 0bbc a138 9dbb 7a9a f73c 7535 763a
000002e0: 9641 9b3b 7943 b83a cfd9 573c e147 913c
000002f0: c2c0 c53c f78c 873d 50ed 143c 2f67 8ebc
00000300: c236 a9ba 25a1 08bc 92f8 65bc 369b 59bc
00000310: e4e8 63bc 8f07 b7bc 3958 783b 43e2 9e3b
00000320: f7eb 7bbd c05f 28bd 266a 81bc d70b 92bc
00000330: 135f f8ba 0e40 d2bc d844 96bd 8bf1 ed3a
00000340: 8f4b 053d 8f4b b13c af44 a6bc 88ad a43b
00000350: d9cf 473a d526 29bc d2bb 1fbd 5d2e e13c
00000360: 5cf7 17bd cf41 4b3c f35f 243d ed42 013c
00000370: 2097 01bd 034a 15bc 3f98 c23c 0884 663d
00000380: ce67 8bbc 874b bab9 0f5a e53b 685c df3c
00000390: cbc2 31bc 03b1 e5bc 6e59 f83c 13d0 c43c
000003a0: 4f2b 223d 1669 a63d b798 313d 439a 3f3b
000003b0: b00c 393d 79ad 553d 50e2 7fbb c4b3 95bd
000003c0: 11b0 76bd b45d 8fbc 27f5 2b3c 5834 c73c
000003d0: a824 92bd 00c2 7dbd f6f4 fc3c a184 25bd
000003e0: 6b52 30bd 1f0c 51bb d6ce 2ebc bbe1 a1bb
000003f0: 5355 85bc 1cab fc3c 7670 2bbd dd76 f33b
