final_presentation/final_results/shallow/interval1/7000/2021-10-14_02-13-47/checkpoints/best_model_1_trial_56_validation_acc=0.8190.pt (torch, 326927 bytes, 6 tensors)

conv_time.weight f4 [20, 62, 60, 1]
00000000: a489 3a3c df81 cfba 0588 a73c 47dc 6ebb
00000010: 0a24 233c e13b ca3c 20fe cf3c ece5 22bc
00000020: f239 243d 6217 77bc c8e0 b3bc fda8 233b
00000030: 5219 763c b657 503c e134 40bc 6204 1c3c
00000040: e72d 2abb c0b4 29bc 0ab3 6cbc 259d be3b
00000050: f911 c33c 50e5 44bc 89bb 10b9 d1ff cdbb
00000060: 407a d6bb c470 333a dd3d bdbc 3eab c63a
00000070: 01b3 d43b 6440 e0bb 379e 073d e5f5 843c
00000080: af9f abbc df60 1a3d e80d abbc 0113 89bb
00000090: ddf1 6abc 6078 73bb a186 fc3b e30f ab3a
000000a0: 0e30 afbc dc7b 39bc 1687 1d3d 0f7e 163c
000000b0: e331 163d 8248 37bc c6ed f13a c9af 0d3c
000000c0: b0f0 bb3c 1872 c3bc 0e22 933c dbcd 103d
000000d0: 6275 bebc 017c 253c 0a3b c73c 6e93 913c
000000e0: 3f75 8f3c ce8e 023c 56f6 9ebc 3899 d6bb
000000f0: a48e 9cbc 5604 c03c f63e 86bb 967a 95bc
00000100: 4b43 96bb 7eed ed3b c181 113d 4530 273d
00000110: e3f0 f43b 1236 1fbc 08b5 f53c 73f5 dbbc
00000120: 0f56 873b a443 bcba feff 92bc 46f9 123d
00000130: da62 be3c ddc8 a7bc 6a68 b53c 072c d2bc
00000140: 5056 87bb a58e 233d 68ad e339 753b de3b
00000150: a7d6 10bc cc44 103b 5b8c 9dbc 7a6c d9bc
00000160: 7e75 d7bc 14ee 103d b4f8 dabc 6b17 393c
00000170: 5663 d13c 3665 05bb cd7c 5f3c 5156 a2bc
00000180: ccf9 793c 4e69 2c3c 5359 a0bb 60fb cd3c
00000190: 8792 013d ddef 58ba 0a30 dc3c 63f9 88bc
000001a0: 475e 8c3c a71f 0a3d 50d9 db3c cec9 85bc
000001b0: 7ef1 8fbc 955b d53a 399a b2bb 1736 603a
000001c0: 0ec5 903b df01 26ba 8601 a7bc 0f5d ffba
000001d0: 30c3 443c a382 65bc d891 a43b e6f1 063d
000001e0: 7f68 073b 1451 693c c9c2 e33c e03c 873c
000001f0: 7109 95bc 8a1d 393c d96c 69bc 5a1d cebc
00000200: 6101 1d3d 934a 86bc d39f 133c 5260 0c3d
00000210: 540d be3b 5060 ba3a 89c1 073d c60a 53bc
00000220: cfeb 0e3d 0422 de3a 1668 dd3c 60df 40bc
00000230: 6625 043d 04ef 843c bcac d5bc 8486 b13c
00000240: 4262 debc f3f6 ca3c 643a 113d f765 1b3d
00000250: 5ab2 5d3c 222e 313c e461 8e3c e234 4d3c
00000260: 2e1c b83c 5592 a7bc d3ba c23c 655e f43b
00000270: cd77 f03c 39d7 abbb 06b1 1a3d 5196 93bc
00000280: b165 b2bc 8436 513c 3ea0 183d 04d1 c0bc
00000290: c9ae 8d3c 00ee 8a3c 7d5d 223d 3f83 1f3c
000002a0: 4bbc bebc a91d b43c 81b6 103d 580c 263d
000002b0: 56c9 b93c 2710 d03b 0b38 72bc fa11 d6bc
000002c0: 2049 e7ba d2ad 2b3d d3cb 5d3c 517c 163d
000002d0: c0b3 d7bb baea 86bc 9cb2 eabc bd0a 36bb
000002e0: 43b0 0d3d 1e19 cc3c c24b e9bc 16b0 b03b
000002f0: 4848 11bc 07b0 e93b d4bf c03b 7f45 bfbc
00000300: 21bb 61bc 2c25 dbbc ff1a fabc f92f 0cbd
00000310: 3280 c0bc eb88 4b3c e709 f73c 7241 ab3c
00000320: 0d8f c7bc 72c2 923b 9f02 3b3c 511d 12bd
00000330: 1017 5dbc 878f d03c e4b6 01bc 058f fabc
00000340: d132 dd3c 36de e13c b809 b73c 1949 c2bc
00000350: ffc7 6fbc 14fd 0dbc 0158 b13a 9b54 19bc
00000360: 282c d6bc 2631 a13b 0f16 923b 3339 ffbc
00000370: 05d5 ed3b c086 1d3d 2c86 35bc e566 e53b
00000380: 3f08 debb 2a05 363c 3aea c8bc 1a9b 853c
00000390: e006 0d3d ba09 e93c 21eb b1bb 0421 b9bc
000003a0: 9ee3 abbc 5c06 f53c f627 083d 8f9c ccbc
000003b0: 3c5b d73c d7da 0abc 7441 94bc 9c38 bcbc
000003c0: 88c4 363d 172b 0d3d 81b8 b23c fb06 703c
000003d0: a082 2f3c 99cc 443d 0fae 043d 04ba 693c
000003e0: bdf3 76bc e98e 433d 25e1 1b3d 0c7e 303d
000003f0: 5edb ef3c 1b0a 633b b488 0b3d 18e2 d83b
0.011385355 -0.0015831551 0.020450601 -0.0036447213 0.009957323 0.024686756 0.02538973 -0.009942513
0.040094323 -0.0150812585 -0.02195777 0.002497255 0.015020685 0.012716224 -0.011731357 0.009522529
-0.0025967301 -0.010358036 -0.014446983 0.005817073 0.023812281 -0.012017563 -0.00013802772 -0.006286599
-0.006545335 0.00068451115 -0.023100788 0.0015157235 0.0064910655 -0.0068436135 0.03310987 0.016230533
-0.020950167 0.03769004 -0.020880654 -0.0041831736 -0.014339891 -0.0037150607 0.0077064787 0.0013050999
-0.021385219 -0.011321034 0.038458906 0.009185328 0.03666867 -0.011186721 0.0018457703 0.0086478675
0.022941917 -0.023858115 0.017960574 0.03535257 -0.023249332 0.010100366 0.024320144 0.017770495
0.017511962 0.007968618 -0.019404572 -0.006549027 -0.019110985 0.023439568 -0.004096861 -0.01824693
-0.0045856587 0.0072609773 0.035524134 0.040817518 0.007475005 -0.009717481 0.029993549 -0.026850438
0.004130132 -0.001436342 -0.017944332 0.035882257 0.023240495 -0.020481521 0.022144515 -0.02565576
-0.0041301623 0.03993096 0.00043426012 0.00678199 -0.00884024 0.0022013662 -0.019231966 -0.026540983
-0.026301142 0.0353833 -0.026729919 0.011297087 0.025560062 -0.0020354516 0.013640595 -0.01981655
0.01525731 0.0105231535 -0.004893461 0.025144279 0.03163388 -0.00082754885 0.026878376 -0.01672048
0.017134799 0.033721592 0.026837021 -0.01633158 -0.017571207 0.0016277904 -0.0054505137 0.0008552982
0.004418022 -0.0006332676 -0.020386469 -0.001948269 0.012009427 -0.014008197 0.0050222687 0.032945536
0.002066165 0.014240522 0.027802842 0.01650852 -0.018192979 0.011298547 -0.014247143 -0.02516048
0.038331393 -0.016392982 0.009010273 0.034271546 0.0057999287 0.0014219377 0.033143554 -0.012880987
0.034892853 0.0016947393 0.027027171 -0.011772007 0.03226223 0.016227253 -0.026083343 0.021670587
-0.027146462 0.024775958 0.035456076 0.037939038 0.013531292 0.010814222 0.017380662 0.012524815
0.022474375 -0.020455519 0.023770725 0.007457542 0.029354 -0.0052441624 0.03776648 -0.018016012
-0.021777006 0.012769345 0.037262194 -0.023537166 0.017295258 0.01695919 0.03963994 0.009735881
-0.023283144 0.0219868 0.0353303 0.040539116 0.022679012 0.0063495818 -0.0147838695 -0.026131619
-0.0017645694 0.041913815 0.013537365 0.03673965 -0.006582707 -0.016469348 -0.02864962 -0.0027777397
0.034591924 0.02491432 -0.028478507 0.005392085 -0.008867331 0.00713158 0.0058822427 -0.023348568
-0.013777525 -0.026751123 -0.03053045 -0.034225438 -0.023498628 0.0124227805 0.030156089 0.02090523
-0.024360204 0.004478746 0.011414199 -0.03567249 -0.013494268 0.025459064 -0.00791714 -0.030585775
0.02700177 0.027571779 0.022343501 -0.023716496 -0.014635085 -0.008666296 0.0013530256 -0.00935855
-0.026144102 0.004919189 0.004458196 -0.031155204 0.00725806 0.038458586 -0.011079352 0.0070007914
-0.0067758854 0.01110963 -0.02452575 0.01630931 0.034430385 0.02844702 -0.005429641 -0.02259875
-0.02098256 0.029910259 0.033241235 -0.024976997 0.026288621 -0.008475027 -0.018097617 -0.022976212
0.04462102 0.03446492 0.021816494 0.014650102 0.010712296 0.048046682 0.032392558 0.014265541
-0.01507276 0.04774371 0.03805651 0.043088958 0.029279407 0.0034643475 0.034065917 0.0066187494

bnorm.weight f4 [20]
00000000: b939 b53f 6193 b53f 27bd b63f a22a a43f
00000010: 7a98 b93f c0b5 8a3f 84de bb3f 1897 b73f
00000020: d3a8 a93f 976f ad3f 9431 b23f 4880 b73f
00000030: 21e2 b03f 8998 b53f bb35 a43f 0167 a73f
00000040: 9a55 af3f 4ae3 b33f 905d 9e3f b0f3 963f
1.415824 1.4185601 1.4276475 1.282551 1.4499657 1.0836716 1.4677281 1.4342985
1.3254646 1.354968 1.392138 1.4336023 1.3819009 1.4187175 1.2828897 1.3078309
1.3697999 1.4053738 1.2372303 1.1793118

bnorm.bias f4 [20]
00000000: 733c 96be a91e 2e3e a2f8 8ebe f39d 12bf
00000010: 9ad3 a03d 10e4 7d3f 7fd9 a83c 05bc 3fbe
00000020: a6a1 dabe 34b6 5c3c de30 183f 7f82 44be
00000030: 46b7 2a3c 4663 c03c 1292 34bf b3a7 24bf
00000040: 1297 053e dd1b 253d 9946 da3e cefe 62bf
-0.29342994 0.17003883 -0.27924067 -0.5727226 0.0785286 0.9917612 0.020611523 -0.18724068
-0.42701453 0.013471175 0.59449565 -0.19190405 0.010419672 0.023484837 -0.70535386 -0.6431839
0.1304591 0.040309776 0.42631987 -0.8867005

bnorm.running_mean f4 [20]
00000000: 692b c53b 8379 553c 4f0f 963c 07ad 74bc
00000010: 539e bf3a fdd9 b8bc 62b4 df3b 97a2 b6bc
00000020: ce66 5b3c 8665 0dbc 781f a93c d6b8 5ebc
00000030: 9803 84bc f98e c23b 385d 423c c3ef e3bc
00000040: 6c0e a23b d816 f93b 762e 97bb 0052 e33a
0.006017138 0.013029459 0.018317847 -0.014933831 0.0014619328 -0.022564882 0.006826923 -0.022294326
0.01339121 -0.008630162 0.020644888 -0.013593873 -0.016114995 0.005937454 0.011863045 -0.027824288
0.004945567 0.0076016 -0.004613693 0.0017343163

bnorm.running_var f4 [20]
00000000: ede7 7f43 88f0 3c43 45c3 0f43 c178 4543
00000010: afb1 0f43 8756 5c43 f6e3 e442 42cd 2a43
00000020: e07a a142 847e c342 2058 a743 baa7 5543
00000030: b453 b542 9474 bc43 7644 4c43 e643 4c43
00000040: 07eb d742 f751 f542 a882 e042 f0f4 8743
255.90596 188.93958 143.76277 197.4717 143.69408 220.338 114.44524 170.80179
80.73999 97.7471 334.68848 213.65518 90.66348 376.91077 204.26743 204.26523
107.95904 122.66009 112.25519 271.91357

conv_classifier.weight f4 [1, 20, 327, 1]
00000000: d6bb c2bc 78cf 7cbc 590b de3c 85d3 943d
00000010: a941 e63b 5610 08bc 477d 25bd ab5a a3bd
00000020: 192d afbc c7f7 65be d97c 03bc 287f 3abd
00000030: 4c4b 90bd f09f 9dbd 2794 44bd b8b0 abbc
00000040: cdc8 2ebd d0f4 453c fc88 8ebc ceb1 253d
00000050: 60ea c93b f68a 16bd 0130 64bd 16cd 123c
00000060: c420 60bd 98b2 8dbd 5ddf f3bc 14d6 1e3d
00000070: 43c1 313d 7a50 c8bd 92ac ae3d d9e9 a9bd
00000080: a95d 903c 9bf3 d5bc 59c9 a9bc f506 273d
00000090: 9261 043e 7996 4ebd e636 ba3d 84b2 aabd
000000a0: 960d efbd 4816 533c b88e c2bd 8020 c1bc
000000b0: 3f97 523d 8c3a 3cbd 0206 253d a225 c03c
000000c0: 3d82 423d 6ba7 5abd 3707 f7bc 1565 173d
000000d0: e90e 583d 1127 da3c 5c0f 6b3d 8ac1 7bbd
000000e0: 63c9 fa3d 0960 323d d0f5 3fbc 8ea9 dc3d
000000f0: 17b2 183d b8be 9abc 5337 3c3c 6cdb b03d
00000100: d396 3d3d 3c1c c5bc bb16 ae3d eada 983d
00000110: b048 b2bd 1435 813d 0757 403d d337 ad3c
00000120: b8df 60bc ee72 413b 03bf 46bd 43cb 87bd
00000130: 2e00 1c3d 6141 fdbc 3241 043d 2735 db3b
00000140: 19fc 863c ddad b33c 5b5a 1f3d 25f8 c93c
00000150: 3c8a b63d ae2e e2bb 6042 8bbc 4368 8a3d
00000160: ac8b 88bc 2d95 9cbd 76d3 253d 22a5 8cbc
00000170: 4f6a 403c 3ed0 ae3c 503e 8e3c 3c19 93bd
00000180: b69a f3bd 72a7 5bbb f339 18be 57fb 02be
00000190: afa0 acbd d7cd aebb edff 46bd de2d 99bd
000001a0: 2f05 dabd a852 1bbe 037c aebd 53fa 4ebd
000001b0: db34 afbb 918d 10bd 26cf 0c3d 9bd9 9b3d
000001c0: 89ba aebc 4c70 01bd 570e 963d d249 14be
000001d0: 1e57 08be c66a 06bd dea6 0e3d 09a7 f73c
000001e0: 5e81 6cbd ecdc 79bd 76bd 9abd 3d9c 96bc
000001f0: 42cc abbd c152 8c3c ec61 823d ec54 863d
00000200: 468b bcbd f510 1a3d 6156 12bd 9240 ba3c
00000210: 0ccf 5dbd bfa8 92bd bd71 37bd e031 adbd
00000220: 2c18 eb3c 6672 b3bc a006 513d cd82 01be
00000230: f601 febd d41f 6dbd 74d5 bbbd 6d43 2c3b
00000240: 96d8 debd 08c3 b3bd da7d d5bc 3b52 41bd
00000250: b8fc ad3c dc5e f33c 3979 ce3c e551 693d
00000260: 73b3 043c 0afd 223d 4df6 d9bd e6e1 dbbd
00000270: 959b 4e3a a545 9b3b 4527 5dbd c460 c2bc
00000280: 311a 8cbc 2fb3 21bd bbd6 25bd 0c7d 89bd
00000290: dc68 463c 9fa9 643a 75df 0a3e 05aa 04bc
000002a0: 8135 c3bc 9473 61bd b51e f13c 077e 90bd
000002b0: d2f6 b3bd 80c9 153c 44e9 6ebd 6f79 9fbd
000002c0: 711c c3bc 6bab a3bd c513 22bd 9874 28bc
000002d0: 3410 26bd c4aa 9f3b 6f32 973d 2b74 5f3d
000002e0: ac3e 23bd aadb 2f3c 2c99 4fbd 7da5 b9bd
000002f0: 3309 0cbd 4a77 05bd bd24 89bd 6eda 11bb
00000300: 5d93 14bc 8d7d 60bd 07cc babd fa84 673c
00000310: 324e 253d a1ac 13bd da8a 9abc cdc6 513d
00000320: 7adc 173d 1935 3e3d cd63 aa3c b18b e1bd
00000330: 9f5f 7e3d aa83 0e3d 8f6a 403d 9380 653d
00000340: e7ca 5cbd f4a5 a5bc 3e82 503d de5e 8bbc
00000350: 7521 f63d b17a 8b3d bbf4 063d e9ac d23c
00000360: dd4d 65bd aacd 96bb 2261 153d cd4a 76bc
00000370: 6c88 993b 8fd9 213c 5093 27bd 690a 28bd
00000380: 4c1d 1c3d 6818 9fbc 7517 123d 883b 2d3d
00000390: c40d 4e3d 991f 3a3d 1779 1e3d 6c1b 563d
000003a0: 53f3 bdbd cfcd 41bd 9ed1 953d fe95 013d
000003b0: a3f1 c1bd 4215 0fbd 0c58 213c d362 0ebd
000003c0: 54cb 26be 4834 95bd 5db8 5bbb fee6 a3bd
000003d0: 769f 123e 59ba f6ba 63e0 b3bc 8899 81bd
000003e0: efba 053b a9b9 59bd 9090 2d3c f259 66bc
000003f0: c962 a5bb a73f 8a3d 956d d43b 3aad e7bc
-0.023771208 -0.015430324 0.02710502 0.07266907 0.0070268703 -0.008304676 -0.040402677 -0.07976278
-0.021383809 -0.22457801 -0.0080253715 -0.045531422 -0.07045612 -0.07696521 -0.04799285 -0.02095829
-0.042671967 0.012082294 -0.017399304 0.04045277 0.006161973 -0.036753617 -0.055709843 0.008960029
-0.054718748 -0.0691883 -0.029769594 0.03877838 0.0433972 -0.09780975 0.08529009 -0.08296556
0.017622786 -0.026117137 -0.020725893 0.04077812 0.12927845 -0.05043647 0.09092502 -0.083348304
-0.11672513 0.01288373 -0.09499878 -0.023575068 0.05141377 -0.045954272 0.040288933 0.023455445
0.047487486 -0.05338232 -0.030154807 0.036961634 0.052748594 0.026629956 0.057387695 -0.06146387
0.12245443 0.043548618 -0.011716321 0.107745275 0.037279215 -0.01888977 0.0114878 0.086356014
0.046286415 -0.024061315 0.08500429 0.074636295 -0.0870527 0.06308952 0.046957996 0.021144783
-0.013725214 0.0029517966 -0.048522007 -0.06630566 0.03808611 -0.030914964 0.032288738 0.006689686
0.016477631 0.02193349 0.03890453 0.024654457 0.08913085 -0.0069025373 -0.016999424 0.067581676
-0.016668163 -0.076456405 0.040484868 -0.017168585 0.011744096 0.021339532 0.017363697 -0.071825475
-0.11894743 -0.0033516553 -0.14865856 -0.12791191 -0.084290855 -0.0053345966 -0.048583914 -0.074794516
-0.1064552 -0.1516825 -0.08519747 -0.050531697 -0.005346877 -0.03529126 0.03437724 0.07609864
-0.021329181 -0.031601235 0.07326954 -0.14481285 -0.13314483 -0.03281667 0.034827106 0.030231016
-0.05774056 -0.061001703 -0.07555668 -0.018385047 -0.083885685 0.017129304 0.06366333 0.06559166
-0.09206252 0.037613828 -0.03572691 0.022735868 -0.054152533 -0.07161092 -0.044786204 -0.084567785
0.02869805 -0.021905135 0.05103171 -0.12647553 -0.12402718 -0.05789168 -0.09171572 0.0026285306
-0.10881154 -0.08777434 -0.026060987 -0.04719756 0.02123867 0.029708318 0.025204288 0.056962866
0.008099425 0.039792098 -0.10642681 -0.10736446 0.000788146 0.004738527 -0.05399253 -0.023727782
-0.017102333 -0.039477523 -0.040487986 -0.06713304 0.012109961 0.0008722785 0.13561805 -0.008097176
-0.023829224 -0.055041865 0.029433588 -0.07055288 -0.087873116 0.00914228 -0.05832793 -0.077868335
-0.023817273 -0.0799168 -0.039569635 -0.010281704 -0.040542796 0.004872652 0.07382666 0.054554146
-0.03985469 0.010733524 -0.050683185 -0.090647675 -0.03418846 -0.032584466 -0.066964604 -0.0022255438
-0.009068337 -0.054807235 -0.091209464 0.014130825 0.040357776 -0.036053304 -0.018865038 0.05121498
0.037075497 0.046437357 0.020799542 -0.11012972 0.06210291 0.034793533 0.046976622 0.05603082
-0.05390444 -0.020220734 0.05090546 -0.01701301 0.120181 0.06810511 0.032948237 0.025717216
-0.05598246 -0.004602154 0.036469586 -0.015032482 0.004685452 0.00987853 -0.040911973 -0.041025553
0.038113877 -0.019420817 0.0356669 0.0422931 0.050306097 0.04544029 0.0386897 0.052272245
-0.09274926 -0.047315415 0.07315372 0.031637184 -0.09469917 -0.034932382 0.009847652 -0.034762215
-0.16288501 -0.072853625 -0.0033526637 -0.08003043 0.14318642 -0.0018823846 -0.021957582 -0.06328112
0.002040561 -0.053155575 0.010593548 -0.014059531 -0.0050471765 0.06750422 0.0064827898 -0.028280843
