final_presentation/final_results/shallow/interval1/7000/2021-10-14_02-13-47/checkpoints/best_model_1_trial_74_validation_acc=0.7349.pt (torch, 458319 bytes, 6 tensors)

conv_time.weight f4 [20, 62, 90, 1]
000000 6a b1 d5 bc 39 eb 86 3c 9b 7c 8a 3c 77 a6 50 bc
       -0.026085574 0.016469585 0.01690512 -0.012735001
000010 ef 0b 23 bc e2 4c 88 3c 60 33 c0 3c db b6 a5 3c
       -0.009951576 0.016638223 0.023461998 0.020228794
000020 ee 74 5a 3c dd 70 da 3b ee 7b 4e 3c fc 7b b3 3c
       0.013333542 0.0066662864 0.012602789 0.021909706
000030 ea fc 9b ba 06 84 9d bc 51 24 4f 3c cb 09 21 3c
       -0.0011900936 -0.019227993 0.012642936 0.009828995
000040 0b ad 54 3c 4c 1c f0 bb c1 8f a4 bc 81 03 fb ba
       0.01298071 -0.007327592 -0.020088078 -0.0019150825
000050 14 06 4b bc 1e 03 af bb 73 eb 25 bc fc 4d b8 bc
       -0.012391586 -0.005340948 -0.010126936 -0.022498123
000060 79 58 a5 bc ad 9a 95 bb ad 1d b5 3c ec 45 5a 3c
       -0.020183789 -0.004565558 0.022108877 0.013322335
000070 cd 33 3a bc 3e 31 cf 38 7c 75 49 3b 54 a7 9e 3c
       -0.011364889 9.879701e-05 0.0030740192 0.019366898
000080 9c da e7 bc 3f 1c c5 bc 8d 87 d9 bc 90 eb 98 3c
       -0.028302483 -0.02406132 -0.026553893 0.018667012
000090 f5 1c 37 3a 3d 6a 99 3c 6c a0 6c bc f4 a2 e1 3b
       0.0006985211 0.018727416 -0.014442544 0.0068858806
0000a0 ad 78 06 bc 9b 85 9a 3c 2f ff ac 3b 03 6a 89 ba
       -0.008207482 0.018862536 0.0052794437 -0.0010483864
0000b0 3f bc 8f 3c c0 9d af 3b f3 30 00 bc 86 e3 eb bc
       0.017545817 0.0053593814 -0.00782417 -0.028795015
0000c0 69 e8 f0 bc d5 1d 3e 3c aa 5c 78 3c 48 8f 06 3c
       -0.029407697 0.011603792 0.015158812 0.008212872
0000d0 1f 76 56 3c 76 93 a3 3c bf 09 c3 ba f3 fc 16 3b
       0.013089686 0.019967776 -0.0014880224 0.0023038953
0000e0 64 c0 27 bc be be 7d bb da 6b 70 bb f5 aa 76 3c
       -0.010238741 -0.0038718428 -0.0036685378 0.015055408
0000f0 f5 3a 1f 3b a3 46 35 bc 2e 58 ca bc 76 00 99 3c
       0.0024296616 -0.011064204 -0.02470025 0.018676978
000100 d6 b6 93 bb fb ed b0 3a 08 44 c5 3c 4f 10 07 bb
       -0.0045078797 0.0013498658 0.024080291 -0.0020609086
000110 89 57 81 3c 20 a3 d3 3c dd 9b ff 3b 48 83 e2 bc
       0.01578881 0.02583462 0.007800563 -0.02765049
000120 72 9b ce bc 44 d4 64 bc 2a ba 46 3c ae 79 d2 3c
       -0.025220606 -0.013966624 0.012129346 0.025692787
000130 7b ea 11 ba 82 24 98 3c 17 5b 99 3c 24 f6 55 3b
       -0.00055662513 0.018572096 0.018720193 0.0032647932
000140 ec 0c 05 bc b6 27 d6 39 a5 ab 0a 3c a6 63 06 3c
       -0.008120757 0.00040846848 0.008463775 0.008202469
000150 2f 77 ad bb 79 a2 54 bc a8 80 83 3c 87 f4 05 3c
       -0.005293749 -0.01297819 0.016052559 0.008175976
000160 eb b5 da 3b ba 3f cb bc 38 22 5c bc 2b e7 85 bc
       0.0066745183 -0.02481066 -0.013435893 -0.016345581
000170 df 1c b0 3c 47 c7 73 3c 00 bb 4a 3c e8 07 61 bc
       0.021498142 0.014879054 0.012373686 -0.013734795
000180 07 46 b5 bc 67 c1 57 bc 2c 28 2c bc 24 04 9b 3c
       -0.022128118 -0.013168669 -0.010507625 0.018922873
000190 3e 31 9f bc cb 43 e1 bb ca ed 95 3c 18 64 73 bc
       -0.01943266 -0.0068745366 0.018301863 -0.014855407
0001a0 6e 91 24 3b 2f a9 3e bc 0a 1b 50 3c 40 37 9b 3b
       0.0025111097 -0.011637016 0.012701759 0.004736811
0001b0 54 17 bd 3c c9 e3 b8 3c ce 36 9e 3c 0c ed ca bc
       0.023082413 0.022569554 0.019313242 -0.024771236
0001c0 48 fa 9c bb 7b e6 d4 bb 40 41 52 3c 9a c2 75 3c
       -0.004790578 -0.006497202 0.01283294 0.01500001
0001d0 dd 54 c9 3b 62 38 9d bc d7 22 a6 3c 9b 43 82 3c
       0.0061441497 -0.019191924 0.020280285 0.015901377
0001e0 22 6e af 3c df 43 41 3c b4 78 81 3c 16 38 a5 bc
       0.02141482 0.011795967 0.015804626 -0.020168345
0001f0 f6 1f 91 3b 3b bd 07 bc bb 6f f2 bc 15 8b 1c bc
       0.004428859 -0.008284862 -0.029594293 -0.009554644
000200 1b e5 dc bc dd 09 aa bc 03 9c 96 3c 49 42 c6 3c
       -0.026964715 -0.020756656 0.018384939 0.02420153
000210 ac de be bc 93 25 d9 bc c5 50 32 bc c4 31 5e 3b
       -0.023299538 -0.026507175 -0.010883515 0.0033904174
000220 f6 e3 b2 3c 5b 08 d4 3c ea 5d 04 3b c9 07 e7 bc
       0.021837216 0.02588289 0.0020197579 -0.028201954
000230 50 43 a6 3a ab 5b 8e bc 22 98 ac 3b b0 50 a1 3c
       0.0012684856 -0.017377695 0.005267159 0.019691795
000240 4b cf 01 3b 9c 75 59 3c 0a 10 13 38 af 4d 2a bc
       0.0019807394 0.013272669 3.506247e-05 -0.010394498
000250 e4 11 05 3c 7e 3c cc 3c 29 1c 77 bb 7c 53 7a ba
       0.008121941 0.024931189 -0.0037705994 -0.00095491833
000260 ba 33 c2 3c 0b 55 76 bc 80 5f 0d bc 5b ce e0 3b
       0.023706306 -0.015034924 -0.008628726 0.006860537
000270 f0 b1 8c 3c 3d a4 a5 3c 63 84 d0 bc 97 3e ca bb
       0.017174691 0.020219916 -0.025453752 -0.006172012
000280 e0 d6 94 bc 01 39 ac bc e0 c1 e8 bc b1 81 62 3c
       -0.018168867 -0.021023275 -0.02841276 0.013824866
000290 f2 ef 12 ba e5 5f 53 3c 40 26 86 bc 75 2d e9 bb
       -0.00056052126 0.012901281 -0.01637566 -0.0071160146
0002a0 6f 4b ef bc c4 1f 5a bc 38 c9 ab bc d2 cf 7a 3c
       -0.029210774 -0.013313238 -0.020969972 0.015308337
0002b0 29 13 45 bc f3 4c 2c bc 47 e3 78 bb ef da 1d bc
       -0.012028494 -0.010516393 -0.0037977265 -0.009634717
0002c0 89 da b2 bc 77 a5 b7 bb 65 e8 ca 3c 38 7f e3 3b
       -0.021832721 -0.0056044417 0.024769017 0.006942656
0002d0 bc 2f ab 3c ab 9a 6b bc 67 e6 02 3c 44 4e bc bc
       0.020896785 -0.014380137 0.0079895025 -0.022986539
0002e0 18 46 af bc 12 b0 3d 3c 68 ce 92 bc c1 11 b6 3c
       -0.021395728 0.011577623 -0.017920688 0.022225263
0002f0 c6 e4 9f bb 32 35 dd bc 2d ae 11 3a 22 55 a9 ba
       -0.004879567 -0.027002905 0.0005557265 -0.0012919048
000300 ca a5 40 3c 24 48 b3 3c 12 67 3c 3c 09 8b 30 3c
       0.011758277 0.021884985 0.011499183 0.010775336
000310 ac 99 ad 3b e1 3f c0 bc b7 58 ed bb 2d d6 de bc
       0.00529786 -0.02346796 -0.0072432416 -0.027201736
000320 ee bb d8 bb 57 82 61 3c cd 58 80 3c 5a f0 c7 bc
       -0.0066142 0.013763986 0.015667344 -0.0244066
000330 f2 06 0f bb 53 9f 02 bb f3 8e ab 3c 6c 2c 6c 3c
       -0.0021824208 -0.001993139 0.020942187 0.014414888
000340 ea d9 0c 3c 10 28 0b 3c de 06 3f 3b 5b e9 6c bc
       0.008596877 0.008493438 0.002914838 -0.014459933
000350 ec 00 92 bc 38 30 ac ba 3e cb 37 3c b5 2e aa 3c
       -0.017822705 -0.0013136929 0.01121789 0.020774225
000360 22 a6 8b bc 35 90 e3 ba 7d 7d 59 bb 78 b0 a5 3c
       -0.017046992 -0.0017361703 -0.003318637 0.020225748
000370 ce 1c 66 bc eb da 80 3c 1a d9 31 3c a7 5c 75 bc
       -0.0140449535 0.015729388 0.010854984 -0.014975703
000380 14 ed da 3c a0 ec b3 bc c7 ae 15 3b 46 11 80 3a
       0.026724376 -0.021963418 0.002283977 0.0009770773
000390 51 61 81 3c 15 ee 4e 3c ab d2 96 3c 49 78 7e 3c
       0.015793474 0.012630005 0.018411001 0.015531608
0003a0 38 8c 04 3c 2c 49 c5 3c a4 cf 02 bb 88 f0 4f bc
       0.008090071 0.024082743 -0.001996019 -0.012691624
0003b0 24 bd 23 bb 54 d7 31 bc 2f c8 8b 3c c3 24 0a 3b
       -0.0024984563 -0.010854561 0.017063228 0.002107904
0003c0 fa ad ab 3c 5e 6b 4a b9 17 d9 76 bc 28 06 cc bc
       0.020956982 -0.00019304219 -0.015066407 -0.02490528
0003d0 20 2b d5 bc 9f b5 79 3a 74 14 e2 bb b2 19 b9 bc
       -0.02602154 0.000952566 -0.006899411 -0.02259526
0003e0 e9 99 21 bc 5d 07 d1 bc e4 2f c0 bc e8 76 46 3c
       -0.009863355 -0.025516206 -0.023460336 0.01211331
0003f0 3b 6d 8b bc df 0a d3 bc 4a 87 d6 3c bd 5f 61 3c
       -0.017019859 -0.02576202 0.026187558 0.013755736

bnorm.weight f4 [20]
000000 eb b1 96 3f b5 a3 93 3f 16 0e 98 3f 4e c3 94 3f
       1.1773046 1.1534334 1.1879299 1.1622102
000010 ab cd 96 3f 45 e9 99 3f a3 31 96 3f 68 c6 94 3f
       1.1781515 1.2024313 1.1733898 1.1623049
000020 b5 5a 94 3f 3f e8 96 3f f1 ba 94 3f 45 5b 96 3f
       1.1590182 1.1789626 1.161955 1.1746603
000030 fb fc 98 3f 50 12 99 3f 99 ae 97 3f bb a3 95 3f
       1.1952204 1.1958714 1.1850158 1.1690592
000040 49 b2 9a 3f ba 6d 97 3f b0 14 96 3f ae 0a 99 3f
       1.2085658 1.1830361 1.1725063 1.1956384

bnorm.bias f4 [20]
000000 68 3f db bc 31 d5 20 3d 28 07 f7 bb e5 0f 61 3c
       -0.026763633 0.039265815 -0.007538695 0.0137367
000010 b5 62 7a 3d 6e 92 3b bd a4 25 96 bd 78 d3 af bc
       0.06112929 -0.045793943 -0.07331398 -0.02146314
000020 ea ba 96 bd 39 e3 f5 ba 2d 17 94 bd 10 01 c2 3b
       -0.0735987 -0.0018759734 -0.07230983 0.005920537
000030 33 5d 34 3d 3c 9e 1e be 1b d4 d1 bd 93 29 e3 bc
       0.044034194 -0.15490049 -0.10245534 -0.027729785
000040 97 c8 2b 3d a0 1d a1 bd 1a dc 87 bc c2 94 f9 bd
       0.041939344 -0.07866979 -0.016584445 -0.121865764

bnorm.running_mean f4 [20]
000000 b4 16 9b 3a 62 f9 14 bc 40 d8 a4 3b 60 f4 00 bb
       0.0011832328 -0.009092661 0.005030662 -0.001967691
000010 02 96 5f 3c 42 df b5 bb 8c 60 5f 3c 0b 9e f9 3b
       0.0136466045 -0.005550296 0.013633858 0.007617717
000020 d0 ed 24 bc 27 96 1b 3b 4a 53 01 bc d1 27 bc b9
       -0.010066465 0.002374062 -0.007893393 -0.0003588782
000030 8e f6 41 3a 8d 68 9f 3b e6 3d 2c bc 71 60 ce 3b
       0.0007399105 0.0048647583 -0.010512805 0.006298118
000040 85 07 91 bb 24 be b3 3b d2 12 d3 bb de d8 97 3b
       -0.004425945 0.005485313 -0.0064414525 0.004634007

bnorm.running_var f4 [20]
000000 c9 17 c1 40 87 9d c0 40 c8 de 01 41 b9 45 00 41
       6.0341535 6.0192294 8.11689 8.017022
000010 2e 33 35 41 70 f9 35 41 d8 ab 07 41 1e 44 a7 40
       11.324995 11.373398 8.479454 5.227065
000020 e4 0a c9 40 98 5c b8 40 42 cb 0e 41 32 2f 28 41
       6.2825794 5.761303 8.9246235 10.511522
000030 ad 1e 63 41 5e de 8c 41 4d a9 5b 41 a1 59 b3 40
       14.194989 17.608578 13.728833 5.604691
000040 f3 74 90 41 70 22 59 41 9e cc b3 40 74 44 42 41
       18.057104 13.570908 5.6187277 12.141712

conv_classifier.weight f4 [1, 20, 109, 1]
000000 5c 4e 86 3b ed 27 ad bb 7e bd 56 bc 49 ff a4 bb
       0.0040986966 -0.0052843005 -0.013106702 -0.005035315
000010 53 11 e2 3c 55 9c e8 3b db cc 96 bc 98 01 18 3d
       0.027596151 0.0070987144 -0.01840823 0.037110895
000020 5c d0 8c 3c f4 d8 01 3b 18 d2 4b 3d b2 e6 f2 3c
       0.017189197 0.0019813152 0.049760908 0.02965102
000030 da 3d ad 3c f3 89 f9 ba f5 b2 a6 bc 84 3e 9e bb
       0.021147657 -0.0019038304 -0.020349005 -0.00482923
000040 1c 6b 79 3c 00 f6 4a 3d 07 14 13 bd ff 2e 9a bb
       0.015223291 0.04955101 -0.03590777 -0.0047053094
000050 2e ee 3b bc d2 13 b9 3c 3f e5 d8 3b fd d0 6a 3c
       -0.011470361 0.022592459 0.006619125 0.014332053
000060 3d 5f 20 bd 9f 12 95 3c eb a8 66 bc a5 c5 7f bc
       -0.039153326 0.018197356 -0.014078359 -0.015611087
000070 36 f1 03 3d 6e 17 d7 3c 6f e3 1c 3d b3 f4 0c 3d
       0.03221246 0.02625629 0.038302835 0.03441305
000080 b9 87 44 bd 64 9b d6 3b e3 1e 23 bd 0f 00 fe 3c
       -0.047980998 0.0065492857 -0.039824378 0.031005887
000090 4a a4 2e 3d 3f 42 a7 bc e5 ba 42 bd 4f 4b b0 bc
       0.042637147 -0.02041733 -0.047541518 -0.021520285
0000a0 e6 0c 20 bb 2e 9d 8d 3c 85 92 66 3c 58 17 9c 3c
       -0.002442175 0.017286863 0.014073019 0.0190541
0000b0 33 de 7a 3c 5f de e1 3c e0 02 59 bc bd bf 75 bc
       0.0153117655 0.027571855 -0.013245314 -0.014999327
0000c0 80 31 ed 3b 42 a1 86 3b e6 a0 f4 3c 5a a3 0e bd
       0.007238567 0.004108579 0.029861879 -0.034823753
0000d0 5c 7d 80 bc 45 23 1c 3d 94 36 dd 3c 5e 99 02 3d
       -0.015684776 0.038119573 0.027003564 0.031884544
0000e0 43 be 07 bd 48 bf 3d 3c 14 7a 9a bc 34 bb fc ba
       -0.033140432 0.01158125 -0.01885704 -0.0019281865
0000f0 d0 b4 51 bc 72 ef b9 bc 12 ae 16 3d c5 ab 99 3c
       -0.012799457 -0.022697184 0.0367871 0.018758664
000100 af eb 57 3b b9 79 24 bc 34 86 16 3d 52 8a 66 bd
       0.0032946875 -0.010038787 0.03674908 -0.056284256
000110 e7 cf 11 3d c7 13 0a 3b 86 6b 13 3d 3e 32 38 bd
       0.03559866 0.0021068917 0.035991214 -0.04496979
000120 63 c7 2b bd 65 ae 4d bc 92 32 c1 bc 4b 9b a0 3c
       -0.041938197 -0.012553786 -0.023583684 0.0196053
000130 86 d5 d7 bc 84 e3 09 3d b7 e0 6b 3c aa 5d c7 bc
       -0.026346933 0.03366424 0.014396838 -0.024336655
000140 27 b1 fa bc 7f 24 32 bd 04 98 23 3d d6 66 16 bd
       -0.030602051 -0.043491837 0.039939895 -0.036719166
000150 c9 26 5a bd 5d f6 26 3b 57 c1 b9 3c ad 2a f6 3c
       -0.053259645 0.0025476434 0.0226752 0.030049646
000160 aa 7c 79 bd 1d 0f 07 bc 96 95 09 3c a0 74 fb 3c
       -0.060909905 -0.008243349 0.0083974805 0.03069526
000170 66 8b 90 bc 35 20 25 bd f3 42 c0 3c 38 58 2e 3d
       -0.017644595 -0.04031392 0.023469424 0.0425646
000180 54 6b 83 3c 0d d7 e9 bb 54 03 36 3c 84 be 05 3d
       0.016042389 -0.0071362318 0.011109192 0.032652393
000190 24 47 2f bd 38 54 03 bd fc 84 b1 bc 15 83 83 bd
       -0.042792454 -0.03206274 -0.021669857 -0.06421486
0001a0 15 3a af 3c c2 c7 4c 3c 7a cd 00 ba 7d fb de bc
       0.02139 0.012498798 -0.0004913431 -0.027219528
0001b0 d6 2c 19 bd e2 98 05 3d a1 05 de bc 88 58 41 3d
       -0.037396275 0.032616504 -0.027102293 0.04720357
0001c0 b4 ef 0c 3d 95 ce 3b 3c a5 52 ca 3c bd 5d 2a 3d
       0.034408286 0.011462827 0.024697611 0.041593302
0001d0 b5 5d bc 3c 87 12 44 bb 3f 97 aa bb c1 66 65 bd
       0.022993902 -0.002991827 -0.005206018 -0.056006197
0001e0 85 54 2c bc 7d 5d 08 3d 29 43 94 3c 17 9e 08 bd
       -0.010518198 0.033292282 0.01809843 -0.03335389
0001f0 42 10 59 bc f7 33 56 3d c7 97 0c 3d c8 32 6d 3b
       -0.013248505 0.05229565 0.034324434 0.0036193598
000200 ee 96 0f 3d e1 5a 20 bc d5 66 91 3c 79 0e 9f 3c
       0.035056047 -0.009787292 0.01774923 0.01941608
000210 2d c7 10 bb 1e c3 e5 3b 2b ec 55 bc 28 20 0a bc
       -0.0022091374 0.007011785 -0.013056795 -0.008430518
000220 4a 04 68 3c 1e 60 13 3d 7b 8f 83 3c cc e9 ee bc
       0.014161179 0.035980336 0.016059628 -0.029164217
000230 7c 58 ff 3c 74 69 48 3c ba d5 08 3d 84 66 3f 3d
       0.031170122 0.012232173 0.03340695 0.046728626
000240 59 50 a1 3b 3a 6d c8 bc dc 65 4c 3c d1 de 8a bc
       0.0049229083 -0.024466146 0.012475457 -0.01695195
000250 fe 9b ac 3c d4 c8 0d 3d fb 19 e0 bc dc bb 0c bb
       0.021070477 0.034615353 -0.027356138 -0.0021474278
000260 d2 4b c8 3c d2 6e f6 bc 5e d2 d5 bc 80 89 72 bd
       0.024450216 -0.03008214 -0.026101287 -0.05921316
000270 ed 0c bf 3c 11 97 e0 bc 69 85 13 bd fb 9a b8 3b
       0.023321593 -0.027415784 -0.0360159 0.0056337095
000280 93 7a 68 bc 82 ec 10 3d d5 bb c9 bc e4 a4 1b bb
       -0.01418938 0.0353818 -0.024625698 -0.0023749406
000290 4f ad 18 3c 01 ea 11 bc 64 87 16 3d df 34 39 bd
       0.009318664 -0.008905889 0.036750212 -0.045216437
0002a0 55 d7 0c bc de 67 32 3c 6f d2 8c bb 84 11 4f 3d
       -0.008596261 0.010889022 -0.0042975466 0.050553814
0002b0 8b b5 41 bb 88 c6 55 bd 0d 51 0d bc 91 30 d0 3c
       -0.002955767 -0.052191287 -0.008625281 0.025413783
0002c0 76 74 2b bd 3e 1c cc bb 85 09 af bc 6f a6 dc bc
       -0.041859113 -0.0062289527 -0.021366844 -0.02693483
0002d0 32 c7 4c 3d ac f4 5d 3c 76 4a 53 bc e8 15 10 3b
       0.049994655 0.013547104 -0.012896171 0.0021985713
0002e0 b2 e8 86 bc d7 0e e1 3c a7 70 b8 bc 84 64 7a 3c
       -0.01646838 0.027472897 -0.022514654 0.015282754
0002f0 0e 3b 72 bb d5 63 ef bc 5e 8b 15 bd a6 30 b4 3c
       -0.003696147 -0.029222408 -0.036509864 0.021995854
000300 5b bc 9b ba aa b2 85 bc b0 93 14 3c 52 73 ae bc
       -0.0011881696 -0.016320545 0.009068415 -0.021295223
000310 b0 5c 9f bb df 76 a8 3c 3e e6 fe bb 91 5a bc 3c
       -0.004863344 0.020564495 -0.007778912 0.022992404
000320 62 59 02 bc 73 a8 10 bd 7f 61 b8 bc 47 6f 3d 3c
       -0.007955881 -0.035316896 -0.022507427 0.011562175
000330 7e b7 36 bc 66 5a 6b bd 98 e6 0f bc f6 07 77 3c
       -0.011152146 -0.057459258 -0.008783005 0.015077582
000340 d4 ae 37 3b 92 e9 47 bc ed e8 7e 3c f4 e7 7a 3b
       0.002802779 -0.012201684 0.0155584635 0.0038285227
000350 42 7d e3 bc d7 62 8a bc 9f c1 b2 bc 81 92 f3 3c
       -0.027769689 -0.016892834 -0.021820841 0.029732944
000360 79 08 01 3d 6f db ed 3c 06 9c 18 3d 3f 89 3c 3d
       0.03150222 0.029035298 0.03725817 0.046029326
000370 2c b3 2f bd 07 89 fc 3c 5c ca 36 3b a7 02 31 bd
       -0.04289548 0.030827058 0.0027891612 -0.04321542
000380 42 3c 42 bd cd 36 8b bc 2d c4 03 3a 2f ee e8 bc
       -0.047420748 -0.016993904 0.0005026486 -0.028433887
000390 10 6e 06 bc 8f 15 cc bc 77 62 43 bd 24 a8 b8 3c
       -0.008204952 -0.024912624 -0.047701325 0.022541113
0003a0 74 1c f1 bc f5 a9 17 3d 50 6b a8 bc 28 ae ac 3b
       -0.029432513 0.037027318 -0.020558983 0.0052697845
0003b0 42 6c bf bc f8 94 8c bc fd 5f 49 3d b8 28 3b bd
       -0.023367051 -0.017160878 0.049163807 -0.04569313
0003c0 bc 9f 85 3d 4a 8f 3c bd 4e e9 f3 3c c0 b5 c4 3c
       0.065246075 -0.04603509 0.029774334 0.024012446
0003d0 6a 88 97 bb 9d ff 30 bb 0f f4 a8 3c 00 f5 e1 bc
       -0.004624416 -0.0027007826 0.020624189 -0.027582645
0003e0 ac e9 26 bd 55 a0 51 bc 92 33 d4 3c ab c9 ed 3b
       -0.04075019 -0.012794574 0.025903497 0.0072567067
0003f0 0b f9 4d 3c d1 43 44 bd a0 8d 35 3c f5 4a 7e bc
       0.0125715835 -0.047916237 0.011081129 -0.015520801
