final_presentation/final_results/shallow/interval1/7000/2021-10-14_02-13-47/checkpoints/best_model_1_trial_26_validation_acc=0.8724.pt (torch, 507919 bytes, 6 tensors)

conv_time.weight f4 [20, 62, 100, 1]
0	0xbcaa8f5c	-0.020820312
1	0xbc832505	-0.016008863
2	0x3a6e8b44	0.00090997317
3	0x3cb26e11	0.021781
4	0xbabeee83	-0.0014566932
5	0xbca49add	-0.020093376
6	0xbc8ac9a8	-0.01694186
7	0xbc2a5198	-0.01039543
8	0xbbecff0f	-0.007232554
9	0xbc41e939	-0.01183539
10	0x3cc46f85	0.023978958
11	0x3c3daab0	0.01157634
12	0xba88b8a1	-0.0010431
13	0x3c5891c9	0.013218352
14	0x3c87e794	0.016589917
15	0x3cd2e052	0.02574173
16	0x3bf5d1fe	0.0075018397
17	0x3cf378de	0.02972072
18	0x3afa1526	0.0019079789
19	0x3b7dfef8	0.003875671
20	0x3cc4501e	0.023963984
21	0x3cd5f933	0.026119804
22	0x3d0c8984	0.034310833
23	0x3d0267cf	0.03183728
24	0x3ca29897	0.019848151
25	0x3cb1b0b4	0.021690704
26	0x3cf8ee5b	0.030387094
27	0xb973dab8	-0.00023255765
28	0xbc8187a1	-0.015811743
29	0xbc0949f5	-0.008379449
30	0x3c89747e	0.01677918
31	0x3cc0f364	0.023553558
32	0x3c4f3f32	0.012649344
33	0x3c60799b	0.013700868
34	0x3c9369d4	0.017994799
35	0xbbd3deb0	-0.0064657554
36	0x3b42b328	0.0029708836
37	0x3c2a1f46	0.010383433
38	0x3c9fc49c	0.01950293
39	0xb91e0ae3	-0.0001507211
40	0xb9f092a5	-0.00045885626
41	0xbc7ac399	-0.015305423
42	0xbb87771c	-0.004134072
43	0x3c308c1c	0.010775592
44	0x3caececc	0.021338843
45	0xbc0ef933	-0.008726406
46	0x3a4a12b5	0.0007708476
47	0x3c163aee	0.009169323
48	0x3c0ce0c3	0.008598509
49	0x3cdacf54	0.02671019
50	0xba4efd83	-0.00078960526
51	0x3b6cca46	0.0036131307
52	0xbb0a0a08	-0.0021063108
53	0x3c5aba49	0.013350078
54	0x3c0f8da9	0.008761802
55	0x3d0be62e	0.034155063
56	0xbc456e06	-0.012050157
57	0x3d07995e	0.033105247
58	0x3caf85c0	0.021426082
59	0xba8f79ab	-0.0010946294
60	0x3cf55192	0.029946122
61	0x3d0327f5	0.032020528
62	0xbc001d21	-0.007819445
63	0xbca1ecd7	-0.019766254
64	0xbc6124d9	-0.013741695
65	0xbc628918	-0.013826631
66	0x3c8fd2d3	0.017556584
67	0xbc9fdaf6	-0.019513588
68	0xbbf3e5aa	-0.0074431496
69	0x3cb1097b	0.021610966
70	0x3c06bebd	0.0082241865
71	0x3c9dfe79	0.019286381
72	0xbb24e1fa	-0.0025159107
73	0x3c445db6	0.011985233
74	0xbbb1efbf	-0.0054301913
75	0x3bad63b8	0.0052914284
76	0xbc0bde32	-0.008536862
77	0xbc2db556	-0.010602316
78	0x3cd9916b	0.026558599
79	0x3ce919f9	0.028454768
80	0xbc8e8dfa	-0.017401684
81	0xbcc99111	-0.024605306
82	0x3c661710	0.0140435845
83	0xbc9ba5a3	-0.01899988
84	0xbc1d9775	-0.00961863
85	0x3c96d53d	0.018412227
86	0xbc93bf69	-0.018035607
87	0x3c986963	0.01860494
88	0xbc4ab782	-0.012372853
89	0xbc3b752d	-0.011441511
90	0x3c2bae05	0.010478501
91	0xbc023aa4	-0.007948551
92	0x3cba9265	0.022774884
93	0x3c5ba6d9	0.013406479
94	0x3ccb0f14	0.024787463
95	0x3cf88190	0.030335218
96	0xbc79ee9b	-0.015254642
97	0x3c7c89d7	0.015413723
98	0x3c8b97f3	0.017040228
99	0xbcaa5fb6	-0.020797592
100	0x3a8cadc2	0.0010732936
101	0xbc1d2680	-0.009591699
102	0x3c8e8b58	0.017400429
103	0xbb67fda4	-0.0035398984
104	0xbcb384dc	-0.021913938
105	0xbcd91eb3	-0.026503896
106	0xbc5bbb06	-0.013411289
107	0xbc8c32ff	-0.01711416
108	0x3bef5e42	0.0073049376
109	0x3c9a3680	0.018824816
110	0x3cad61c6	0.021164786
111	0x3bf8c94c	0.007592356
112	0xba9b9fd5	-0.0011873195
113	0xbc08589e	-0.008321909
114	0x3bd89118	0.0066090934
115	0xbb2254d4	-0.00247698
116	0x3be1afa1	0.0068873917
117	0xbc401f77	-0.011726252
118	0x3be913ca	0.0071129547
119	0x3be56689	0.0070007485
120	0xbc5ad4e4	-0.013356421
121	0xbcc2570f	-0.023723153
122	0xb990240d	-0.0002749268
123	0xbcac6e1b	-0.021048596
124	0xbc684fcd	-0.014179182
125	0xbc771a10	-0.015081897
126	0x3cbcc6f5	0.023044089
127	0xbcb15964	-0.02164907
128	0x3c729479	0.014805906
129	0xbcba02e6	-0.02270646
130	0xbb9dd5fe	-0.0048167696
131	0x3c125c16	0.008933088
132	0x3bbba196	0.0057260497
133	0x3c00f476	0.007870784
134	0x3cdbb017	0.026817365
135	0xbc7d5168	-0.015461303
136	0x3bc6ef27	0.0060709896
137	0xba10fa9b	-0.0005530507
138	0x3c774393	0.015091795
139	0x3cbd1c08	0.023084655
140	0xbcaa0b6f	-0.020757405
141	0xbac2e48e	-0.001486914
142	0xbc9e2ffc	-0.01930999
143	0xbb98fa4a	-0.0046685087
144	0x3cccba48	0.02499117
145	0xbb8601fe	-0.004089593
146	0x3ce1f057	0.027580423
147	0x3b84f55b	0.004057569
148	0xbb71f4ff	-0.003691971
149	0xbc2013af	-0.009770318
150	0x3b3b29e3	0.0028558902
151	0x3bfa2be3	0.0076346262
152	0x3c26cd56	0.010180792
153	0x3cbc0bfa	0.02295493
154	0x3af4ca80	0.0018676072
155	0x3ab3ab7f	0.0013707726
156	0xbcb0ec18	-0.021596953
157	0x3c8bb316	0.017053168
158	0x3ad4674f	0.0016205105
159	0x3b719a34	0.0036865594
160	0xbbe885f3	-0.007096046
161	0xbaf164c7	-0.0018416875
162	0x3a1fa776	0.0006090322
163	0xbc3b3586	-0.011426335
164	0x3cc7a6cf	0.024371533
165	0x3b8f3731	0.004370593
166	0xbc030e38	-0.0079989955
167	0xbbe44ad3	-0.0069669276
168	0xbcce8cf1	-0.02521369
169	0x3b120635	0.0022281532
170	0xbcb94a20	-0.022618353
171	0xbc333fe6	-0.010940528
172	0x3ac67f0c	0.0015144064
173	0xbc847809	-0.016170518
174	0xbc87e821	-0.01659018
175	0xbc4ff47f	-0.01269257
176	0xbcbc801b	-0.023010304
177	0xbcb7d8b0	-0.022442192
178	0xbbd5ab0b	-0.006520634
179	0x3a961b2d	0.0011452191
180	0xbc63505c	-0.01387414
181	0xbc4ef578	-0.0126317665
182	0x3c6f5939	0.014608675
183	0xbc9f621b	-0.01945596
184	0x3a396f09	0.00070737355
185	0x3ca9acff	0.020712374
186	0x3c72c6e9	0.014817932
187	0x3c79d040	0.015247405
188	0x3ca8857b	0.020571461
189	0x3cb99d12	0.022657905
190	0xbc8b4ded	-0.017004931
191	0x3ba41ed5	0.0050085583
192	0x3c86495a	0.016392399
193	0xbccf4a2d	-0.025303924
194	0x3cb4a921	0.022053303
195	0xbbf17dd1	-0.007369735
196	0xbc3294ba	-0.010899717
197	0x3a4a542a	0.000771823
198	0xbc5304cc	-0.012879562
199	0xbcc2feed	-0.023803199
200	0xbc57c9b4	-0.013170648
201	0x3ce1a1ca	0.027542967
202	0xbcb28932	-0.021793935
203	0x3c568947	0.013094253
204	0xbcdfdff3	-0.027328467
205	0xbc8bc313	-0.017060792
206	0xbc727199	-0.014797592
207	0xbcd8ce65	-0.026465604
208	0xbc9ca16a	-0.019119937
209	0xb8c02fc5	-9.164171e-05
210	0xbc725b33	-0.014792251
211	0x3c06b962	0.00822291
212	0xbcadb7b4	-0.02120576
213	0xbba55011	-0.005044945
214	0xbc80d30b	-0.015725633
215	0x3c90d912	0.017681632
216	0x3baeeb2d	0.0053380937
217	0xbc3e83a2	-0.011628063
218	0x3b5e5ce3	0.0033929877
219	0x3cbf9d0b	0.023390314
220	0xbc1043f5	-0.008805265
221	0xbc784396	-0.0151528325
222	0xbba8a1e1	-0.0051462506
223	0xbabd0870	-0.001442207
224	0xbc8e4f86	-0.017371904
225	0x3ce84270	0.028351992
226	0xbb9ce275	-0.004787738
227	0xbcb24a4c	-0.021763943
228	0xbc73fd8c	-0.014891993
229	0x3b9ac02b	0.0047226152
230	0xbb980b0e	-0.0046399897
231	0x3ced1f68	0.02894564
232	0xbb0f3624	-0.0021852339
233	0xbc3bcb02	-0.011461975
234	0xbcadfa0b	-0.021237394
235	0x3c563bca	0.013075778
236	0xbcae47fd	-0.021274561
237	0x3c46130f	0.012089505
238	0xbcce8e12	-0.025214229
239	0xbbe26b27	-0.006909746
240	0xbc00b497	-0.007855556
241	0x3b2ef1c2	0.0026694392
242	0xbc3f8a44	-0.01169068
243	0x3c8856c3	0.016642934
244	0xbc842911	-0.016132863
245	0xbc3ef517	-0.011655114
246	0x3b5c5fb4	0.003362638
247	0xbbd40f99	-0.006471586
248	0xb9bd7756	-0.000361378
249	0xbc1f6cbe	-0.009730516
250	0x3c22fb46	0.009947604
251	0xbc051a7f	-0.008123993
252	0x3cd0e16a	0.02549811
253	0xbc9a23b2	-0.018815849
254	0xbae423df	-0.001740571
255	0x3c347713	0.011014718

bnorm.weight f4 [20]
0	0x3fb44cfe	1.4085996
1	0x3fbcacb3	1.4740204
2	0x3f840c68	1.0316286
3	0x3faf8bcb	1.3714536
4	0x3fba0056	1.4531353
5	0x3fb66834	1.425055
6	0x3fbd2b30	1.4778805
7	0x3fa4bbe8	1.2869844
8	0x3fbf747d	1.4957424
9	0x3fbc4eca	1.4711545
10	0x3fbff3ce	1.4996278
11	0x3fb9078d	1.4455429
12	0x3fc321e9	1.5244724
13	0x3fb9f633	1.4528259
14	0x3fc379f1	1.5271589
15	0x3fbaa004	1.4580083
16	0x3fbd0494	1.4767022
17	0x3fba4fd5	1.4555613
18	0x3fa08a2d	1.2542168
19	0x3fc1371b	1.5094942

bnorm.bias f4 [20]
0	0xbdb317c8	-0.0874477
1	0xbebd6f13	-0.36998805
2	0xbf981b90	-1.1883411
3	0x3ea5646f	0.32303187
4	0xbd2ccf3d	-0.042189825
5	0x3e6b3ab1	0.22971608
6	0xbf0e063b	-0.55478257
7	0xbf1642af	-0.586955
8	0x3e66d01b	0.22540323
9	0x3dc66e63	0.09689023
10	0xbce69316	-0.028146308
11	0x3eaaa563	0.33329305
12	0xbda7fb41	-0.0820222
13	0x3e1652dc	0.14680046
14	0x3d898238	0.067142904
15	0xbd8777ee	-0.06614672
16	0xbe8963f1	-0.26834062
17	0xbe420bfa	-0.18949881
18	0x3f127ea3	0.5722448
19	0xbe09ddb2	-0.13463476

bnorm.running_mean f4 [20]
0	0x3c6dd9eb	0.014517288
1	0x3d3f4f77	0.046706643
2	0xbc5c4ac7	-0.013445563
3	0xbc0880cc	-0.008331489
4	0xbc373feb	-0.011184673
5	0xbd017f35	-0.031615455
6	0x3b58c4ec	0.003307636
7	0x3c1b42e8	0.009476401
8	0xbb35bde2	-0.0027731587
9	0xbcd8cf27	-0.026465965
10	0xbc77dc77	-0.0151282465
11	0x3a7d0e89	0.000965335
12	0xbd061819	-0.032737825
13	0x3c47ec23	0.0122022955
14	0xbc0e535c	-0.008686867
15	0xbc62d07a	-0.01384365
16	0xbbd7c155	-0.0065843263
17	0xbc917140	-0.017754197
18	0xbc5bdd3c	-0.013419446
19	0xbbfb443f	-0.0076680477

bnorm.running_var f4 [20]
0	0x43012ffc	129.18744
1	0x43537d0c	211.48846
2	0x4408b2f2	546.796
3	0x42cb67b9	101.70258
4	0x430bd83e	139.8447
5	0x4303f11b	131.94182
6	0x434ff57c	207.95892
7	0x43197314	153.44952
8	0x43199dfb	153.61711
9	0x437249b3	242.28789
10	0x4327db9c	167.85785
11	0x436d0519	237.01991
12	0x432dd146	173.81747
13	0x43258eff	165.55858
14	0x432592eb	165.5739
15	0x430e01a6	142.00644
16	0x432fc40f	175.76585
17	0x434cfee9	204.99574
18	0x432bb71f	171.71532
19	0x4384226b	264.2689

conv_classifier.weight f4 [1, 20, 109, 1]
0	0x3c6829cf	0.014170124
1	0x3c889f95	0.016677657
2	0x3d6d6139	0.057954047
3	0x3d751a56	0.05983957
4	0x3be68c1b	0.007035745
5	0x3d451073	0.04811139
6	0x3bb62e26	0.0055597005
7	0x3d053a29	0.03252617
8	0x3cff0c11	0.031133683
9	0x3d19ab27	0.03751674
10	0x3daec67c	0.08533952
11	0xbca70422	-0.020387713
12	0xbaac3fef	-0.0013141612
13	0xbbfb6fdd	-0.0076732473
14	0xbc8fe922	-0.017567221
15	0xbbc7f529	-0.0061022234
16	0xbd415560	-0.04720056
17	0x3d4888f3	0.04895873
18	0x3a842a42	0.0010083395
19	0xbd53e59c	-0.051732644
20	0xbd226875	-0.0396504
21	0x3bfdac45	0.0077414834
22	0xbc0667d8	-0.008203469
23	0xbc42bdf7	-0.011886111
24	0xbd3bd04d	-0.045852948
25	0xbcbc26dc	-0.022967748
26	0x3d35c78d	0.04437976
27	0x3c87246f	0.016496865
28	0x3d819e8b	0.06329068
29	0x3caf83ff	0.021425245
30	0xbcc71b98	-0.02430515
31	0xbc0374f6	-0.008023491
32	0xbd4a5d84	-0.04940559
33	0xbc3b6d8f	-0.011439695
34	0xbcc7f1b5	-0.024407247
35	0xbde0feec	-0.109861225
36	0xbd711a9b	-0.058863264
37	0xbbcdcc8c	-0.0062804874
38	0xbd957a66	-0.07298736
39	0x3dc87f78	0.09789938
40	0x3d9a503f	0.07534837
41	0xbd70c0da	-0.058777668
42	0x3b9fecf2	0.004880541
43	0xbcb0fd7d	-0.021605248
44	0xbd0cb510	-0.034352362
45	0xbba5292b	-0.005040308
46	0xbcb42a15	-0.021992723
47	0x3d79877a	0.060920216
48	0xbcc38753	-0.023868239
49	0xbb135622	-0.002248176
50	0x3c5bb76c	0.01341043
51	0xbd95a2a5	-0.073064126
52	0xbc201907	-0.009771592
53	0xbd79cea9	-0.060988102
54	0x3d5401ad	0.05175941
55	0xbd548fca	-0.05189494
56	0x3c8ce68b	0.017199775
57	0x3c6f7575	0.014615406
58	0x3c238490	0.009980336
59	0x3d153c4f	0.036434468
60	0xbd67b6c7	-0.056570794
61	0xbc1dd3bf	-0.009633004
62	0xbda57aba	-0.08080049
63	0x3d0c65d2	0.03427679
64	0xbc47ab99	-0.012186908
65	0x3dcfc346	0.10144667
66	0xb7f44cae	-2.9122773e-05
67	0x3da5387f	0.080674164
68	0x3db68b51	0.08913291
69	0x3a080b05	0.00051896303
70	0xbd8cb019	-0.068695255
71	0xbdae1a04	-0.08501056
72	0xbd124a61	-0.035715465
73	0x3d8756dc	0.06608364
74	0xbd4b94a4	-0.0497023
75	0xbba56584	-0.005047502
76	0x3c23bc8f	0.009993686
77	0x3db3fb62	0.08788182
78	0xbd53dd54	-0.051724747
79	0x3c0b4b6b	0.008501868
80	0x3cf6f858	0.030147716
81	0x3e0bdb7f	0.1365795
82	0xbd87fd18	-0.06640071
83	0xbc629bdc	-0.013831105
84	0x3ce153f6	0.027505856
85	0xbc46381e	-0.01209834
86	0x3d76b15e	0.060227744
87	0xbc9bd9e0	-0.01902479
88	0xbd2c87c2	-0.042121656
89	0xbd63137d	-0.055438507
90	0x3c58127a	0.013187999
91	0xbd3c6d5a	-0.046002723
92	0xbc91140c	-0.017709754
93	0x3cde528e	0.027138975
94	0x3c9f731a	0.019464064
95	0x3ce67b87	0.028135074
96	0x3c8d5713	0.017253434
97	0x3d519d00	0.051175117
98	0x3c752d4d	0.014964414
99	0xbc4d778c	-0.012540709
100	0x3d52b33c	0.051440462
101	0xbc957336	-0.018243413
102	0x3da299d8	0.079394996
103	0xbd363281	-0.044481758
104	0x3d7fbce8	0.062436014
105	0xbc4243c3	-0.011856976
106	0x3ced152b	0.028940758
107	0x3c8320ee	0.016006913
108	0x3c504ec6	0.012714094
109	0xbd0ae97a	-0.033914067
110	0xbd3fb88a	-0.04680685
111	0xbcbe3c3c	-0.023222081
112	0xb8d54fd4	-0.000101715006
113	0x3d114c76	0.03547331
114	0xbca81be7	-0.020521117
115	0x3d9bdd00	0.07610512
116	0xbb16d661	-0.0023015963
117	0x3d3b4a83	0.045725357
118	0xbd1d7c15	-0.038448412
119	0x3d9f4a73	0.07777872
120	0xbb947565	-0.004530596
121	0x3d5c96ef	0.05385488
122	0xbd143fd7	-0.036193695
123	0xbdac0156	-0.08398692
124	0xbc60bcc3	-0.013716879
125	0x3dd81c5e	0.105522856
126	0xbceee4d8	-0.029161856
127	0x3da8d968	0.08244592
128	0x3a7ba15a	0.00095989334
129	0x3d5678bb	0.05236123
130	0xbcd67efc	-0.026183598
131	0xbd04985c	-0.032371864
132	0xbdbac2fa	-0.0911922
133	0x3c476066	0.012168979
134	0x3c265503	0.010152104
135	0x3d272d03	0.04081441
136	0xbc7f09ef	-0.015566333
137	0xbc54bb5f	-0.012984126
138	0xbcf9ba47	-0.030484332
139	0xbd6cfc87	-0.057858016
140	0x3cda8963	0.02667684
141	0x3d28ef25	0.04124369
142	0xbd58c87a	-0.052925564
143	0x3d47d88d	0.048790503
144	0xbd809c65	-0.0627983
145	0x3bed375b	0.007239265
146	0x3df8ef66	0.12155037
147	0xbcbc9c93	-0.02302388
148	0x3d936f16	0.07198922
149	0x3da33d44	0.0797067
150	0xbb78039d	-0.003784395
151	0x3d04d12d	0.032426048
152	0xbda561ba	-0.080752805
153	0xbca1580d	-0.019695306
154	0x3c471588	0.01215113
155	0xbd062aa1	-0.032755498
156	0x3c86c70b	0.016452333
157	0xbd92fae5	-0.071767606
158	0x3d44e503	0.048069965
159	0x3c98cfaa	0.01865371
160	0xbd0a6704	-0.03378965
161	0xbd669f68	-0.056304365
162	0xbd668ed9	-0.056288574
163	0xbd85004e	-0.06494199
164	0x3d5f6e27	0.05454841
165	0xbd480972	-0.048837133
166	0x3bc210fc	0.005922435
167	0xbc4e3bc8	-0.012587495
168	0xbd69b627	-0.05705848
169	0xbc27c605	-0.010240083
170	0xbda57980	-0.08079815
171	0x3c228388	0.009919055
172	0x3b684384	0.0035440633
173	0x3d1cb7ca	0.038261212
174	0xbbbdeb57	-0.005795877
175	0xbd848359	-0.06470365
176	0x3d36c3ad	0.044620205
177	0xbd09833a	-0.033572413
178	0x3c038e8e	0.008029593
179	0xbd2ea6fe	-0.042639725
180	0x3b95dd82	0.004573525
181	0x3dba4ae9	0.09096319
182	0xbd2074bb	-0.039173823
183	0xbc00e8d3	-0.00786801
184	0xbd097f3c	-0.033568606
185	0x3c43edf6	0.01195859
186	0xbd5e0ab5	-0.05420943
187	0x3ce733d1	0.02822295
188	0xbc8ffc2a	-0.017576296
189	0xbdce6bc7	-0.10079151
190	0xbb2fe317	-0.0026838237
191	0x396e4c29	0.0002272582
192	0xbcf76a6e	-0.030202117
193	0xbd175ab5	-0.03695174
194	0xbd84ae40	-0.06478548
195	0xbd4448b0	-0.047920883
196	0xbd84e4f2	-0.0648898
197	0xbc3e328f	-0.011608734
198	0xbd23a732	-0.03995437
199	0x3cffbddc	0.031218462
200	0xbd823ece	-0.06359635
201	0xbd423f75	-0.0474238
202	0xbdd6b279	-0.1048326
203	0xbe03db62	-0.12876657
204	0x3d90ac7c	0.07064149
205	0xbccab40f	-0.024744062
206	0x3d4f554a	0.050618447
207	0xbce50460	-0.027956188
208	0x3c52e6d0	0.012872413
209	0x39b16e0f	0.0003384207
210	0xbcf395c2	-0.029734496
211	0xbb7e2df3	-0.0038784712
212	0x3daa82d8	0.08325738
213	0xbdcb88e6	-0.09938221
214	0xbda49b1d	-0.08037398
215	0xbd8a60d0	-0.06756747
216	0xbd5f2ed2	-0.05448801
217	0xbdc50c4d	-0.09621487
218	0xbde2eb17	-0.11079996
219	0xbe4a319c	-0.19745487
220	0xbe0ded03	-0.13859944
221	0xbdf057e8	-0.11735517
222	0x3d9364e8	0.07196981
223	0x3cebb620	0.028773367
224	0x3de4fbca	0.111808375
225	0x3d1ceadd	0.03830992
226	0x3dfda399	0.123847194
227	0x3dd8aeb7	0.10580199
228	0x3d70a702	0.05875302
229	0x3d739b16	0.059474073
230	0x3daca776	0.08430378
231	0x3db35b75	0.087576784
232	0x3dbc2f34	0.09188691
233	0x3d47e3ef	0.04880136
234	0x3d55c7ba	0.052192427
235	0xbce6cf6f	-0.028175084
236	0x3d8f85c8	0.070079386
237	0xbd188117	-0.037232485
238	0x3db18e9a	0.08669777
239	0x3dbc5bbe	0.09197186
240	0x3dc90841	0.098160274
241	0xb94d112e	-0.00019556723
242	0xbda44ed4	-0.08022848
243	0xbc6acdf5	-0.014331331
244	0x3ce891ab	0.028389772
245	0xbc8a7432	-0.01690111
246	0xbc96cdfa	-0.018408764
247	0x3ac62da9	0.0015119809
248	0x3c67e9f0	0.014154896
249	0xbb163a70	-0.0022923015
250	0xbd4cde5b	-0.050016742
251	0xbe057e45	-0.13036449
252	0xbd4a3d69	-0.04937497
253	0xbd78d5c1	-0.060750727
254	0xbd854cd4	-0.065087944
255	0x3b0ac9eb	0.0021177481
