final_presentation/final_results/shallow/interval1/7000/2021-10-14_02-13-47/checkpoints/best_model_1_trial_22_validation_acc=0.9693.pt (torch, 458319 bytes, 6 tensors)

conv_time.weight f4 [20, 62, 90, 1]
0	0x3c16b9f3	0.009199607
1	0x3b3f6f7f	0.0029210744
2	0x3d4f5904	0.050622
3	0x3d34c2d4	0.044131115
4	0x3c6bf3ba	0.014401371
5	0x3d282ef7	0.041060414
6	0x3c9469e9	0.018116908
7	0x3b88469a	0.004158807
8	0x3bb2eff0	0.0054607317
9	0xbbece080	-0.007228911
10	0xbbbf9e0e	-0.005847699
11	0x3bf7a063	0.0075569614
12	0x3bc21354	0.0059227142
13	0x3d4c4121	0.0498668
14	0x3b852f6e	0.004064492
15	0x3d3aa522	0.04556764
16	0x3c55495c	0.0130179785
17	0x3d15ba43	0.036554586
18	0x3ce45692	0.027873311
19	0x3d2d957b	0.042378884
20	0x3ba5e104	0.0050622243
21	0x3d0643cb	0.032779496
22	0xbba1081b	-0.0049142963
23	0x3d1c9bed	0.03823464
24	0x3c7d00b3	0.015442061
25	0xba357231	-0.0006921618
26	0xbc34ef1c	-0.011043336
27	0x3c74b5d9	0.014935934
28	0x3b89d7af	0.0042066197
29	0xbc1be68e	-0.009515418
30	0x3cae26ff	0.02125883
31	0x3bcb625b	0.0062067932
32	0x3cf659e8	0.030072168
33	0x3c3e4b5a	0.011614645
34	0xb9a1d637	-0.00030867915
35	0xbc8a123f	-0.016854404
36	0xbb510fd2	-0.0031900299
37	0x3d00c6cc	0.031439587
38	0xbb1c7c93	-0.0023877963
39	0xbbd93a32	-0.006629252
40	0xbc03ddc3	-0.008048478
41	0x3c12084b	0.00891311
42	0x3b99b34e	0.0046905642
43	0x3c2d2292	0.010567324
44	0x3c38d048	0.011280127
45	0x3bca0057	0.0061645913
46	0x3b3573d9	0.0027687459
47	0xbc46f91c	-0.012144353
48	0x3ca08aaf	0.01959738
49	0x3b83844a	0.004013573
50	0xbc8fa0f0	-0.017532796
51	0x3d04ebc0	0.03245139
52	0x3ca54a36	0.020176988
53	0x3bd5203b	0.0065040863
54	0xbc952004	-0.018203743
55	0x3c227758	0.009916149
56	0x3c11ee1c	0.008906867
57	0xbc87de7c	-0.016585581
58	0x3cd6d56f	0.02622482
59	0x3caa6175	0.020798424
60	0x3c560f68	0.013065197
61	0xbb76a5da	-0.0037635476
62	0x3c004b3c	0.007830437
63	0x3d05c4ff	0.032658573
64	0x3c74963d	0.014928398
65	0xbc172a8f	-0.009226455
66	0x3d1e0282	0.03857661
67	0xbc6e4748	-0.014543362
68	0xbc082b73	-0.00831114
69	0x3cf9124c	0.030404232
70	0x3c5de985	0.013544445
71	0xbbc0ce74	-0.005883986
72	0x3d2d4d19	0.042309854
73	0x3d366a0b	0.044534724
74	0xbb4f8246	-0.0031663342
75	0x3c80df5a	0.015731502
76	0x3d17e7d1	0.03708631
77	0x3bd3a0f6	0.006458397
78	0x3c3bc675	0.01146089
79	0x3cae7ac5	0.021298775
80	0x3d174716	0.036933027
81	0x3cd5d154	0.026100792
82	0x3bbffef6	0.005859251
83	0x3d0c1602	0.034200676
84	0x3b7ef730	0.003890466
85	0x3c4c0c15	0.012454052
86	0x3d5b966a	0.053610243
87	0x3b5af397	0.003340935
88	0x3c376a61	0.011194796
89	0x3d2b9c5f	0.041897174
90	0xbc7b1a19	-0.015326046
91	0x3cd5cc3e	0.026098367
92	0xbc97e02a	-0.018539507
93	0x3b282c86	0.0025661304
94	0x3d03b9f0	0.032159746
95	0x3c1e6e79	0.009669893
96	0xbb90d693	-0.0044201105
97	0x3aa37004	0.0012469296
98	0x3bff2fb4	0.007787669
99	0x3ce4f3bd	0.027948255
100	0x3b606684	0.0034240792
101	0x3b87ae23	0.0041406318
102	0xbc9fcd68	-0.019507125
103	0x3c3b42f9	0.011429542
104	0xbc80fcd6	-0.015745562
105	0x3b9b34b6	0.0047365082
106	0x3c758441	0.014985145
107	0xbb9c06cf	-0.004761554
108	0x3ccd1995	0.025036613
109	0x3c6f05dd	0.0145888
110	0x3c216c08	0.009852417
111	0xbb0bbe59	-0.0021323173
112	0xbbb3a2d1	-0.0054820557
113	0xbcec6d02	-0.028860573
114	0xbcbf4e16	-0.023352664
115	0xbc9d20e7	-0.019180728
116	0x3bb82b52	0.0056203986
117	0xbcd96583	-0.026537662
118	0xbb906453	-0.004406491
119	0x3cd7d189	0.026345031
120	0x3bda9525	0.0066706114
121	0xbca42c62	-0.020040695
122	0xbbe63a08	-0.007025961
123	0xbcae1adf	-0.021253048
124	0xbc9b5a46	-0.018963944
125	0x3ca2d368	0.019876197
126	0xbc2cda76	-0.010550132
127	0xbbf83afa	-0.00757539
128	0xbb055fe5	-0.0020351347
129	0x3c98663c	0.018603437
130	0x3c95fd63	0.0183093
131	0x3ca9580d	0.020671869
132	0xbc0beb2d	-0.008539957
133	0x3cae0660	0.021243274
134	0x3c7b6b98	0.015345477
135	0x3b920b22	0.0044568935
136	0xb9c1d4a8	-0.0003697027
137	0xbd0351eb	-0.032060545
138	0x3a0a1ab1	0.00052682596
139	0x3bacdec7	0.0052755806
140	0x3c8167fc	0.015796654
141	0x3be908bc	0.007111637
142	0xbccb7649	-0.024836676
143	0xbd0cac63	-0.03434409
144	0xbcc255a7	-0.023722483
145	0xbc33770f	-0.010953679
146	0xbc4ae786	-0.012384301
147	0x3c5d6236	0.013512185
148	0xbb691113	-0.0035563156
149	0xbb19d29a	-0.0023471476
150	0xbcb4f24b	-0.02208819
151	0xbc9ac7a1	-0.018894019
152	0x3bda5ea3	0.0066641136
153	0x3c8ce09a	0.017196942
154	0xbc0f1132	-0.008732127
155	0x3c70cabf	0.014696776
156	0x3bd3b681	0.006460965
157	0xbcc87a35	-0.024472335
158	0xbcb6507a	-0.022255171
159	0x3c8b2234	0.016984083
160	0x3ccf3849	0.025295394
161	0xbbab59e2	-0.0052292207
162	0x3ca6453e	0.02029669
163	0xbcbd7bba	-0.023130286
164	0x3d042206	0.03225901
165	0xbca90f27	-0.020637108
166	0x3c7fecba	0.015620405
167	0x3cf37949	0.02972092
168	0x3af1d3c7	0.0018449955
169	0x3ca25536	0.019816022
170	0x3d0d37ad	0.034476925
171	0x3ccacd1c	0.024756007
172	0x3cdccc46	0.026952874
173	0xbaabb390	-0.0013099778
174	0x3d093ef0	0.033507288
175	0x3ceea703	0.029132372
176	0x3c52ffcf	0.012878372
177	0xbc5a897d	-0.013338444
178	0x3abc6e1b	0.0014376076
179	0x3c495d2f	0.012290283
180	0x3bf2530a	0.007395153
181	0x3d2ad425	0.041706223
182	0x3d0de875	0.034645516
183	0x3adc7a12	0.0016821048
184	0x3c8a3319	0.016870068
185	0x3ce7573f	0.028239844
186	0x3d1ff16a	0.03904859
187	0x3c83e6bf	0.01610124
188	0x3d2404ad	0.04004352
189	0x3d1da7e3	0.038490187
190	0xbbd0a60c	-0.0063674506
191	0x3c778e34	0.015109587
192	0xbc39cd2e	-0.011340423
193	0x3c2f142a	0.01068596
194	0x3c17c757	0.009263835
195	0x3c07f447	0.008297986
196	0xb6c3a781	-5.830953e-06
197	0xbc00fb54	-0.007872421
198	0xbc1b0189	-0.009460815
199	0x3a2395cb	0.00062402774
200	0x3b49c6c7	0.0030788647
201	0xbccb104e	-0.024788048
202	0x3cd820e5	0.026382873
203	0xbbf4ff46	-0.00747672
204	0xbce7f995	-0.028317252
205	0x3c84e89a	0.016224194
206	0xbc16331e	-0.009167461
207	0xbc0bb399	-0.008526706
208	0xbbd7bdd6	-0.0065839095
209	0xbb873467	-0.00412612
210	0x3be9755a	0.007124585
211	0xbc9a943e	-0.018869516
212	0xbc35e8f7	-0.011102906
213	0xbcbda14f	-0.023148207
214	0xbca73197	-0.020409388
215	0xbc686012	-0.014183061
216	0x3b418262	0.0029527177
217	0x3c436453	0.011925775
218	0x3cb1a443	0.021684771
219	0xbced6794	-0.028980054
220	0x3bdfdf5d	0.006832047
221	0xbc4495f0	-0.0119986385
222	0xbcbe3315	-0.023217717
223	0x3c3595d5	0.011083086
224	0xbc8b9c8c	-0.01704242
225	0x3cd1b5c4	0.025599368
226	0xbcb16a61	-0.02165717
227	0xbc4d223d	-0.01252037
228	0xbc51643a	-0.0127802435
229	0xbd0410f5	-0.032242734
230	0x3a99ad14	0.0011724555
231	0xbc430ab7	-0.01190441
232	0x39b1c2ed	0.00033905302
233	0xbb36bc66	-0.002788329
234	0xbccf148f	-0.025278358
235	0x3c694b76	0.014239183
236	0xb9f5aab5	-0.00046857228
237	0x3c3b3513	0.011426228
238	0xbcbfa193	-0.023392474
239	0xbcbd72cf	-0.023126034
240	0xbd1ffbcc	-0.03905849
241	0xbc553d25	-0.013015066
242	0xbd07ce01	-0.033155445
243	0x3c08b4bb	0.008343871
244	0xbbf6799d	-0.0075218217
245	0xbca4e166	-0.02012701
246	0xbcaa8e7b	-0.020819893
247	0xbca12811	-0.019672425
248	0x3c2aa199	0.010414504
249	0x3cef7b7c	0.029233687
250	0xbc97bc99	-0.018522548
251	0x3c8c0356	0.017091434
252	0x3be5718f	0.0070020626
253	0x3a3b8cba	0.0007154454
254	0x3cb0d6ce	0.021586802
255	0xbb1cd72a	-0.0023931959

bnorm.weight f4 [20]
0	0x3fb507a4	1.4142957
1	0x3fbabae0	1.458828
2	0x3fa94986	1.3225563
3	0x3fb461be	1.4092329
4	0x3fb2d871	1.3972303
5	0x3fa63922	1.2986186
6	0x3fadae5c	1.3568835
7	0x3fb0d6d3	1.3815559
8	0x3fbb2567	1.4620789
9	0x3fad4eab	1.3539633
10	0x3fac43ba	1.3458169
11	0x3faeb13f	1.3647841
12	0x3fb25be6	1.3934295
13	0x3fb1954c	1.3873687
14	0x3fa98edf	1.3246726
15	0x3f8fbab6	1.1228855
16	0x3fb51af7	1.4148854
17	0x3fb64959	1.4241134
18	0x3fad33d0	1.3531437
19	0x3fb4d696	1.4127986

bnorm.bias f4 [20]
0	0x3dd6844f	0.104744546
1	0x3db55f3c	0.08856055
2	0xbec612ee	-0.38686317
3	0x3cc1bb2b	0.023648819
4	0xbe34bda0	-0.17650461
5	0xbdf4aad7	-0.119466476
6	0xbbd421a9	-0.006473739
7	0x3b6ecc48	0.003643768
8	0x3e02982d	0.12753363
9	0xbefd7e66	-0.49510497
10	0xbcddc2de	-0.027070459
11	0x3f1a8188	0.603539
12	0x3e88ca60	0.267169
13	0x3e4daeff	0.20086287
14	0x3f17cf8c	0.59301066
15	0x3f368f33	0.71312255
16	0x3ed81aa4	0.42207825
17	0xbe0d5afd	-0.1380424
18	0x3bac42d6	0.005256991
19	0x3e92172b	0.285333

bnorm.running_mean f4 [20]
0	0xbaf480ec	-0.0018654144
1	0xbc70376e	-0.014661653
2	0x3aad11de	0.0013204177
3	0xbcbab2ed	-0.022790397
4	0x3ca87b60	0.020566642
5	0x3b9f3686	0.0048587946
6	0x3c279742	0.010228934
7	0xbcaf9e68	-0.021437839
8	0xbc2edc00	-0.010672569
9	0xbcf6199d	-0.03004151
10	0x3c8727b6	0.016498428
11	0xbca7edaf	-0.020499079
12	0xbbe06f2f	-0.0068491916
13	0x3b5f7a5b	0.003410003
14	0xbb9586c2	-0.0045631835
15	0xb7c63801	-2.3629518e-05
16	0x3c37baa7	0.011213935
17	0x3c7d5651	0.015462474
18	0x3bcd4fa0	0.0062655956
19	0x3bda70c9	0.006666277

bnorm.running_var f4 [20]
0	0x423e9df9	47.65427
1	0x4272bcd7	60.684414
2	0x423ef1f5	47.736286
3	0x42aa5021	85.1565
4	0x42cdcc38	102.898865
5	0x421c1e4f	39.0296
6	0x41f28e8c	30.319603
7	0x42292094	42.281815
8	0x4241c356	48.440758
9	0x43050531	133.02028
10	0x42670929	57.758945
11	0x4307dae6	135.85507
12	0x4280c7b0	64.390015
13	0x4246b9e3	49.68153
14	0x42a513fe	82.53905
15	0x42513311	52.29987
16	0x428293ce	65.28868
17	0x4283663c	65.69968
18	0x424f5043	51.82838
19	0x4289e11b	68.93966

conv_classifier.weight f4 [1, 20, 109, 1]
0	0xbd2694d1	-0.040669266
1	0x3c846a1d	0.01616388
2	0x3c6bc109	0.014389285
3	0xbddf95c8	-0.109172404
4	0x3db31240	0.08743715
5	0x3d45beee	0.048277788
6	0x3d792585	0.060826797
7	0x3e558e0e	0.20854971
8	0x3df2bfe4	0.118530065
9	0x3e2472fc	0.16059488
10	0x3dbb75db	0.091533385
11	0x3ddfbe4f	0.1092497
12	0xbcc87ab8	-0.02447258
13	0xbb9681ce	-0.0045931106
14	0x3dc05a00	0.09392166
15	0x3d83e512	0.06440176
16	0xbd1e454c	-0.038640305
17	0xbd967dc0	-0.07348204
18	0x3d0fb6e7	0.03508654
19	0x3d8f1789	0.06986911
20	0x3c96e9b6	0.018421989
21	0xba821352	-0.0009923971
22	0xbd43ce5e	-0.04780423
23	0xbd6efdf5	-0.05834766
24	0x3da6d742	0.08146526
25	0xbe33351e	-0.17500731
26	0xbd4bb918	-0.049737066
27	0xbdabaade	-0.083822
28	0x3d8edbc9	0.069755144
29	0x3e3c5664	0.1839233
30	0x3d88b509	0.06675155
31	0x3d8992b7	0.06717437
32	0x3d89ab66	0.06722145
33	0xbd221813	-0.03957374
34	0xbb0f9474	-0.0021908553
35	0x3d160795	0.036628325
36	0xbdc1ed4e	-0.094690904
37	0x3dac3295	0.08408085
38	0xbdbed687	-0.093182616
39	0x3d9e25a1	0.07722021
40	0xbda579fc	-0.08079907
41	0xbd7567d7	-0.059913483
42	0xbdce4519	-0.10071773
43	0xbc0d03c6	-0.008606857
44	0xbd9e1980	-0.077197075
45	0x3c7bda9d	0.015371946
46	0xbd82f38f	-0.06394111
47	0x3d5fb03e	0.054611437
48	0xbcb40c75	-0.021978596
49	0xbd81e97f	-0.06343364
50	0xbe0232dc	-0.12714714
51	0x3c94079d	0.018070037
52	0xbdf6c419	-0.120491214
53	0xbd7f5765	-0.062339205
54	0x3d37e0a6	0.044891976
55	0x3d1454e9	0.03621379
56	0xbdf41926	-0.11918859
57	0xbdfe1ba3	-0.12407615
58	0xbd9ac523	-0.07557132
59	0xbdb5854c	-0.08863315
60	0x3b370408	0.0027925987
61	0xbd4fefc9	-0.050765786
62	0x3ca3a1b7	0.019974573
63	0xbdd2c031	-0.10290564
64	0xbd50384a	-0.05083493
65	0xbdda59f3	-0.10661688
66	0x3d945309	0.072424
67	0xbd04595a	-0.032311775
68	0x3db040a8	0.08606082
69	0xbdb99fd5	-0.09063689
70	0x3da85667	0.08219605
71	0x3dfa63dc	0.12226078
72	0x3dca05f6	0.09864418
73	0xbdaf982c	-0.08573946
74	0xbae86744	-0.0017730971
75	0xbd0539bf	-0.032525774
76	0xbc356f50	-0.011073902
77	0xbd852db0	-0.06502855
78	0xbe31baeb	-0.1735646
79	0xbde6fbd4	-0.11278501
80	0xbd177ca9	-0.03698412
81	0xbe081e9a	-0.13292924
82	0xbe79e1a4	-0.24402481
83	0x3dd3ac6a	0.1033562
84	0xbdf95b12	-0.121755734
85	0xbdc250bd	-0.09488056
86	0x3d84e087	0.06488138
87	0x3d0e8620	0.03479588
88	0xbd4689ae	-0.048471145
89	0x3d6d2955	0.057900745
90	0xbdba65f9	-0.09101481
91	0xbdd6a667	-0.104809575
92	0x3d4216bc	0.047384962
93	0x3db0c832	0.08631934
94	0x3d257cfd	0.0404024
95	0x3d1e99ef	0.03872102
96	0xbd2faa3e	-0.042886965
97	0x3dc1102e	0.09426914
98	0x3d7b9b88	0.061427623
99	0x3d2bc763	0.041938197
100	0x3e38c305	0.18043144
101	0x3bb7c05b	0.0056076474
102	0xbc99b64f	-0.01876369
103	0xbc11b999	-0.008894348
104	0xbd49933c	-0.04921268
105	0x3cbc9cf7	0.023024065
106	0xbd32771c	-0.043570623
107	0x3d388df0	0.045057237
108	0x3b2a0e13	0.002594833
109	0xbdc16549	-0.09443147
110	0x3daf005e	0.08544992
111	0x3de0ec05	0.10982517
112	0xbda773a3	-0.08176353
113	0xbcbe1070	-0.023201197
114	0xbd4cf8f7	-0.05004212
115	0x3d5c2e1c	0.05375491
116	0x3d7209b7	0.059091296
117	0x3d26ba35	0.040704925
118	0xbe011d71	-0.12608887
119	0xbdfe3c1a	-0.12413807
120	0xbdeefaf4	-0.11668959
121	0x3d15c87f	0.03656816
122	0xbcc55a05	-0.024090776
123	0x3d02c169	0.03192273
124	0x3d1c74fd	0.038197506
125	0x3c8e131b	0.017343095
126	0xbdc9f457	-0.09861057
127	0x3d6370b3	0.0555274
128	0xbda5f98e	-0.081042394
129	0x3cbe0717	0.02319674
130	0x3c9a7c33	0.01885805
131	0xbc93af91	-0.018028053
132	0xbca40f1f	-0.020026742
133	0x3c5f0857	0.013612828
134	0xbd3eadf0	-0.0465526
135	0xbc54daaa	-0.012991587
136	0xbd158fbb	-0.036514025
137	0xba511418	-0.00079757115
138	0xbdb19d78	-0.08672613
139	0xbe2105a9	-0.15724815
140	0x3b057b3d	0.0020367645
141	0xbe1be0a8	-0.15222418
142	0x3b4d4e4f	0.0031327193
143	0xbde5aad5	-0.11214224
144	0x3dc93c41	0.09825946
145	0xbd9b86b1	-0.0759405
146	0x3cd9ef8a	0.026603479
147	0xbd3d02e0	-0.04614532
148	0xbc2dd2d0	-0.010609344
149	0xbe2998b1	-0.16562153
150	0x3d07c0fa	0.03314302
151	0x3d3ea652	0.046545334
152	0x3d86bf95	0.0657951
153	0x3e125576	0.14290413
154	0x3ddc74ca	0.10764463
155	0xbdcc842f	-0.099861495
156	0x3e210013	0.15722685
157	0x3e2f5f79	0.17126264
158	0x3c751db6	0.014960697
159	0x3e1c8c07	0.15287791
160	0x3df1f237	0.11813777
161	0xbd901414	-0.070350796
162	0xbda7694b	-0.0817438
163	0xbccb4306	-0.024812233
164	0xbd3a8691	-0.04553849
165	0xbd955483	-0.0729151
166	0xbd322861	-0.04349554
167	0x3c415034	0.011798907
168	0x3dd19208	0.102329314
169	0xbded32f1	-0.11581982
170	0xbd25e27c	-0.040499195
171	0x3c022ed1	0.007945732
172	0xbd7730c7	-0.060349252
173	0xbdc22028	-0.094787896
174	0x3c9041b4	0.017609455
175	0xbe15b303	-0.14619069
176	0xbccf6e37	-0.02532111
177	0x3d4d406c	0.050110266
178	0xbd89fe0d	-0.067379095
179	0xbd8afa87	-0.067860655
180	0xbce0b8fa	-0.027431954
181	0xbd661244	-0.056169763
182	0xbdf77fd3	-0.120849274
183	0xbd554f8b	-0.05207781
184	0x3a61af4c	0.000860919
185	0x3d4de1df	0.050264236
186	0xbbaae6ce	-0.0052155023
187	0xbc5f60af	-0.013633891
188	0x3b23c170	0.0024987124
189	0x3e2474ec	0.16060227
190	0xbc88b539	-0.016687976
191	0xbdf32ab3	-0.118733786
192	0x3dd992f7	0.106237344
193	0xbb517ed9	-0.0031966476
194	0xbda11113	-0.07864585
195	0xbd268132	-0.040650554
196	0x3d808316	0.06275003
197	0x3d640f13	0.05567844
198	0x3e14dc76	0.14537224
199	0xbc50c0cc	-0.012741279
200	0x3e073348	0.13203156
201	0xbd5a8d22	-0.05335725
202	0xbd8769eb	-0.06611999
203	0xbdfb9187	-0.122836165
204	0x3d5e1e57	0.054228153
205	0x3cb41da9	0.0219868
206	0x3d8c0bc5	0.06838182
207	0xbd2073ba	-0.039172865
208	0xbb290bdb	-0.002579442
209	0x3dfff2eb	0.12497505
210	0x3d2bba3d	0.041925658
211	0xbe65fa9d	-0.22458883
212	0x3cb0b1e8	0.021569207
213	0xbdc33c91	-0.095330365
214	0x3d1c9ab1	0.038233463
215	0x3cd2f07c	0.025749438
216	0xbcef19cc	-0.029187106
217	0xbd7a865d	-0.061163295
218	0x3da879d7	0.08226364
219	0xbe2d2af7	-0.16910921
220	0xbda26f9c	-0.07931444
221	0xbcb24f93	-0.02176646
222	0x3cd46099	0.025924968
223	0x3d47b48f	0.04875618
224	0xbd3878b9	-0.045037005
225	0x3ccdeb7d	0.025136704
226	0xbb7949da	-0.0038038404
227	0x3d55fc22	0.052242406
228	0xbda0d7fb	-0.07853695
229	0xbc8dc0bf	-0.017303823
230	0xbd0c67e3	-0.03427876
231	0x3cbe3120	0.023216784
232	0xbd22a7cf	-0.039710816
233	0x3d869abe	0.065724835
234	0x3d15353a	0.036427714
235	0xbdc268aa	-0.09492619
236	0x3e14fe79	0.14550199
237	0x3dbf222f	0.09332692
238	0x3d3def2d	0.046370674
239	0xbd5461f0	-0.051851213
240	0xbe21d19a	-0.15802613
241	0x3daa9e25	0.08330945
242	0x3dc39cc7	0.09551387
243	0x3d8a3a3e	0.0674939
244	0xbd42c331	-0.04754943
245	0xbc1bf653	-0.0095191775
246	0xbd564848	-0.052315027
247	0x3cd5aff5	0.02608488
248	0x3dae2326	0.08502798
249	0xbd2529e1	-0.040323142
250	0x3dca406f	0.09875571
251	0x3e182b01	0.14860155
252	0x3ae87489	0.0017734925
253	0xbad86148	-0.0016508484
254	0xbce06a5f	-0.027394472
255	0x3d57ccd0	0.05268556
