final_presentation/final_results/shallow/interval1/7000/2021-10-14_02-13-47/checkpoints/best_model_1_trial_38_validation_acc=0.8140.pt (torch, 359119 bytes, 6 tensors)

conv_time.weight f4 [20, 62, 70, 1]
0.012242097 -0.010026094 -0.024759015 0.0024402977 -0.007553766 0.03578373 0.009595518 0.03542529
-0.0107872095 -0.010357861 -0.015705412 0.0056621493 0.022290237 0.025773833 -0.0015394711 -0.013260445
0.016294753 -0.018712927 -0.018114261 -0.018571887 -0.004529153 -0.032714874 -0.02952109 -0.024610003
-0.029958108 -0.017196031 0.020551682 0.021867244 0.021407666 0.009617491 -0.01578079 0.026124502
0.02478545 0.01849284 -0.0074207527 0.022669852 -0.026533283 0.00567934 0.014650897 0.03368771
-0.009157734 -0.009018678 -0.017068349 -0.019132668 0.021571893 0.0110516595 0.026966069 0.025067598
-0.020874495 -0.022088474 -0.011408531 0.016829414 -0.015447971 0.015182602 -0.014374083 0.014933088
-0.015188429 -0.019903697 -0.009380947 -0.031449854 0.007789261 -0.024793971 0.010906997 -0.03154888
-0.008893271 -0.0076977694 0.019161085 -0.024535758 0.011669881 0.029273393 -0.0038886676 0.0150371995
0.0032849682 0.017556943 -0.017540595 0.0221644 -0.017844435 -0.031733908 -0.0034183878 0.02341677
0.006902353 0.009938536 0.014179373 0.0019104071 0.015728468 0.0126896985 0.016813742 -0.03131307
-0.025528695 -0.0086580245 0.00600451 0.016238078 -0.042367864 -0.014588697 -0.0041491045 0.005243266
-0.033126295 -0.005710441 -0.015817976 -0.0040569915 -0.0040903073 -0.00065938866 -0.01719371 0.019259904
-0.021029966 -0.021427331 0.027545957 -0.007402513 0.015547669 0.005113582 0.012670163 0.004041072
0.024010433 -0.016767276 0.0003049199 0.013179756 0.032896835 0.019113328 -0.015866498 -0.0104140965
0.030000336 -0.027508993 -0.010380241 0.018833274 -0.014972196 0.019193357 0.00028168468 0.02921558
-0.0013030581 0.03151891 -0.004739297 0.027931107 -0.011296954 -0.020496665 -0.008801737 -0.0007006488
0.008551528 0.0014063355 -0.0005705854 -0.012042308 -0.020076444 -0.019053543 -0.013213643 0.014750806
-0.014983218 -0.02786511 0.028047256 0.011906519 0.016175782 0.00074858434 0.016127236 -0.0058295075
-0.022669347 0.019993199 -0.04003004 0.0030953095 0.01534611 -0.0124537945 0.004157942 -0.009945254
0.011372705 0.008876829 0.011635793 -0.033001434 -0.039360277 -0.040459435 0.011298271 -0.041232444
0.011880742 -0.025104985 0.0043030726 0.0010213375 -0.029884707 0.018243711 0.0045895646 0.0031982197
-0.01565396 0.0014256753 -0.025586763 0.009488377 0.02439003 0.008078522 -0.011394627 0.009502746
0.014236204 -0.008009623 -0.023482103 -0.014021899 -0.0019015082 -0.012481024 0.024742194 0.010928395
0.0035834333 0.030040536 -0.020740015 0.027920477 -0.01235189 0.025641102 0.028818175 0.00028308455
0.009207434 0.031451985 0.026183488 -0.021741945 -0.023133416 0.028881954 0.02425773 -0.00046509897
-0.016474426 -0.014110175 -0.01091285 -0.015372843 0.00055508583 -0.010330809 0.026580542 0.010990741
-0.0031982074 -0.024598835 0.02130138 -0.026256392 0.01595078 -0.029661829 -0.02968398 -0.03904102
0.0043648337 -0.028182372 -0.004823498 0.018736662 0.007727015 -0.041776553 -0.032958005 -0.015625548
-0.043272424 -0.03077551 -0.021475911 -0.013179543 -0.0065042237 0.012297142 -0.023688512 -0.007129942
0.010012108 -0.027951157 -0.022616317 -0.033300463 -0.026850097 -0.0037686636 -0.030589422 -0.042944927
-0.018543698 -0.0072194957 -0.020394502 0.022747718 0.01048516 0.02156245 -0.031526692 -0.0011613381
00000000: 1493 483c 7c44 24bc 6bd3 cabc 67ed 1f3b
00000010: 9585 f7bb f691 123d 8536 1d3c 1c1a 113d
00000020: d6bc 30bc 05b4 29bc a3a8 80bc 8d89 b93b
00000030: 049a b63c a523 d33c 14c8 c9ba 5642 59bc
00000040: 937c 853c da4b 99bc 5c64 94bc 1224 98bc
00000050: 4a69 94bb 0800 06bd 37d6 f1bc eb9a c9bc
00000060: b56a f5bc b1de 8cbc 005c a83c ef22 b33c
00000070: 215f af3c ae92 1d3c b746 81bc 0d03 d63c
00000080: db0a cb3c 4c7e 973c c929 f3bb 20b6 b93c
00000090: 545c d9bc c219 ba3b 510a 703c 20fc 093d
000000a0: 520a 16bc 14c3 13bc ecd2 8bbc 1dbc 9cbc
000000b0: 8ab7 b03c 0512 353c f2e7 dc3c 905a cd3c
000000c0: fd00 abbc e3f2 b4bc d9ea 3abc d7dd 893c
000000d0: 7d19 7dbc 73c0 783c 4681 6bbc e9a9 743c
000000e0: e3d8 78bc 140d a3bc 8bb2 19bc 90d1 00bd
000000f0: 0f3d ff3b ba1c cbbc 43b3 323c 6639 01bd
00000100: 15b5 11bc 923d fcbb b5f7 9c3c 37ff c8bc
00000110: 0733 3f3c c1ce ef3c 04d9 7ebb 965e 763c
00000120: 9f48 573b 94d3 8f3c 4bb1 8fbc 1e92 b53c
00000130: 7e2e 92bc 6afb 01bd 0807 60bb 87d4 bf3c
00000140: 222d e23b 3ed5 223c 9a50 683c a066 fa3a
00000150: fdd8 803c 74e8 4f3c f9bc 893c 2242 00bd
00000160: 8e21 d1bc 63da 0dbc 7bc1 c43b b805 853c
00000170: ed89 2dbd 6e05 6fbc 36f5 87bb b4cf ab3b
00000180: 70af 07bd a71e bbbb b394 81bc 83f0 84bb
00000190: fc07 86bb d3da 2cba d3d9 8cbc f2c6 9d3c
000001a0: 0947 acbc 5f88 afbc 0fa8 e13c c890 f2bb
000001b0: a6bb 7e3c d68f a73b 8496 4f3c f86a 843b
000001c0: 87b1 c43c 875b 89bc a8dd 9f39 e7ef 573c
000001d0: d5be 063d 8e93 9c3c 75fa 81bc e39f 2abc
000001e0: 44c3 f53c 8a5a e1bc e311 2abc 3d48 9a3c
000001f0: f14d 75bc 633b 9d3c 14af 9339 8355 ef3c
00000200: 60cb aaba f919 013d 1b4c 9bbb c7cf e43c
00000210: dc16 39bc 9fe8 a7bc 2935 10bc bfab 37ba
00000220: b51b 0c3c ca54 b83a 5793 15ba 1a4d 45bc
00000230: 5b77 a4bc 2d16 9cbc 097e 58bc 5dad 713c
00000240: 2c7c 75bc 5f45 e4bc 5cc3 e53c 8f13 433c
00000250: 1383 843c a53c 443a 441d 843c 7405 bfbb
00000260: 11b5 b9bc c7c8 a33c 8af6 23bd adda 4a3b
00000270: 406e 7b3c 000b 4cbc 583f 883b 6bf1 22bc
00000280: 9554 3a3c 1f70 113c 0ea4 3e3c 832c 07bd
00000290: 3e38 21bd cbb8 25bd 621c 393c 5ae3 28bd
000002a0: 72a7 423c f8a8 cdbc ca00 8d3b 66de 853a
000002b0: c6d0 f4bc d673 953c 0f64 963b 3999 513b
000002c0: bc3c 80bc badd ba3a 559b d1bc 2375 1b3c
000002d0: 9acd c73c c75b 043c 88b0 3abc 68b1 1b3c
000002e0: f83e 693c cb3a 03bc 8a5d c0bc 1bbc 65bc
000002f0: 073c f9ba 357d 4cbc 24b0 ca3c 030d 333c
00000300: 09d8 6a3b 9217 f63c f7e6 a9bc 7cb9 e43c
00000310: 955f 4abc 4a0d d23c 1814 ec3c f76a 9439
00000320: c7da 163c ccd3 003d c17e d63c 2a1c b2bc
00000330: 4a82 bdbc d999 ec3c 26b8 c63c 87d8 f3b9
00000340: 60f5 86bc 5d2e 67bc cfcb 32bc 60de 7bbc
00000350: 2e83 113a 8e42 29bc 70bf d93c 8212 343c
00000360: 0499 51bb 7f83 c9bc 3b80 ae3c a517 d7bc
00000370: 36ab 823c 5dfd f2bc d12b f3bc 7ae9 1fbd
00000380: e106 8f3b b8de e6bc 6f0e 9ebb a17d 993c
00000390: e632 fd3b e41d 2bbd f9fe 06bd 2601 80bc
000003a0: 6d3e 31bd ec1c fcbc 40ee afbc 03ef 57bc
000003b0: 6221 d5bb f479 493c 690e c2bc 4aa2 e9bb
000003c0: d309 243c d3f9 e4bc db45 b9bc 1166 08bd
000003d0: bcf4 dbbc affb 76bb ab96 fabc 05e7 2fbd
000003e0: f4e8 97bc 8591 ecbb 5f12 a7bc 6c59 ba3c
000003f0: f3c9 2b3c bca3 b03c 2222 01bd 0a38 98ba

bnorm.weight f4 [20]
1.3909296 1.2615008 1.5882039 1.4378995 0.4561482 1.352392 1.1597043 1.436224
1.2490977 0.3211002 1.4526635 1.4780353 1.4699012 1.4719383 1.5676844 1.3644626
1.1812172 1.5148448 1.5010879 1.5344656
00000000: fb09 b23f dc78 a13f 444a cb3f 170d b83f
00000010: 428c e93e 2e1b ad3f 3171 943f 30d6 b73f
00000020: 6fe2 9f3f 3f67 a43e e1f0 b93f 4330 bd3f
00000030: b925 bc3f 7968 bc3f e2a9 c83f b6a6 ae3f
00000040: 2032 973f 6fe6 c13f a623 c03f 5e69 c43f

bnorm.bias f4 [20]
-0.47773948 0.49682343 0.08548486 -0.002732662 1.2246333 0.47541857 -0.9534242 0.52314824
-0.3611299 1.145934 -0.44748306 -0.24416271 0.05293944 -0.462796 0.083873816 0.5746106
0.79960483 0.19283326 -0.54505605 0.11739808
00000000: 459a f4be a45f fe3e b012 af3d 7616 33bb
00000010: c9c0 9c3f 106a f33e 9c13 74bf 0bed 053f
00000020: 05e6 b8be f7ad 923f 801c e5be ca05 7abe
00000030: 07d7 583d 99f3 ecbe 09c6 ab3d ae19 133f
00000040: e7b2 4c3f 1576 453e cb88 0bbf 686e f03d

bnorm.running_mean f4 [20]
-20.96424 -12.188182 -2.1641216 1.8689312 4.4779124 -6.519822 -5.3888674 -16.069601
-16.558907 5.2723975 9.900052 15.887314 20.450352 21.289679 -29.005272 20.525446
-7.4730706 -9.70667 12.921042 -16.476273
00000000: c3b6 a7c1 cb02 43c1 f880 0ac0 2339 ef3f
00000010: 0f4b 8f40 62a2 d0c0 9a71 acc0 8b8e 80c1
00000020: a478 84c1 7bb7 a840 9d66 1e41 7032 7e41
00000030: 529a a341 4351 aa41 cc0a e8c1 1d34 a441
00000040: 6523 efc0 854e 1bc1 97bc 4e41 68cf 83c1

bnorm.running_var f4 [20]
15.43562 6.504316 16.792538 10.668503 27.38347 11.019484 19.111141 11.455032
12.190888 25.918842 15.82162 8.319267 15.4347725 18.074549 28.544323 19.514568
15.6960535 6.369036 10.31365 14.85289
00000000: 4df8 7641 5b23 d040 1e57 8641 30b2 2a41
00000010: 5911 db41 ce4f 3041 9ee3 9841 d047 3741
00000020: e10d 4341 ca59 cf41 5b25 7d41 b81b 0541
00000030: d4f4 7641 ad98 9041 c65a e441 d61d 9c41
00000040: 0923 7b41 25cf cb40 b604 2541 70a5 6d41

conv_classifier.weight f4 [1, 20, 109, 1]
-1.5931683e-06 -0.09565749 0.004579097 0.026963016 0.024397505 -0.0033009157 0.07667362 0.07877855
-0.006340046 -0.06529785 0.053637724 0.033820193 0.03883287 -0.024777777 -0.066288404 -0.10342187
0.029904582 -0.04044434 -0.13633566 0.054198083 0.1598545 0.11220315 0.043098595 -0.119553134
0.04901139 -0.033567607 0.036940094 0.010439794 0.062473666 0.053761955 0.061389625 0.088433
-0.05434006 0.07967734 0.05091676 0.118138485 0.06803749 -0.044736594 0.0238473 -0.12888753
0.054367572 -0.03596159 -0.011214795 0.0009182883 0.10727158 -0.03253535 0.07299873 -0.020826414
0.06690383 0.007132932 -0.1288476 -0.028841006 -0.079977706 -0.028542992 -0.12264116 -0.050459594
0.05264043 -0.032642007 0.094876684 0.07900037 -0.024154756 -0.028772216 0.06575631 0.043121073
0.0020003137 0.060644664 0.09767098 0.008350012 -0.005318886 0.025465464 -0.08290661 0.04080033
-0.0041953274 0.0748279 -0.037079375 -0.061207738 0.003566611 0.045956567 -0.059960246 0.09952434
-0.08589233 0.13111128 -0.13307844 -0.048571013 -0.025824334 -0.1043943 0.054529138 -0.09179341
0.018757934 -0.031079054 -0.06598034 0.11568938 0.0010997275 0.008595349 -0.10256137 0.06213487
0.015845189 0.055879362 0.031605802 0.104292415 -0.051969558 0.04201915 0.026631784 -0.107955955
-0.05921514 0.0019390669 -0.04460168 -0.103599906 -0.012750213 -0.033818446 -0.0019681863 0.084192485
-0.053631004 0.07072923 0.0061670938 0.039302688 0.12867886 0.06719506 0.09223386 0.00075860857
0.011233968 -0.080553874 0.0021975192 -0.058112893 -0.06370357 -0.09834265 -0.034117866 -0.024602527
0.05909465 -0.09322365 0.07580197 0.020531911 -0.04742171 -0.026472323 -0.02154774 -0.09771778
-0.0897411 0.021782896 0.12236118 0.040496845 -0.02840442 0.008091827 0.06013314 -0.009813261
0.13442904 -0.14776586 0.066313416 0.10913015 -0.014238654 0.12808736 -0.04964457 -0.043158006
-0.011116548 0.043306008 0.036352176 0.014352108 0.061514582 0.108040355 -0.08859503 -0.01846297
0.07125039 0.010936995 -0.006601418 -0.08101054 0.07582902 0.02162109 0.03477954 0.009414332
-0.029439818 -0.04583744 -0.041931015 0.0050198887 -0.02643177 0.00488958 0.035482503 0.06792005
-0.008503932 -0.046641443 0.0013904959 -0.019710528 0.032879498 -0.11271995 0.02333382 0.0007458688
-0.008881304 -0.12398742 0.019091897 -0.053050775 -0.031042209 0.09640612 0.09979544 0.011787922
0.05861954 -0.04505345 -0.020996658 0.14824568 -0.034841124 0.0704267 -0.009868501 -0.022574862
-0.058775418 0.035385072 0.14049816 0.03829643 0.07157645 -0.021862088 -0.08332524 -0.020502131
0.08607953 -0.057703108 -0.0040810667 -0.107227355 -0.025989339 0.09015723 0.07253291 0.023312123
0.04454328 0.041229233 -0.041676108 -0.057191905 -0.112532854 0.050959267 0.07153682 0.16231668
-0.0089680385 0.059212025 0.06409547 0.0052728676 0.18620442 0.0150605785 -0.009643964 0.050123874
0.03412067 0.114806056 -0.0009395815 0.01787596 -0.017320774 0.110274136 -0.017714765 0.09903275
0.015066482 -0.035060648 -0.046684135 -0.025968911 -0.061852675 -0.009055763 -0.036081783 -0.067496955
-0.043778565 0.062276497 0.059637323 -0.0029066794 -0.12228462 -0.09746387 -0.12575133 -0.03083408
00000000: d9d4 d5b5 13e8 c3bd 400c 963b 8be1 dc3c
00000010: 47dd c73c 2d54 58bb 0f07 9d3d a656 a13d
00000020: 29c0 cfbb e1ba 85bd 3bb3 5b3d 0b87 0a3d
00000030: 370f 1f3d c4fa cabc 37c2 87bd d8ce d3bd
00000040: 74fa f43c f7a8 25bd 939b 0bbe cffe 5d3d
00000050: e6b0 233e c4ca e53d 2788 303d 46d8 f4bd
00000060: 2bc0 483d 307e 09bd 7f4e 173d ab0b 2b3c
00000070: 63e4 7f3d 7f35 5c3d b073 7b3d 5c1c b53d
00000080: af93 5ebd e02d a33d 188e 503d 97f2 f13d
00000090: 3d57 8b3d b83d 37bd 6a5b c33c 18fb 03be
000000a0: 88b0 5e3d 764c 13bd 42be 37bc 49b9 703a
000000b0: 34b1 db3d ca43 05bd 5c80 953d 289c aabc
000000c0: e004 893d 5fbb e93b a0f0 03be f943 ecbc
000000d0: 5acb a3bd fed2 e9bc 4a2b fbbd b8ae 4ebd
000000e0: 7e9d 573d a0b3 05bd b54e c23d f2ca a13d
000000f0: 32e0 c5bc b6b3 ebbc 3fab 863d b99f 303d
00000100: b217 033b 8a66 783d b907 c83d 7dce 083c
00000110: 0d4a aebb f39c d03c f1ca a9bd 3f1e 273d
00000120: f578 89bb 5f3f 993d 8be0 17bd f7b4 7abd
00000130: cebd 693b f43c 3c3d e098 75bd 6bd3 cb3d
00000140: 51e8 afbd 0942 063e b745 08be 66f2 46bd
00000150: 8e8d d3bc aecc d5bd f259 5f3d 2ffe bbbd
00000160: 3daa 993c 8099 febc b320 87bd 8eee ec3d
00000170: bb24 903a 82d3 0c3c b20b d2bd 2281 7e3d
00000180: c5cd 813c c2e1 643d 1675 013d 4397 d53d
00000190: 08de 54bd 461c 2c3d e62a da3c 0318 ddbd
000001a0: 938b 72bd 4a28 fe3a 40b0 36bd 302c d4bd
000001b0: 45e6 50bc 3685 0abd b0fc 00bb 1c6d ac3d
000001c0: 2fac 5bbd 7dda 903d 5515 ca3b dbfb 203d
000001d0: 64c4 033e 909d 893d 1be5 bc3d 5cdd 463a
000001e0: ad0e 383c 6ef9 a4bd 4104 103b c907 6ebd
000001f0: 0477 82bd df67 c9bd 2dbf 0bbd 3d8b c9bc
00000200: 3b0d 723d 0aec bebd 103e 9b3d 8a32 a83c
00000210: 443d 42bd 7cdc d8bc e384 b0bc 4220 c8bd
00000220: 2fca b7bd 0b72 b23c 8098 fa3d 05e0 253d
00000230: 63b0 e8bc 9593 043c 2b4e 763d cdc7 20bc
00000240: c4a7 093e ef4f 17be 54cf 873d a17f df3d
00000250: 3e49 69bc 5529 033e 1b58 4bbd 73c6 30bd
00000260: 2f22 36bc a461 313d 05e6 143d 1b25 6b3c
00000270: b7f6 7b3d 4344 dd3d 5071 b5bd a83f 97bc
00000280: b9eb 913d 1531 333c b550 d8bb dbe8 a5bd
00000290: 3f4c 9b3d b61e b13c fe74 0e3d 923e 1a3c
000002a0: c62b f1bc 0ac0 3bbd dbbf 2bbd e17d a43b
000002b0: 7087 d8bc c538 a03b 1a56 113d ab19 8b3d
000002c0: 1354 0bbc 190b 3fbd 4d41 b63a f977 a1bc
000002d0: a7ac 063d b8d9 e6bd 9126 bf3c 6886 433a
000002e0: e482 11bc 1eed fdbd 9c66 9c3c c54b 59bd
000002f0: 3b4c febc 9270 c53d 8d61 cc3d 2122 413c
00000300: 0b1b 703d f789 38bd 2f01 acbc b7cd 173e
00000310: 91b5 0ebd e03b 903d 7eaf 21bc ebee b8bc
00000320: 7ebe 70bd f0ef 103d c0de 0f3e b8dc 1c3d
00000330: ac96 923d 1f18 b3bc 6ca6 aabd 16f4 a7bc
00000340: 774a b03d 185a 6cbd 78ba 85bb 049a dbbd
00000350: 98e7 d4bc 5ba4 b83d 228c 943d 11f9 be3c
00000360: 0473 363d fcdf 283d 91b4 2abd 0f42 6abd
00000370: a077 e6bd aaba 503d e581 923d 5836 263e
00000380: aeee 12bc 4f88 723d 7c44 833d 05c8 ac3b
00000390: 5fac 3e3e a5c0 763c b701 1ebc b14e 4d3d
000003a0: 1ec2 0b3d 701f eb3d 3f4e 76ba 9b70 923c
000003b0: 4ce4 8dbc 68d7 e13d 8e1e 91bc afd1 ca3d
000003c0: 68d9 763c c19b 0fbd dd37 3fbd c1bc d4bc
000003d0: 3b59 7dbd 9f5e 14bc 7eca 13bd d83b 8abd
000003e0: 2751 33bd a415 7f3d 4446 743d fd7d 3ebb
000003f0: 5c70 fabd 239b c7bd f5c4 00be c197 fcbc
