final_presentation/final_results/shallow/interval1/7000/2021-10-14_02-13-47/checkpoints/best_model_1_trial_34_validation_acc=0.7448.pt (torch, 691039 bytes, 3 tensors)

conv_time.weight f4 [30, 62, 90, 1]
000000 f4 f6 cf bc 45 9f 00 bb ec 0c 94 bc e6 d8 f4 3b
       -0.025386311 -0.0019626182 -0.018072568 0.0074721454
000010 7b 66 02 3c a4 6c c3 3c e2 36 ed 3b 04 72 7d bc
       0.007959004 0.023855515 0.0072392086 -0.015469078
000020 ea ac a1 3c d7 c7 8e 3b c9 3f 57 3c ea e8 2d bc
       0.019735772 0.004357319 0.013137766 -0.010614613
000030 b2 cc 55 bb f7 96 54 3c 3f 67 97 bb 07 8d 6f 3c
       -0.0032623229 0.012975446 -0.004620462 0.014621026
000040 4e 30 3a 38 a0 13 95 bb 14 da 12 3c 96 35 ab bc
       4.4390843e-05 -0.0045494586 0.008963127 -0.020899575
000050 83 d2 da 3b 40 86 b7 bb 2b 40 c4 bc 41 cb 73 bb
       0.006677927 -0.0056007206 -0.023956379 -0.0037200006
000060 6f 21 db 3c d0 65 bd 3b 57 3b 6f 3b e8 82 6b bc
       0.02674934 0.0057799593 0.0036503875 -0.014374472
000070 0d 0e bf bb be b8 75 bc f0 d8 79 bc ae 37 87 bc
       -0.0058305324 -0.014997659 -0.015249476 -0.016506042
000080 25 ad ca bc b9 67 77 bc de 8a 01 3c 60 34 3b bc
       -0.024740765 -0.015100413 0.007906644 -0.011426061
000090 34 fa 9c bc 98 c5 24 bb 40 8d ce 3b 1f 5a c4 3b
       -0.019162275 -0.002514219 0.0063034594 0.0059921886
0000a0 d2 54 cf 3c 0e df 56 3b ce ee 5a 3c 55 30 93 bc
       0.025309 0.003278676 0.0133626 -0.017967382
0000b0 a6 41 ff 3a df 91 5f 3c a1 b8 5c 3a 7b 8b 59 3c
       0.0019474521 0.013645618 0.0008419846 0.013277884
0000c0 41 32 17 3c af 46 df 3b b6 b9 0b ba b3 a2 8a 3c
       0.00922829 0.006813846 -0.0005330102 0.016923284
0000d0 9b db a1 3c ec 13 bf bc b2 7b e6 3c 55 c0 96 3c
       0.019758036 -0.02332493 0.028135154 0.018402258
0000e0 07 2a ce bc e7 6d 45 bc 43 b9 43 bc 1f e3 5a bc
       -0.025166525 -0.012050129 -0.011946025 -0.013359814
0000f0 22 a3 93 3b 0e df 5a 3c 02 a3 e0 3c 61 4d 04 bc
       0.004505531 0.013358844 0.027421478 -0.008075089
000100 70 fe b5 ba 2f 4e b8 3c eb 14 24 bc 0e 2c 03 3c
       -0.0013885032 0.022498218 -0.010014753 0.008006109
000110 2e 5c c1 3b 36 6c b9 3c 02 a6 c1 3c 39 b4 d6 3c
       0.0059008813 0.022634607 0.023638729 0.026208984
000120 63 4d 84 ba 1d f4 6a 3b 75 73 c0 3b a7 81 ca 3b
       -0.0010093864 0.003585107 0.0058731386 0.0061800065
000130 df f4 b0 3c 2a 52 87 3c 27 f2 14 3c fc 10 5a bb
       0.021601139 0.016518671 0.009090937 -0.0033274284
000140 e6 64 c6 bc b4 f6 af 3c 9f 4e 74 bc 36 29 bc bc
       -0.024218034 0.021479942 -0.014911323 -0.02296887
000150 18 43 64 3c 76 5b bb 3c 8f 29 5d 3c a1 7b e7 3a
       0.013932012 0.02287076 0.013498678 0.0017660746
000160 dc 76 3e 3a 5e e8 e2 ba 02 2d d0 bc 34 73 c3 3c
       0.0007265636 -0.0017311682 -0.025412086 0.023858644
000170 21 af ed 3b b1 c1 69 3c 80 6a 9d 3c 4a f1 1e 3c
       0.007253543 0.014267371 0.019215822 0.0097010825
000180 8c 62 9b bc 56 02 51 3c 03 1f 96 bb a2 16 82 bc
       -0.01896789 0.012756905 -0.0045813336 -0.015879933
000190 ad a7 d3 3c 27 b6 8c 3c 76 2c a8 3c 42 2d 60 bc
       0.02583679 0.0171767 0.020529013 -0.013682665
0001a0 4b f5 a6 ba 3f 89 48 bc 9f 48 30 3c a2 1c 0b bc
       -0.0012737898 -0.012239753 0.010759502 -0.008490713
0001b0 dc fe 88 bc b8 12 d1 bb fc 74 18 bc e7 d3 27 3c
       -0.016723089 -0.0063804053 -0.009305235 0.010243393
0001c0 0a da 8a 3c 8f ff 21 bc 75 98 9f 3c ef 21 41 3c
       0.016949672 -0.00988759 0.019481877 0.011787876
0001d0 05 1b 9b 3c bf 02 8b 3c e4 61 87 bc 2b 32 bc 3c
       0.018933782 0.016969083 -0.01652617 0.02297314
0001e0 34 d0 c6 bc 45 3b 36 bc f4 eb f0 3a be dd 57 bc
       -0.0242692 -0.011122529 0.0018380866 -0.013175426
0001f0 c6 d0 3f 3c 84 00 24 bc d8 cc 81 3c 86 80 4c bb
       0.01170749 -0.010009889 0.015844747 -0.0031204536
000200 57 4f bc bb 92 61 dc 3b b1 5a 0b 3b 4c 27 c1 bc
       -0.0057467627 0.0067254985 0.0021263773 -0.023578309
000210 f0 49 93 3c 84 ca 8c 3c 3b 2b 9c 3c 3a 81 95 3a
       0.017979592 0.01718641 0.019063583 0.001140631
000220 1d c2 96 3c 91 92 95 bc 81 b9 41 3c bf 43 ba bc
       0.018403107 -0.018258365 0.011824013 -0.022737382
000230 44 fd cf bc 4e c9 c9 bc f3 88 da 3c 34 2d c9 3c
       -0.025389321 -0.024632122 0.02667663 0.024557687
000240 f1 df 6a 3c 93 f7 7f 3c 7b 1a 03 3c 3c 44 2a 3c
       0.014335618 0.015622991 0.008001919 0.010392245
000250 bd 01 db 3b f4 09 ef bb a9 41 81 3c 1d ea b5 3c
       0.006683557 -0.0072948877 0.01577838 0.02220636
000260 ac 9b 6d 3c 04 c7 78 3c 08 86 b0 3c 23 cc 96 3b
       0.014502447 0.015184168 0.021548286 0.0046019717
000270 95 4d dd bc 0a e7 9b bc 46 a7 2a 3b 3a 3e 94 3c
       -0.027014533 -0.019031066 0.0026039644 0.018096078
000280 7d 9d 1e bc de 94 65 bc f4 62 6d bc 54 42 1f bc
       -0.009681103 -0.0140125435 -0.014488924 -0.009720404
000290 3a 5b cc 3c 8f a1 bb 3c b9 10 a9 3c 95 6c 6b 3b
       0.024945844 0.022904186 0.020637857 0.0035922874
0002a0 7a 00 de 3b 54 4e d5 bc a1 31 9f bc 27 fe 1e 3c
       0.006774959 -0.026038326 -0.019432845 0.009704149
0002b0 ab ae d4 3c 08 a1 ad 3c de 55 86 39 b8 d1 52 3c
       0.025962194 0.02119495 0.00025622448 0.012867384
0002c0 55 20 f1 bb 42 8c a9 3b 00 4c 57 bc 51 57 07 bc
       -0.0073585906 0.0051741907 -0.013140678 -0.008260564
0002d0 bd 6d bf 3c 4a 41 a6 3c e6 cd 28 3c ee cf 7c 3c
       0.023367757 0.020294804 0.010302996 0.015430434
0002e0 19 a2 0e bc dd 13 2f 3c b6 c5 65 3b 58 40 91 bc
       -0.008705639 0.010685888 0.0035060472 -0.017730877
0002f0 36 f4 7d 3c 07 99 55 3c 3d f5 83 bc b5 86 c7 3c
       0.015500119 0.013036973 -0.01610815 0.024356226
000300 24 3c 92 bb 99 df 82 bc 38 a6 4c 3c 9b 43 13 3c
       -0.0044627357 -0.01597576 0.0124908015 0.008988286
000310 7d 94 0b bc 24 40 eb 3b d3 18 9d bb b4 e2 b4 3a
       -0.008519289 0.007179277 -0.004794219 0.0013800473
000320 db a8 4e bc bf f7 37 bc a6 5c b0 3c 23 fe b0 ba
       -0.0126135005 -0.011228501 0.021528553 -0.0013503473
000330 a6 d8 ce bb 56 5b 01 3b 0f 59 bf 3c 06 4e 88 3c
       -0.0063124476 0.0019738278 0.023357896 0.016638767
000340 76 19 13 bc 99 cb 1f bc 61 9b e0 bb b6 d4 a1 ba
       -0.008978238 -0.009753131 -0.00685446 -0.0012346718
000350 1c 3e 74 3c db e6 ab bc 95 85 66 ba 92 02 97 bc
       0.014907386 -0.020984104 -0.0008793709 -0.018433843
000360 18 6c 6b 3b fa b2 ba bb af b9 51 bb 0f 22 4b 3c
       0.0035922583 -0.005697605 -0.0032001545 0.012398257
000370 63 53 bc bb d6 a3 ed 3b 06 bd a9 bc 83 9d 50 bc
       -0.005747245 0.007252197 -0.020720016 -0.012732866
000380 e3 f9 29 3c 50 a2 b2 3c 83 43 78 3c 93 26 7c bc
       0.010374519 0.021805912 0.015152815 -0.015390056
000390 7e 0a ed bb a1 d3 cb 3b dc 44 67 bc 71 96 87 3c
       -0.007233917 0.0062202965 -0.014115538 0.016551228
0003a0 85 bf 63 bc 1c eb a0 ba 5c 62 15 3c 27 4e 56 3c
       -0.013900642 -0.0012277099 0.009117689 0.013080156
0003b0 1a 8f 98 3c 90 26 4a bc d6 c3 44 bc e6 84 a1 bc
       0.018622924 -0.012338296 -0.012009582 -0.019716691
0003c0 32 55 b0 ba 3b 82 62 3c ca c9 0b bc 2f 0d d9 bc
       -0.0013453125 0.013824995 -0.008531997 -0.026495544
0003d0 79 3b 66 3b 08 19 bf 3c 4a 63 5a 3c 49 28 c5 bc
       0.0035130663 0.023327366 0.013329336 -0.024067061
0003e0 95 d4 7a bb 31 02 7a 3c 08 0b 18 bc 3f 73 23 3c
       -0.0038273681 0.015259312 -0.009279974 0.009976207
0003f0 e6 6a 06 3c 3f c0 d5 bb 81 a9 c6 3c fe a7 2b bc
       0.0082041975 -0.0065231617 0.024250748 -0.010477064

conv_time.bias f4 [30]
000000 fa af 68 3a cb 21 7a bc 4f 34 2e 3c ec 8c 17 3c
       0.000887632 -0.015266846 0.0106325885 0.009249907
000010 43 8e ae bc b7 cb e7 bc 0a d6 93 3c f1 1f e4 bb
       -0.02130807 -0.028295381 0.018046398 -0.0069618155
000020 b4 19 35 3d 03 64 5a bd 87 b7 63 bc d8 6c 52 bb
       0.044213966 -0.053318035 -0.013898737 -0.0032108333
000030 11 37 8d bc a8 d0 1f bb 0f 38 d0 3a 80 a6 0f 3d
       -0.017238172 -0.0024385843 0.0015885847 0.035070896
000040 19 2e 01 3c 6d 5f b7 3b 42 54 64 bb 68 90 94 bc
       0.007884526 0.0055960924 -0.003484026 -0.018135265
000050 af 55 04 bb 2e f9 5b 3d 5c 03 3b bc 18 cc 20 bd
       -0.0020192673 0.053704433 -0.011414375 -0.03925714
000060 0d 2b e9 3b 2d c9 15 3c 81 f5 a0 3b 47 22 ca bb
       0.0071157278 0.009142202 0.004912079 -0.006168637
000070 2e 53 17 bd 8a 19 18 bc
       -0.03694456 -0.009283433

conv_classifier.weight f4 [1, 30, 163, 1]
000000 82 fd 84 bc dc ef 16 3c 16 ca f8 bb 6a 82 f1 bb
       -0.016234163 0.00921246 -0.00759245 -0.007370283
000010 04 ce a1 bc 5b 7b 99 bc 35 0c 14 bc c7 cc 86 3c
       -0.019751556 -0.018735578 -0.0090361135 0.016455067
000020 0b 60 20 bc f9 cc 8e bb 7a c3 25 3c a4 5d ca bb
       -0.009788523 -0.0043579307 0.010117406 -0.0061757136
000030 7c 43 bb bb 03 cf b0 3b 0a 6d 61 3c 68 c2 a6 3b
       -0.005714832 0.0053957715 0.013758907 0.005089093
000040 d8 7e 00 3c 18 b2 00 3d 42 1d af 3c d5 11 3f bc
       0.007842742 0.031419843 0.021376256 -0.011661966
000050 c9 f0 92 3c 32 17 33 3b 97 95 64 3c 86 b0 56 3c
       0.017937081 0.0027327058 0.013951681 0.01310361
000060 4e 19 eb bc 5c 84 dc bb 10 7a a8 bc c4 b9 4b bb
       -0.02869859 -0.0067296457 -0.020566016 -0.0031086067
000070 38 25 9e bc 68 bb eb bc e3 38 b7 bc 6f 59 c5 bb
       -0.019304857 -0.028775886 -0.022365993 -0.006022624
000080 16 1a 79 3c 06 66 15 bb 04 b4 94 bb 02 67 d3 3b
       0.015203973 -0.0022796406 -0.004538061 0.0064514885
000090 47 40 42 3b 85 72 97 3c d8 95 b1 bc 6f c7 b6 bc
       0.0029640363 0.018487224 -0.021677896 -0.022311894
0000a0 07 fc cf bb ca cb b0 3c 59 bb dc 3c db 50 83 39
       -0.0063471827 0.02158155 0.026944803 0.0002504651
0000b0 3e 07 9c bc aa 44 8b bc 50 ec 49 3c 42 90 99 3c
       -0.019046422 -0.017000515 0.012324408 0.018745545
0000c0 fa e9 f8 bb 33 ef b5 bb 56 19 fd 3b 2e 3b ac bc
       -0.0075962516 -0.0055521964 0.0077239675 -0.021024313
0000d0 d2 6e d3 3b f4 f2 31 bc 8b 1e 4d bc 5c 75 ff 3c
       0.00645242 -0.010861147 -0.012519489 0.031183891
0000e0 49 48 0c bc af 63 9a bc b2 d3 92 bc cc 24 75 3b
       -0.008562156 -0.018846361 -0.01792321 0.0037405966
0000f0 bf 9b 35 3c c1 07 b4 3b 9e 70 30 bc 0e 10 ae 3c
       0.011084496 0.0054940884 -0.0107690375 0.02124789
000100 50 c6 b3 bc 9d dc ad bc fe 1a 96 3c 08 c6 44 3c
       -0.021945149 -0.02122336 0.018323418 0.012010105
000110 79 d4 9c 3c c2 1b 79 3b 87 57 c4 3b cc 0e 16 bb
       0.019144284 0.003801093 0.0059918794 -0.0022897003
000120 de df a9 bc 01 1f aa 3c 56 42 9c bc 66 75 aa bc
       -0.020736631 0.020766737 -0.0190746 -0.020807933
000130 c9 dd 0f bd 64 97 b9 bb 36 2b f3 3b 60 f2 e0 3c
       -0.03512362 -0.005663799 0.0074209226 0.027459323
000140 e1 7d aa 3c fc 09 8b 3c 4b d0 58 3c 60 68 ed bc
       0.020811977 0.016972534 0.013233255 -0.028980434
000150 dd 7c e4 bb 48 5c fc bc a6 bf f2 3b a5 2e 2d bc
       -0.0069728927 -0.030805722 0.0074081 -0.010570203
000160 89 c4 dd 3c 47 ff 76 bc 1c 28 2b 3b 56 8c 82 3c
       0.027071254 -0.015075511 0.0026116436 0.015936058
000170 8d 40 91 3c 90 25 86 3a 05 d6 85 3b 7c 1e c2 bb
       0.017730976 0.0010234583 0.004084351 -0.005924044
000180 ee 30 00 bd 11 bc 68 3c f2 18 bb 3c 24 e0 9b bc
       -0.031296663 0.014204995 0.022839043 -0.019027777
000190 7e 74 22 3c a9 b1 7c 3c 0d 1a 1a 3d 78 7a 3f 3c
       0.009915469 0.015423217 0.0376225 0.011686914
0001a0 11 ea fd 3c 99 b6 ef 3b e5 36 b4 bb f1 f9 ce bc
       0.0309954 0.0073154685 -0.005499708 -0.025265666
0001b0 f7 88 ac 3c 43 30 96 bc 9d 39 4d 3c 01 a5 98 3b
       0.021061404 -0.01833356 0.012525943 0.004658342
0001c0 b5 e0 86 bc 3c 84 0f bc 11 13 e2 3c 23 b2 53 bb
       -0.01646457 -0.0087595545 0.027596982 -0.0032302223
0001d0 53 d6 96 3c 44 bb 82 bc cd ad bf 3c 0c aa 3c bc
       0.018412745 -0.015958436 0.023398304 -0.011515152
0001e0 b3 e7 8a 3b a9 e6 14 3b e2 b7 f9 bb 06 1a db bc
       0.0042390465 0.0022720492 -0.0076207975 -0.026745807
0001f0 af 86 b5 b9 c4 c7 40 bb c1 13 6e 3c 2c 6a 59 3c
       -0.00034623357 -0.0029415945 0.014531077 0.013269942
000200 f9 df 9e bb 62 52 84 bb 40 c5 49 bc d1 30 bf 3c
       -0.004848477 -0.004038141 -0.0123150945 0.023338707
000210 4f 3b 27 bc 19 06 63 bb e7 eb 17 3c 8c 57 60 39
       -0.010207011 -0.0034641086 0.009272552 0.00021394918
000220 43 b6 4d 3c f3 44 00 bd 3b 45 3a bc 28 19 83 bc
       0.012555662 -0.031315755 -0.011369045 -0.016003206
000230 5d 98 fa 3c a5 e6 7e bc 47 c1 e2 bc 3b 30 89 3b
       0.03059023 -0.01555792 -0.027680052 0.0041866577
000240 d2 5f 7b 3a c9 5c fb bc d8 d4 19 bc 7d ce a0 3b
       0.00095891685 -0.030683892 -0.009389125 0.004907428
000250 e6 bb 36 bc 5a ee 66 3b 90 56 32 bb 07 db 88 bb
       -0.011153197 0.0035237283 -0.002721224 -0.0041765007
000260 03 97 42 bb 36 ee 94 3c 83 0b 8b bc 82 b1 1e 3d
       -0.002969206 0.018179994 -0.016973263 0.038743503
000270 54 15 cf 3c 14 f6 99 3b 96 73 b0 ba 22 42 42 bc
       0.025278725 0.0046985243 -0.0013462182 -0.011856588
000280 a8 b7 58 3b 35 20 02 bc a2 88 b0 3c e9 50 66 bb
       0.0033068452 -0.007942249 0.021549527 -0.003514344
000290 1f d0 71 bb 45 4a 23 bc 74 00 76 ba 95 da 36 bc
       -0.0036897731 -0.009966438 -0.0009384223 -0.011160512
0002a0 b6 c2 7a bb 28 d7 33 bd 90 53 3e bd f3 4e 34 bd
       -0.003826303 -0.04390636 -0.04646641 -0.044020604
0002b0 88 c1 f0 bc 6b ae 54 bc a4 ec 17 bd fa c9 a9 bc
       -0.029389158 -0.012981038 -0.037090912 -0.020726193
0002c0 40 02 e7 3b 16 e8 04 bc 1e a3 cc bc bc cd 39 3c
       0.007049829 -0.008111974 -0.024980124 0.011340555
0002d0 c0 9c 94 bc e3 12 fb 3a 15 19 75 bb 3f 81 9d bc
       -0.01814115 0.0019155409 -0.0037398983 -0.019226668
0002e0 a3 6d 7f 3c 1b 86 94 bc 12 d6 15 bc 12 a3 c7 bb
       0.015590104 -0.018130353 -0.009145277 -0.0060924375
0002f0 1d 7e d1 3c e9 f0 78 3c 77 78 c3 3c 56 b2 bd bc
       0.02557283 0.015194156 0.023861153 -0.023156326
000300 a6 7c e9 bb 62 6a 36 3c 94 c2 4d bb 99 09 97 38
       -0.007125455 0.011133762 -0.0031396495 7.202029e-05
000310 71 49 a9 bc 79 fd 85 3c eb 70 66 3a cb 66 07 3b
       -0.020664902 0.016356217 0.000879063 0.0020660635
000320 56 e0 c5 bc fa a0 8b 3b 36 27 d6 3c 9d 2a d7 3c
       -0.024154823 0.0042611333 0.026141744 0.026265437
000330 7c dc fe 3c 12 e4 0b bb db e2 b7 bc eb 08 e8 3b
       0.031110995 -0.0021345657 -0.02244704 0.007081141
000340 68 97 c6 bb 46 32 5d bb 25 36 a1 bc f1 89 bb bb
       -0.0060605295 -0.003375189 -0.019679138 -0.005723231
000350 06 06 0d 3b 22 df 39 bb 63 7b 91 3c 34 d1 eb 3c
       0.0021518483 -0.0028361757 0.01775903 0.02878628
000360 61 55 44 bc 04 40 16 3c 7b 50 56 bc 26 b9 5e 3c
       -0.011983247 0.009170536 -0.0130807115 0.0135939475
000370 35 0d d4 bc 45 e7 f2 3c 0a ff 5b bc 19 ff 16 3c
       -0.025885204 0.029651294 -0.013427505 0.009216093
000380 53 d3 20 bc f4 84 fb bb dc 43 a9 3c 84 1d c7 bc
       -0.009816009 -0.0076757614 0.02066224 -0.024306066
000390 3c 88 b3 bb a7 f8 bc bb 52 f4 7a 3b 39 9a e8 3c
       -0.005478887 -0.0057669464 0.00382926 0.028393852
0003a0 c4 50 88 3c 96 24 0e bc 44 f9 fe b9 32 1c d0 3c
       0.016640075 -0.008675715 -0.00048632373 0.02540407
0003b0 1a 6f b7 3c d2 0d 77 3a 94 fa 3f 3b 2d 27 d4 3c
       0.022391845 0.00094243616 0.0029293643 0.025897587
0003c0 37 fc 11 bc bd 7f 47 3b c1 d4 e4 3c 19 bd 89 bc
       -0.00891023 0.0030441128 0.02793348 -0.016813802
0003d0 44 7d 8a 3c 79 b6 8a 3b dd b3 2a 3c 66 09 aa 3b
       0.016905434 0.004233178 0.010418859 0.0051891087
0003e0 93 db af 3c 0b 11 bd 3c 94 32 cd 3c c2 3f f0 3c
       0.021467006 0.023079416 0.025048532 0.029327277
0003f0 92 7c aa bc 63 09 16 3b 13 99 b3 bb 10 cb 12 bc
       -0.020811353 0.0022893779 -0.0054808944 -0.008959547
