final_presentation/final_results/shallow/interval1/7000/2021-10-14_02-13-47/checkpoints/best_model_1_trial_58_validation_acc=0.7498.pt (torch, 413007 bytes, 6 tensors)

conv_time.weight f4 [20, 62, 80, 1]
00000000: da6e 66bc 8b0d fc3c ad14 063d e86c 1c3b
00000010: 0b40 c73c 6793 d93c 2ed2 4b3b faa0 963c
00000020: cac8 c63c 4da6 003c 5fba df3c 2647 fe3c
00000030: 54f3 e43b ab3a c83b 179b 063d 74e0 bc3c
00000040: 0524 ab3c ebcd b7bc 4abb 503c 4d2b a2bb
00000050: 282e debb 4221 62bc c1a9 b4bc 6d98 56bc
00000060: f353 8e3b 8ee3 d4bc 0b59 b3bc 116f 0dbb
00000070: 07c4 2f3c 9084 143c e61f 003d 7e82 b93c
00000080: 9258 bcbc 9bd8 483c c102 ddbc 1db2 ecbb
00000090: f579 49bc 3e5b d23c 2caf ea3c 67b9 b63c
000000a0: f4d8 9c3c c720 a23c ae19 9a3c 95f4 86bc
000000b0: ec8a e3bc 4179 ccbc ebaa 723c 3946 8ebc
000000c0: d297 8f3c 2e36 ee3c 14b0 efbb 4fe0 c03c
000000d0: 37ba 3c3c 2829 833c d414 f13b 0ea2 cfbc
000000e0: cbbe b2bc 3549 cd3a 058f 94bc 4423 0c3c
000000f0: e6a4 77bc b4d8 c7bc 5277 7c3b 586c 6a39
00000100: 25d8 b53c cdad fe3a 57b2 833b fb16 5bbc
00000110: 90a7 44bc 55f5 fe3c 7808 90bb ad37 9ebc
00000120: 524b cc3c bedd e4bc 10ab ca3c 8846 923b
00000130: d564 d03c e8a0 f8ba 1b30 f43b 4801 0e3c
00000140: 9b92 9bbc b498 4cbc c168 9e3b 2bc1 62bc
00000150: 23b9 32bc fc38 433a f025 b43c 2988 d7bb
00000160: c9cd 013d 9617 e4bc 052d 65ba 72ce 363c
00000170: 4088 cb3b f5f5 3e3c 5084 373a 97b7 8dbc
00000180: 6a9e 2bbc 2e49 573c 1df2 b5bc 4364 c7bc
00000190: 2878 d53c ec0f ee3c 6d2f 98bc 5959 49bc
000001a0: 7f4a c93c 6ae5 adbc b728 7b3c 8958 b63c
000001b0: 38a3 11bc 07aa 8db9 4223 14bc 71e1 dcbc
000001c0: a981 52bc 1d19 e9bb 1e45 8b3b f124 e1bc
000001d0: 460e e7b9 f1c0 dcbb 027f a63c db94 b23c
000001e0: bd8c a4bb f97f 213c 18b0 c33b e463 9abc
000001f0: 228d 1abc cb08 e83c b178 c93c 2211 7ebb
00000200: 32ed eab8 be55 a2bc 925e a13c 69bb a33b
00000210: 3017 993c b380 a23c d3bc dbbc e4ca ccbc
00000220: bf8b 89bc 952f 593c e58f 15bc a169 ccbc
00000230: f02e 743c 7510 ce3c f681 f7bc 28e6 dd3a
00000240: 7ad7 dc3c 2648 30bb b7fb e23c c52a e1bc
00000250: 0e6a 863c 5bb4 d3bc 5d3c 923b 3f36 fcbc
00000260: 8315 db3c c097 8fbc 14dc 24bc 90dc f53b
00000270: 4c78 a03c 8694 41bb 55d8 d33b 1d69 d13c
00000280: 864e 5f3c 8854 aa3c c6ff 323c 20ad 643b
00000290: 3e76 0a3b d420 bc3c 7c73 083d 88f7 453c
000002a0: 5112 8c3c 3922 ebbb 3cd5 003d 56de 2f3c
000002b0: 3c72 8bbc b68e bdbc 9e61 43bb 90b0 f73b
000002c0: 2cfb f33c 05c6 f53c 0ed8 9d3c 9955 6b3c
000002d0: 1f1e 403c 035a 5e3c c3e1 093c f3d3 1a3c
000002e0: 7988 8fbc 3f9a bd3c 7361 4b3c a301 093c
000002f0: 7845 ce3c d4f5 253b 3cd7 8f3c 76dc c6bc
00000300: f6f4 dabc bd06 403c 8235 53bc 635b c6bc
00000310: c56c aebc f437 d93c b0a6 763c 9171 813a
00000320: 465e 9a3c 8014 4b3c d5de cb3c ed71 cfbc
00000330: ad22 b9bc 329f 733a b926 f5bc ba85 88bb
00000340: 3c54 a93c 96ca a7bc 1edc 15bc b670 d83c
00000350: 6394 d4bc c348 b43b 4292 82bc a0e0 c93c
00000360: b12c c2bc 606e 75bc 9d40 cc39 68f5 7cba
00000370: fe68 9c3c db65 cf3c f28b d0bb 7db0 daba
00000380: 66b3 da3c e42a 9ebc d2df e6bc aef0 213c
00000390: de58 db3c f8d2 df3c 9491 c9bb 4e42 bdbb
000003a0: 1c2a d93b f026 b43c b418 893c 6317 b0bc
000003b0: 8da3 8bbc f384 d53c 6bcb 1a3a 6fee bd3b
000003c0: 37e4 e3bb a21b 4e3c 5665 dc3c 2e52 e73c
000003d0: 7b0b 323c b412 87bc d3fd d2bb 3595 493c
000003e0: a28e 93ba 1df0 b9bc b7f0 8d3c 8c83 373c
000003f0: 7eb3 4f3c ac0e 9dbc 2c5d 9fbc 27a3 c03b
-0.014064515 0.030768177 0.03273456 0.0023868624 0.02432253 0.026559545 0.0031100619 0.018387306
0.024265666 0.007852149 0.027310548 0.031039786 0.006987015 0.0061105094 0.03286275 0.023056246
0.020891199 -0.022437057 0.012739966 -0.0049490095 -0.0067804046 -0.013801875 -0.022053601 -0.013097865
0.0043435036 -0.025987413 -0.021893045 -0.0021581093 0.010727889 0.0090648085 0.03128042 0.022645231
-0.022991452 0.012258674 -0.026978852 -0.007223381 -0.012297143 0.025678273 0.028647982 0.022305204
0.01914642 0.01979102 0.018811073 -0.016474048 -0.027776204 -0.024960162 0.014811258 -0.01736747
0.017528448 0.02907857 -0.0073146913 0.023544459 0.011519006 0.016010836 0.0073572192 -0.025345828
-0.021819493 0.0015662076 -0.018134603 0.00855333 -0.015114998 -0.024395324 0.003852327 0.0002235634
0.022197792 0.0019430459 0.0040190625 -0.013372178 -0.012002841 0.031122843 -0.004395541 -0.019313658
0.02493826 -0.027937766 0.024739772 0.0044639744 0.025438705 -0.0018968852 0.0074520237 0.008667298
-0.018990805 -0.012487579 0.004834265 -0.01384 -0.010908398 0.0007447151 0.021990746 -0.006577511
0.031690393 -0.027843278 -0.0008742365 0.011157619 0.0062113106 0.01165532 0.0007000612 -0.017299457
-0.010474781 0.013140006 -0.022210175 -0.0243398 0.026058272 0.029060327 -0.018577302 -0.012289369
0.024571655 -0.021227557 0.015329531 0.022259014 -0.008889012 -0.00027020296 -0.009041609 -0.026962968
-0.012848296 -0.0071135894 0.004250183 -0.027483435 -0.00044070388 -0.0067368676 0.020324234 0.021799495
-0.00502166 0.009857171 0.0059719197 -0.01884646 -0.009433063 0.028324505 0.024593683 -0.0038767536
-0.000112021706 -0.019816276 0.019698415 0.0049967063 0.018687814 0.01983676 -0.026823437 -0.02499909
-0.016790269 0.013255973 -0.009128545 -0.024952712 0.014903769 0.025154332 -0.030213337 0.0016929554
0.026958216 -0.0026898473 0.027707918 -0.027486214 0.016407993 -0.025842836 0.0044627623 -0.030787585
0.026743656 -0.017528415 -0.010062236 0.0075030997 0.019588612 -0.002953799 0.006464998 0.025562817
0.013629561 0.02079226 0.010925239 0.003489323 0.0021127607 0.022964872 0.03331326 0.012082942
0.017098578 -0.0071757105 0.031453356 0.010734161 -0.017022245 -0.023139339 -0.0029812823 0.0075588897
0.029782854 0.03000165 0.019268062 0.01436367 0.011725931 0.013571265 0.008415642 0.009449947
-0.01752113 0.02314484 0.01241337 0.008362207 0.02517961 0.0025323527 0.017558686 -0.024275046
-0.026728135 0.0117203565 -0.012891175 -0.024213498 -0.0212921 0.026515938 0.01505439 0.0009875764
0.018843781 0.012395024 0.024886528 -0.025322879 -0.022599543 0.00092934363 -0.029925691 -0.004166332
0.020670049 -0.020482343 -0.009146718 0.026420932 -0.025949663 0.005501838 -0.015938882 0.024643242
-0.023702951 -0.014979929 0.00038958053 -0.00096496055 0.019093033 0.025317123 -0.006364339 -0.0016684678
0.026696872 -0.019307561 -0.028182898 0.009884043 0.026775774 0.027322277 -0.0061513875 -0.0057757264
0.0066273343 0.021991223 0.016735412 -0.021495527 -0.01704576 0.026064372 0.00059049454 0.0057962458
-0.0069546956 0.01257983 0.02690379 0.028237429 0.010866995 -0.01648841 -0.0064389496 0.01230364
-0.0011257718 -0.022697503 0.017326696 0.011200797 0.012677072 -0.019172035 -0.019453607 0.0058788243

bnorm.weight f4 [20]
00000000: 5c12 9a3f 19a4 973f 91d0 983f b905 9d3f
00000010: 6b68 983f 7e8f 9a3f 05f8 973f 6efe 9d3f
00000020: cc9d 983f 6ad3 9a3f a7cd 973f 2aef 9a3f
00000030: f1fe 993f 513e 9a3f 7073 963f 7995 9a3f
00000040: f0a9 9a3f acdb 9c3f 4ee2 973f 0ac7 9a3f
1.2036853 1.1846954 1.193865 1.2267371 1.1906866 1.207504 1.1872565 1.2343271
1.1923156 1.2095768 1.1859635 1.2104237 1.2030927 1.2050267 1.1753979 1.2076865
1.2083111 1.2254539 1.1865938 1.2091992

bnorm.bias f4 [20]
00000000: f695 1f3e 49af 35bc 548f 863d e513 ce3b
00000010: aa38 083c dcc8 ac3c d8c0 923d d520 f53c
00000020: 5896 fc3b 3d99 4f3d ca4f 88ba 93ab 533e
00000030: 36b2 22be 6515 0e3d 1ad0 343e 6822 263d
00000040: 054b ddbc 27da 0b3d 96fa 48bd 3286 8c3c
0.1558455 -0.0110891545 0.065703064 0.0062889927 0.008314291 0.021091871 0.07165688 0.029922882
0.007708352 0.05068325 -0.0010399756 0.20670919 -0.15888295 0.034688372 0.1765751 0.040560156
-0.027013311 0.034143593 -0.049067102 0.017153833

bnorm.running_mean f4 [20]
00000000: 78d0 55bb 00bb 723b ebeb 18bb de3a 0ebb
00000010: 8e3a 10bc 67c5 98bb 2381 dd3b 7067 02bc
00000020: 95fd 36b9 6a1d e5bb 1e58 eeba fcb8 453c
00000030: dc4a bdbb 9f7f 013a 35a1 b43a d3f8 113a
00000040: 21bd 52bb 5a2c e839 239c 193b de5e ccbb
-0.0032625478 0.003703773 -0.0023333977 -0.0021702568 -0.008803023 -0.004662204 0.006759779 -0.007959232
-0.00017451339 -0.006992032 -0.001818422 0.0120680295 -0.005776746 0.00049399765 0.0013780954 0.0005568389
-0.0032156187 0.00044283533 0.0023439012 -0.006236895

bnorm.running_var f4 [20]
00000000: 1f88 6641 700e c740 a951 5e41 d435 8c41
00000010: 6a5c fc40 cee6 3241 f1e3 4041 8bc4 8f41
00000020: 3940 0641 3c87 b940 ddd4 2f41 e0b8 fc41
00000030: 15b5 5d41 57a5 1441 fc14 b241 4a05 e240
00000040: ed85 0741 db0e 1441 2c52 0f41 7b6e 1141
14.408233 6.2205124 13.894937 17.526283 7.886281 11.181349 12.05565 17.970968
8.390679 5.797758 10.989469 31.590271 13.8567095 9.290366 22.260246 7.0631456
8.470197 9.253627 8.9575615 9.089473

conv_classifier.weight f4 [1, 20, 163, 1]
00000000: ed6d 00bd 9860 54bc 613a 0ebd 0d97 9a3a
00000010: f065 40bd 60b1 083c 0812 3b3c e421 bbbb
00000020: 7f56 b6bb 5b55 8ebb 4e49 b93c d39e b43b
00000030: b078 4d3c 1674 5fbc e06d 7ebd f253 ee3b
00000040: 6099 05bd 047d 13bd 60fc 263c 7182 ec3b
00000050: 155a d9bc 331f a1bc 3d64 6e3c eee3 94bb
00000060: ce78 51bd 3ccc 5dbc 7962 8bbc 6fed 1fbd
00000070: 7e9a 9dbc f50f c93c 3c4b 8cbc 746b 2cbc
00000080: 19a1 de3c 7439 333a f6a1 25bc 6d5b 09bd
00000090: 8b26 38bd 983c 1f3d 1e05 39bd 770f f6ba
000000a0: af83 dc3a b525 28bc 3785 96bc ad9a 6dbd
000000b0: 66bb fdbc fe93 0abd f82c a2bb dc24 6ebc
000000c0: 4f56 a6bc 1ef4 afbb bfc4 2ebc f4d9 2a3d
000000d0: 94c4 cc3c 0310 f8bc 736b 343a 0657 e83c
000000e0: 3a41 74bc 885e 0f3d d7fa a43b dd53 b8bc
000000f0: c693 d63c ede5 ce3c 9c62 2dbd cb59 9ebc
00000100: 02d7 a9bc 765e 5fbd b953 1ebb 22bf c43c
00000110: eaa3 be3c 0739 bf39 f97d 7f3c 15a7 123d
00000120: 5c01 0c3c 16f3 6bbc d2f9 863b c5db a53c
00000130: 4fce babc 5db3 583c afdf 5c3b 6d27 b9ba
00000140: 115b ff3b 61b6 9ebb bb96 7c3c 2228 08bd
00000150: 1483 6dbc 2700 f8bc cd4d 643b 982c 0fbb
00000160: 993a bfb9 9c5b a8bc ae00 e4bc 0181 4c3d
00000170: 07b5 f23c 298b f4ba ee73 93bb 1bad 9b3b
00000180: ddaf 2a3d 0979 c3bc 645a e23c 2b72 883c
00000190: cf14 1c3a 89e9 a53c a96b 29bc 7aa9 13bd
000001a0: f5f5 873c 51b7 d23b f943 6ebc a545 8f3c
000001b0: 3c32 0f3d d1dd 41bc a8b8 143d 2ae3 643c
000001c0: fd87 25bc d1aa 583b e2cc f1bb 9332 6f3c
000001d0: f584 2e3b 4b68 c9bb b410 613c 88a9 473d
000001e0: 4242 34bc 9ea4 a63b 23fe a8bc 5ae5 a03c
000001f0: 27a8 0a3c 7a85 0a3d a682 ccbb 6902 bfbc
00000200: bc0f 0e3d 0d2a 4c3b dc0d 1bbd 9840 cb3c
00000210: 305b 2fbc 4cd6 0b3c 7b96 923c 2905 843c
00000220: 4258 08bc e761 bf3c a186 95bc 6cfb 7b3b
00000230: 6760 f83c e3a2 b3bc 9bfb b83c 1be9 403d
00000240: e4da 983c 6485 43bc 2abf 223d f9af a93c
00000250: c18e 6fbc 877c f83c c754 de3c 7898 a7bc
00000260: 0b8e 24bc ed3d 32bd fb03 123d a3c6 e53c
00000270: 150e 58ba d865 90bc b100 9a3c d525 20bd
00000280: bba9 31bc 2d14 27bc ca5c b33c a267 4e3c
00000290: 4792 0abd daf5 773c cf5d 0b3d 91d1 6a39
000002a0: ada7 e8bc 0410 c53c efb8 42bc add6 573d
000002b0: 46c6 85bb 766c db3c 1caf ea3c 54b2 0d3d
000002c0: 8818 0f3c 2c0f ecbb df7b 273b bb4e d4bc
000002d0: c9d1 ba3c 9ee7 713c 7d56 3cbc 5068 80bb
000002e0: 6bc2 a53c ba66 dbbb 1f41 b23c fc9e 1fbb
000002f0: 9200 9d3b 3099 67bc 9dd2 9f3c 38e1 0b3d
00000300: 3bc0 bfbb 7726 31bc a239 0fbd 4fb0 133b
00000310: 6a1a dfbc d1bd 833b a33e 43bb 47b4 0f3d
00000320: e734 aebc b8b2 f5bc e175 d63c 76b8 c0bc
00000330: 99f7 aabc 1ed9 2e3d ceea 1b3c 5f59 1b3c
00000340: 094a 033d 9ed0 e8bc d8d9 e43b 014f 473c
00000350: 169f bb3a 8d21 4abc 243f c93b a00f 1d3d
00000360: 801c 00bc ef41 babc b432 b9bb a591 8bbc
00000370: 3bf5 833b 8a22 453c f670 8bbc 490f 9b3c
00000380: 2fa0 42bd 12b9 633c ec2c a73b a926 a5bc
00000390: a61c f4bc 6986 623c 19b9 ab3c f8e0 af3c
000003a0: a57d aabc 5bdb 63bc 7896 05bd 5c01 1cbc
000003b0: d130 fd3c 5356 ea3b 1d53 55bc e5aa 023c
000003c0: a227 94bd 1d40 273c c25c 7cbb 6d04 edbc
000003d0: f506 8a3c 820e dfba 4583 6abc 859b d53b
000003e0: 6114 b53b ec8f c2bb 0ed7 653d a212 283c
000003f0: d21a bb3c ad72 9cba c406 583c 22ca 83ba
-0.031354833 -0.012962483 -0.034723643 0.0011794284 -0.046972215 0.008343071 0.011417873 -0.005710827
-0.0055645104 -0.0043436713 0.022617962 0.0055120974 0.012540981 -0.013638517 -0.062116504 0.0072731907
-0.032616973 -0.036007896 0.010192007 0.0072176983 -0.026532212 -0.019668197 0.014550266 -0.004543773
-0.0511406 -0.013537463 -0.017014729 -0.039044794 -0.019238707 0.024543742 -0.017125718 -0.010523666
0.027176427 0.0006836869 -0.010109415 -0.033534456 -0.044958632 0.038876146 -0.045170896 -0.001877292
0.0016823913 -0.010262896 -0.018374069 -0.05800884 -0.030973148 -0.033832543 -0.0049492083 -0.014535155
-0.020304827 -0.005369677 -0.010667025 0.041711763 0.02499608 -0.030281072 0.0006882466 0.028361809
-0.014908129 0.03500226 0.0050347853 -0.022500927 0.02619351 0.025256122 -0.04233037 -0.019329926
-0.020732407 -0.054533444 -0.002415879 0.02401692 0.02327152 0.00036472848 0.015593999 0.035803873
0.008545246 -0.014401218 0.0041191364 0.020246396 -0.022803454 0.013226357 0.0033702662 -0.001412613
0.0077928384 -0.0048435186 0.015416796 -0.0332414 -0.0144965835 -0.03027351 0.0034836412 -0.0021846648
-0.00036474018 -0.020551495 -0.027832355 0.049927715 0.029627336 -0.0018657196 -0.004499904 0.0047508604
0.041671623 -0.023861425 0.027630992 0.016656002 0.00059540285 0.02025296 -0.01034061 -0.036050297
0.016596774 0.0064305444 -0.014542573 0.017489264 0.034960017 -0.01183267 0.036308914 0.013970176
-0.010103223 0.00330608 -0.0073791603 0.01459946 0.0026629542 -0.006146466 0.0137368925 0.048745662
-0.011002125 0.005085542 -0.020628994 0.019640613 0.008462942 0.0338187 -0.0062411604 -0.023316579
0.034682974 0.0031152994 -0.037855014 0.024811074 -0.010702893 0.008534979 0.01789402 0.016115742
-0.008321824 0.023362113 -0.018252673 0.003844942 0.030319406 -0.021928256 0.022580912 0.047097307
0.018659063 -0.011933658 0.03973309 0.020713793 -0.0146214375 0.030332817 0.027140034 -0.020458445
-0.010043631 -0.04351609 0.035648327 0.028048819 -0.00082418445 -0.017626688 0.018799158 -0.03909858
-0.01084369 -0.010197681 0.021894831 0.01259795 -0.033830907 0.015134299 0.03402501 0.00022394049
-0.028400267 0.024055488 -0.011884912 0.052694965 -0.004082474 0.026785117 0.028647952 0.034593895
0.008733876 -0.007203957 0.002555601 -0.025916448 0.022805111 0.0147646945 -0.01149523 -0.003918685
0.020234307 -0.0066955956 0.021759568 -0.0024356237 0.0047913278 -0.014135644 0.019509608 0.034150332
-0.005851773 -0.010812393 -0.034967072 0.0022535508 -0.027234275 0.0040204306 -0.0029791973 0.035084035
-0.02126546 -0.029992446 0.026179256 -0.023525458 -0.020870017 0.042687528 0.009516431 0.009481757
0.032053027 -0.028419789 0.006983977 0.012164832 0.0014314379 -0.012337101 0.00614156 0.03834498
-0.007819295 -0.022736518 -0.0056517962 -0.017037222 0.0040270365 0.012032161 -0.017021637 0.018928187
-0.047516044 0.013899105 0.0051017907 -0.020160036 -0.029798817 0.013825991 0.020962285 0.021469578
-0.020811865 -0.013907279 -0.0326142 -0.0095218085 0.030907067 0.007151404 -0.013020304 0.007975315
-0.07234122 0.010208157 -0.0038507436 -0.028932774 0.01684902 -0.0017017873 -0.014313524 0.0065187835
0.005526111 -0.005937567 0.056113295 0.010258349 0.022839937 -0.0011936032 0.013185207 -0.0010054747
