final_presentation/final_results/shallow/interval1/7000/2021-10-14_02-13-47/checkpoints/best_model_1_trial_5_validation_acc=0.5025.pt (torch, 767967 bytes, 3 tensors)

conv_time.weight f4 [50, 62, 60, 1]
-0.55231625 -0.49855876 -0.525029 -0.50536335 -0.5393585 -0.55324787 -0.5370641 -0.5411542
-0.536173 -0.498232 -0.55729157 -0.5034698 -0.5246005 -0.517431 -0.53897923 -0.51020473
-0.52715063 -0.55689955 -0.5255181 -0.5170843 -0.5493546 -0.52019763 -0.5513794 -0.50292
-0.54956967 -0.5425688 -0.51017934 -0.49961776 -0.55437696 -0.5327188 -0.5212469 -0.53824055
-0.49835825 -0.5336741 -0.5412041 -0.5235128 -0.5046594 -0.5413065 -0.55486375 -0.5128559
-0.5468402 -0.547861 -0.50723946 -0.5522495 -0.5051328 -0.5195822 -0.51543105 -0.5178571
-0.50347066 -0.53767234 -0.5106473 -0.552419 -0.5248697 -0.548776 -0.49785683 -0.54758596
-0.51943994 -0.5460289 -0.52966523 -0.50611246 -0.530316 -0.50076145 -0.52766204 -0.50706226
-0.49910727 -0.49908733 -0.4993684 -0.54209584 -0.5206299 -0.53920126 -0.5166882 -0.5134654
-0.5230082 -0.5404034 -0.5322338 -0.5086707 -0.5236438 -0.5296838 -0.5531197 -0.54231596
-0.54056346 -0.5076307 -0.5137914 -0.54514265 -0.5101295 -0.5289612 -0.53644854 -0.5214511
0.5342961 -0.49930063 -0.5534206 -0.54601413 -0.52964157 -0.5096013 -0.5028927 -0.50360173
-0.5063579 -0.54528993 -0.5136683 -0.53643286 -0.52974534 -0.5072262 -0.5432428 -0.50296783
-0.51919615 -0.5036458 -0.5251704 -0.5026784 -0.53299445 -0.52073115 -0.5124083 -0.49845263
-0.5395298 -0.5123291 -0.5163822 -0.51106095 -0.51553625 -0.5248351 -0.543088 -0.55291784
-0.5442783 -0.5477342 -0.5523765 -0.5393855 -0.54342294 -0.5462527 -0.49864668 -0.51644504
-0.5169965 -0.5475588 -0.53535384 -0.54425716 -0.53320813 -0.5110801 -0.5492523 -0.5166998
-0.50921947 -0.549054 -0.5539892 -0.5320016 -0.55418724 -0.49788627 -0.54373264 -0.5088051
-0.5425695 -0.53727406 0.50610805 0.52296335 -0.5450612 -0.5265271 -0.51631707 -0.5508863
-0.5122013 -0.49806422 -0.5306843 -0.51107377 -0.49851415 -0.5377046 -0.5569136 -0.51695734
-0.50240105 -0.5302224 -0.55455595 -0.53552634 -0.5100183 -0.5103525 -0.5376625 0.5354606
0.5219045 -0.54560655 -0.54879737 -0.5173321 -0.55506283 -0.53279173 -0.5493961 -0.52814823
-0.514002 -0.5280385 -0.5458968 -0.50476724 -0.5077234 -0.51981676 -0.5100871 -0.504973
-0.5214457 -0.51605314 -0.49979222 -0.5454835 -0.54023796 -0.50405264 -0.5429416 -0.51706874
-0.5406529 -0.5077071 -0.5094844 -0.5245268 -0.5226008 -0.5377127 -0.52090615 -0.502664
-0.51628697 -0.5444722 -0.5155867 -0.50249857 -0.5077486 -0.50927794 -0.5390145 -0.5309555
-0.54163146 -0.5570683 -0.5409239 -0.5544042 -0.53064173 -0.5180031 -0.5467432 -0.53243935
-0.51953423 -0.4980939 -0.5172264 -0.55153847 -0.5132363 -0.5308825 -0.51477927 -0.51255864
-0.5212433 -0.50093955 -0.5362729 -0.5045824 -0.5552472 -0.54566747 -0.5216676 -0.5364071
-0.5184601 -0.50733906 -0.5172496 -0.55743843 -0.5261233 -0.5215407 -0.5314096 -0.5486517
-0.5495298 -0.55276966 -0.52028 -0.5345176 -0.5136437 -0.54720783 -0.5472518 -0.5314988
-0.55390334 -0.5000489 -0.51463324 -0.5389961 -0.5038631 -0.5169649 -0.5325221 -0.5270278
00000000: 9964 0dbf 1843 ffbe 4d68 06bf 7e5f 01bf
00000010: 6613 0abf a7a1 0dbf 087d 09bf 1589 0abf
00000020: a242 09bf 4418 ffbe a9aa 0ebf 66e3 00bf
00000030: 384c 06bf 5c76 04bf 8bfa 09bf c79c 02bf
00000040: 58f3 06bf f890 0ebf 5b88 06bf a35f 04bf
00000050: 81a2 0cbf ac2b 05bf 3327 0dbf 5dbf 00bf
00000060: 99b0 0cbf cae5 0abf 1d9b 02bf e6cd ffbe
00000070: a6eb 0dbf 4260 08bf 7070 05bf 22ca 09bf
00000080: d028 ffbe de9e 08bf 5a8c 0abf ef04 06bf
00000090: 5c31 01bf 1093 0abf 8d0b 0ebf 864a 03bf
000000a0: b8fd 0bbf 9e40 0cbf 72da 01bf 3960 0dbf
000000b0: 6250 01bf 5703 05bf 4af3 03bf 4892 04bf
000000c0: 74e3 00bf e5a4 09bf c8b9 02bf 556b 0dbf
000000d0: dc5d 06bf 957c 0cbf 17e7 febe 982e 0cbf
000000e0: 04fa 04bf 8dc8 0bbf 2498 07bf 9690 01bf
000000f0: cac2 07bf e731 00bf dc14 07bf d5ce 01bf
00000100: fd8a ffbe 6088 ffbe 37ad ffbe cbc6 0abf
00000110: 0048 05bf 1809 0abf ae45 04bf 7872 03bf
00000120: dee3 05bf e157 0abf 7940 08bf 3e38 02bf
00000130: 850d 06bf 5c99 07bf 4199 0dbf 38d5 0abf
00000140: 5e62 0abf 16f4 01bf d587 03bf 788e 0bbf
00000150: d997 02bf 006a 07bf b154 09bf d27d 05bf
00000160: a1c7 083f 55a4 ffbe f9ac 0dbf 95c7 0bbf
00000170: 9796 07bf 3b75 02bf 93bd 00bf 0bec 00bf
00000180: aca0 01bf 1f98 0bbf c47f 03bf aa53 09bf
00000190: 649d 07bf 94d9 01bf f611 0bbf 80c2 00bf
000001a0: 0aea 04bf eeee 00bf 9171 06bf 88af 00bf
000001b0: 5372 08bf a34e 05bf 312d 03bf 2f35 ffbe
000001c0: a01e 0abf 0028 03bf a031 04bf e4d4 02bf
000001d0: 2ffa 03bf 985b 06bf d107 0bbf 068c 0dbf
000001e0: d355 0bbf 4f38 0cbf 8c68 0dbf 2b15 0abf
000001f0: c41d 0bbf 38d7 0bbf 9e4e ffbe be35 04bf
00000200: e259 04bf d02c 0cbf f30c 09bf 7054 0bbf
00000210: 5480 08bf 25d6 02bf cc9b 0cbf 7046 04bf
00000220: 355c 02bf ce8e 0cbf 3cd2 0dbf 4231 08bf
00000230: 37df 0dbf f3ea febe 1032 0bbf 0d41 02bf
00000240: d6e5 0abf cb8a 09bf 4c90 013f ede0 053f
00000250: 2189 0bbf 7bca 06bf 5b2d 04bf e206 0dbf
00000260: a01f 03bf 4602 ffbe edda 07bf bbd5 02bf
00000270: 3f3d ffbe 02a7 09bf e491 0ebf 5157 04bf
00000280: 5b9d 00bf a8bc 07bf 61f7 0dbf 4118 09bf
00000290: 8f90 02bf 76a6 02bf 40a4 09bf f213 093f
000002a0: 899b 053f dfac 0bbf fc7d 0cbf e06f 04bf
000002b0: 9918 0ebf 0a65 08bf 39a5 0cbf b934 07bf
000002c0: a395 03bf 882d 07bf e5bf 0bbf 6d38 01bf
000002d0: 29fa 01bf b612 05bf 1195 02bf e945 01bf
000002e0: 777d 05bf 0f1c 04bf c4e4 ffbe cfa4 0bbf
000002f0: 094d 0abf 9809 01bf 38fe 0abf 9e5e 04bf
00000300: 3a68 0abf 18f9 01bf 926d 02bf 6347 06bf
00000310: 2bc9 05bf 8aa7 09bf 1b5a 05bf 97ae 00bf
00000320: 622b 04bf 8862 0bbf 7dfd 03bf bfa3 00bf
00000330: d0fb 01bf 0a60 02bf dbfc 09bf b3ec 07bf
00000340: 5ca8 0abf 079c 0ebf fd79 0abf 6fed 0dbf
00000350: 23d8 07bf da9b 04bf 5df7 0bbf f24d 08bf
00000360: 3200 05bf 2a06 ffbe f368 04bf a031 0dbf
00000370: 7463 03bf eae7 07bf 93c8 03bf 0b37 03bf
00000380: 3370 05bf 933d 00bf 2e49 09bf 502c 01bf
00000390: ae24 0ebf ddb0 0bbf 028c 05bf fa51 09bf
000003a0: cdb9 04bf f9e0 01bf 786a 04bf 49b4 0ebf
000003b0: 04b0 06bf b183 05bf 760a 08bf 7074 0cbf
000003c0: fcad 0cbf 5082 0dbf 1231 05bf 25d6 08bf
000003d0: 277e 03bf d015 0cbf b218 0cbf 4e10 08bf
000003e0: 9ccc 0dbf 3403 00bf 01bf 03bf a6fb 09bf
000003f0: 2cfd 00bf d057 04bf 5e53 08bf 4beb 06bf

conv_time.bias f4 [50]
0.52756387 -0.5275768 -0.5275768 0.5275767 0.5275766 0.5275768 -0.5275768 -0.5275766
0.5275766 -0.5275768 0.5275768 0.5275768 -0.5274077 0.5275767 0.5275767 0.52757573
0.52757686 -0.5275768 -0.5275767 -0.5275767 0.5275768 -0.52757674 0.52757686 -0.52757674
0.52757627 0.52757657 -0.5275766 -0.52757627 0.5275768 0.5275768 0.52757686 -0.5275768
0.52757686 0.5275768 0.52757674 -0.52757543 -0.5275768 0.5275768 -0.5275766 0.52757686
-0.52757573 0.52757674 0.52757686 0.5275762 0.5275768 -0.52757686 -0.52757686 -0.52757186
-0.5275753 0.52757674
00000000: 6d0e 073f 460f 07bf 460f 07bf 440f 073f
00000010: 430f 073f 460f 073f 460f 07bf 430f 07bf
00000020: 430f 073f 460f 07bf 460f 073f 460f 073f
00000030: 3104 07bf 440f 073f 440f 073f 340f 073f
00000040: 470f 073f 460f 07bf 440f 07bf 440f 07bf
00000050: 460f 073f 450f 07bf 470f 073f 450f 07bf
00000060: 3d0f 073f 420f 073f 430f 07bf 3d0f 07bf
00000070: 460f 073f 460f 073f 470f 073f 460f 07bf
00000080: 470f 073f 460f 073f 450f 073f 2f0f 07bf
00000090: 460f 07bf 460f 073f 430f 07bf 470f 073f
000000a0: 340f 07bf 450f 073f 470f 073f 3c0f 073f
000000b0: 460f 073f 470f 07bf 470f 07bf f30e 07bf
000000c0: 2d0f 07bf 450f 073f

conv_classifier.weight f4 [1, 50, 110, 1]
0.5109077 -0.5003459 -0.512518 -0.51092994 -0.51288927 -0.53681916 0.52366513 -0.54489803
0.5169759 -0.52913046 -0.54229873 -0.5385548 -0.5505242 -0.49592608 -0.52897596 -0.5222287
-0.5119238 0.5249646 0.49731746 -0.5380464 -0.5356249 -0.54273444 -0.550386 -0.49737045
-0.53173304 -0.5522379 -0.50328016 -0.5326671 0.5207182 -0.5363761 -0.5463757 -0.5038581
0.49542403 0.5020627 -0.5292509 0.5226975 -0.50711566 0.5462237 -0.49744 -0.52991325
-0.51696926 -0.5029765 -0.51509076 -0.5157318 -0.52901345 -0.53646874 -0.5167364 -0.5149942
-0.5262004 0.51658213 -0.530776 -0.5548023 -0.5461471 -0.5368829 0.5182048 -0.50744736
0.52491325 -0.52662295 -0.53368574 -0.5531689 0.52785856 -0.52929044 -0.53273463 -0.5139818
-0.5264001 0.49840558 -0.49701497 0.50166196 -0.49568295 -0.5500707 -0.54544485 -0.49916267
-0.5070096 0.5044833 -0.50329685 0.50646967 -0.522444 -0.50917816 0.52612513 -0.513398
-0.5238868 -0.5014915 0.5524532 -0.5460612 -0.5313458 0.4965943 -0.54582894 -0.53150934
-0.536885 0.52301943 0.501881 -0.54844356 0.50197273 -0.5427564 -0.53858864 -0.55222464
-0.50607073 -0.5427307 -0.53214294 -0.54345787 0.5381814 -0.5057312 -0.5138041 -0.54095423
-0.5022711 0.5150953 -0.5213413 -0.4981307 0.5363249 -0.5356963 0.4984343 -0.54342383
0.49824417 -0.50207824 -0.5149089 0.5559328 0.49763003 0.5076938 0.54527545 -0.554456
0.54062796 -0.55324966 0.5457258 -0.5088571 0.5088849 0.50500154 0.5452147 -0.5344425
-0.4982471 -0.5320513 -0.5415162 0.50600696 0.5330827 0.54971117 0.5130441 0.50352997
0.54645574 0.50075674 -0.5101691 0.49510583 0.50575334 0.4951703 -0.5343377 -0.4952801
0.5274376 0.5370076 0.51933765 -0.5171742 0.5411036 -0.53009707 0.5223027 0.49560535
-0.5492096 -0.53854954 0.5523145 0.5523789 -0.5397753 -0.53462034 0.53586566 -0.5473131
-0.5540426 -0.5582708 -0.5208068 0.51700133 -0.5132062 -0.5325588 -0.5465275 -0.52187145
-0.52896726 -0.54517025 -0.5444946 0.5085998 0.5333281 -0.5175588 -0.5103527 0.52265066
-0.51915556 -0.49665394 -0.5098352 -0.5317815 -0.5015736 0.53985417 -0.5474919 -0.5070769
0.52425575 0.5148135 -0.53131133 0.516473 0.53158766 -0.535309 -0.49536598 -0.55703175
-0.55260074 0.5076044 -0.52812946 0.5391125 0.5353521 -0.5582776 0.52748764 0.53057283
-0.5471331 -0.51648104 -0.51348275 -0.538903 -0.55195254 0.55915594 -0.5133599 -0.5106718
-0.55048 0.51387155 -0.53459716 -0.49959472 -0.5453828 0.5170395 -0.50751185 -0.54522264
0.52928543 -0.49685073 0.52031296 0.53937125 0.50873226 0.5294952 0.50371945 -0.55026484
-0.5554751 0.49656156 -0.51131904 0.526518 -0.5505939 -0.50657654 0.52781194 -0.5296225
0.55038685 -0.55824846 0.5383033 0.550788 0.5549373 0.5259423 -0.49844864 0.5381604
0.53708446 0.5520405 -0.52342045 -0.4952129 0.5587213 0.53404427 0.5473158 0.51285666
0.4976702 0.53947675 -0.5101028 0.49681878 0.51224965 0.5560816 0.5110051 -0.50341773
00000000: d9ca 023f ab16 00bf 6134 03bf 4ecc 02bf
00000010: b64c 03bf fb6c 09bf eb0e 063f 707e 0bbf
00000020: 8858 043f 1875 07bf 17d4 0abf bade 09bf
00000030: 27ef 0cbf 06ea fdbe f86a 07bf c8b0 05bf
00000040: 700d 03bf 1464 063f 65a0 fe3e 69bd 09bf
00000050: b71e 09bf a5f0 0abf 19e6 0cbf 57a7 febe
00000060: a81f 08bf 775f 0dbf f8d6 00bf df5c 08bf
00000070: ca4d 053f f24f 09bf 47df 0bbf d8fc 00bf
00000080: 38a8 fd3e 2e87 003f fd7c 07bf 81cf 053f
00000090: 55d2 01bf 51d5 0b3f 75b0 febe 65a8 07bf
000000a0: 1958 04bf 11c3 00bf fddc 03bf 0007 04bf
000000b0: 6d6d 07bf 0456 09bf d648 04bf a9d6 03bf
000000c0: 12b5 06bf ba3e 043f f0e0 07bf 8607 0ebf
000000d0: 4cd0 0bbf 2871 09bf 12a9 043f 12e8 01bf
000000e0: b760 063f c3d0 06bf a19f 08bf 7a9c 0dbf
000000f0: bd21 073f 947f 07bf 4c61 08bf 5094 03bf
00000100: 28c2 06bf 042f ff3e bf78 febe eb6c 003f
00000110: 28ca fdbe 6fd1 0cbf 46a2 0bbf 4092 ffbe
00000120: 62cb 01bf d125 013f 10d8 00bf ffa7 013f
00000130: e4be 05bf 8059 02bf 23b0 063f 0d6e 03bf
00000140: 721d 06bf bf61 00bf 936d 0d3f abca 0bbf
00000150: 4706 08bf 9c41 fe3e 72bb 0bbf ff10 08bf
00000160: 4c71 09bf 9ae4 053f 467b 003f cc66 0cbf
00000170: 4981 003f 15f2 0abf f2e0 09bf 985e 0dbf
00000180: da8d 01bf 66f0 0abf 853a 08bf 0e20 0bbf
00000190: 42c6 093f 9a77 01bf aa88 03bf fa7b 0abf
000001a0: d794 00bf 49dd 033f a076 05bf fd0a ffbe
000001b0: 974c 093f 6523 09bf c832 ff3e d31d 0bbf
000001c0: dc19 ff3e 3388 00bf 12d1 03bf 9d51 0e3f
000001d0: 5dc9 fe3e 39f8 013f 2c97 0b3f d4f0 0dbf
000001e0: 9866 0a3f c5a1 0dbf b0b4 0b3f 7544 02bf
000001f0: 4846 023f c847 013f 3193 0b3f 39d1 08bf
00000200: 3e1a ffbe 8434 08bf cea0 0abf ac89 013f
00000210: 1c78 083f dfb9 0c3f dc56 033f 57e7 003f
00000220: 86e4 0b3f 9831 003f 719a 02bf 837e fd3e
00000230: 0d79 013f f686 fd3e 5bca 08bf 5a95 fdbe
00000240: 2706 073f 5479 093f 50f3 043f 8765 04bf
00000250: c485 0a3f 71b4 07bf a1b5 053f fcbf fd3e
00000260: 0099 0cbf 62de 09bf 7c64 0d3f b468 0d3f
00000270: b72e 0abf e1dc 08bf 7e2e 093f b61c 0cbf
00000280: bcd5 0dbf d6ea 0ebf 9853 05bf 335a 043f
00000290: 7b61 03bf c655 08bf 3ae9 0bbf 5e99 05bf
000002a0: 666a 07bf 4790 0bbf 0064 0bbf 9933 023f
000002b0: 3188 083f bc7e 04bf 79a6 02bf 6fcc 053f
000002c0: 61e7 04bf 6d49 febe 8f84 02bf d522 08bf
000002d0: 2167 00bf e233 0a3f 6e28 0cbf cbcf 01bf
000002e0: a035 063f d1ca 033f 0504 08bf 9337 043f
000002f0: 2116 083f 030a 09bf 9ca0 fdbe a299 0ebf
00000300: 3e77 0dbf 5df2 013f 7e33 07bf 4703 0a3f
00000310: d60c 093f 48eb 0ebf 6e09 073f 9fd3 073f
00000320: ea10 0cbf 1a38 04bf 9b73 03bf 8cf5 09bf
00000330: c34c 0dbf d824 0f3f 8e6b 03bf 63bb 02bf
00000340: 42ec 0cbf 168d 033f 5cdb 08bf e1ca ffbe
00000350: 359e 0bbf b35c 043f 4cec 01bf b693 0bbf
00000360: 407f 073f 3863 febe 3b33 053f 3c14 0a3f
00000370: 473c 023f ff8c 073f c2f3 003f 28de 0cbf
00000380: 9e33 0ebf 513d fe3e cee5 02bf e2c9 063f
00000390: b9f3 0cbf 00af 01bf af1e 073f 5795 07bf
000003a0: 27e6 0c3f 5fe9 0ebf 3fce 093f 7100 0d3f
000003b0: 5f10 0e3f 28a4 063f a934 ffbe e1c4 093f
000003c0: 5e7e 093f 8752 0d3f e2fe 05bf 8c8c fdbe
000003d0: 5c08 0f3f 20b7 083f e31c 0c3f 934a 033f
000003e0: a1ce fe3e 261b 0a3f 1996 02bf 085f fe3e
000003f0: cb22 033f 5d5b 0e3f 3bd1 023f fcdf 00bf
