final_presentation/final_results/shallow/interval1/7000/2021-10-14_02-13-47/checkpoints/best_model_1_trial_52_validation_acc=0.6459.pt (torch, 462607 bytes, 6 tensors)

conv_time.weight f4 [20, 62, 90, 1]
00000000: ddb6 cebc d985 54bc f553 48bc 908d 9ebc
00000010: 5be8 43bc 30fa e23c 94ff e93c 1456 dabc
00000020: 045a 273c a475 123c 2b4d a3bc 5e14 5bbc
00000030: a293 6f3c 0bdb 603a 82a5 abbb ed19 523c
00000040: 720d c93c 59d5 dcbc 9d5a 033c 53f5 ec3c
00000050: cbbd f33b f758 b03c cdcc 27bc c926 e3bc
00000060: b0c8 e03b 00e7 adba 20ab 413c f5d2 943b
00000070: 9d99 43b9 4229 003c 7683 10bc 322b 4a3c
00000080: 42ee b73c dc83 ccbc 507a 08bc ccf8 2abc
00000090: 17f8 c03c abba 71bc dfea c7bc 3e54 d03c
000000a0: d397 cb3c a66c 833b d940 b5bc 2bb3 b5bc
000000b0: b018 71bc a00b df3c aefb e8bc 3cb5 e43c
000000c0: 21ee 7fbc b7d5 a33c 773a 443c 7f4c 633c
000000d0: f9df c23c ae00 c6bb b33b af3c 01c9 ca3c
000000e0: a620 25bc 6598 adbb ed7d 2e3c 762b ff3b
000000f0: 1818 2d3c dcba 9c3c b1df 55bb 89a3 4c3c
00000100: a729 b43c 9aee 4bbc ee1e ed3a 695f b6bc
00000110: 5958 923c d70a b83c 630a e3bc 9ebf d33c
00000120: 1e5b 373c d0c4 efbb d3b4 d2bc 2f9f da3c
00000130: 1988 e9b9 4918 6dbc a21d 4ebc a8e2 e93b
00000140: ddb7 17bc 59f4 69bc 2429 5abc ed56 c7bb
00000150: 401d 463b 59e8 ccba ab5a 9b3c 8b53 b23c
00000160: 71df 5fbc 5bc1 b33c 5a27 ef3c 53e2 cf3a
00000170: b3f8 a53c 8396 d93c 4f84 773c 74f7 e33c
00000180: 9892 d93c 8ae3 213b c0b9 35bb b7f0 483c
00000190: f243 ed3c ca38 dfbc f7c3 ddbb 91b2 72bc
000001a0: a582 73bc 97e3 9d3b ae60 9c3a f16a ef3c
000001b0: b80e 053c a118 db3c 8bb9 2dbc 254f f939
000001c0: 2a45 c33c f731 d6bc 9302 1f3c 6aa0 a3bc
000001d0: 3d82 38bc c854 bdbc 77df 3e3c ce72 a43b
000001e0: 4860 d0ba 773e ab3c 6e57 d03c 92c2 873c
000001f0: c9ce 803c b93f 47bc 5d99 fcbb 4857 3f3c
00000200: 86c9 0cbb e915 5f3c 2621 dabc 5504 cb3c
00000210: 2647 923c 143e bbbc de97 ad3c c957 a2bc
00000220: f917 2d3b b2f8 3bbc 6155 c43c 0df7 99bc
00000230: 95a5 033c 5b62 8d3c 345f 733c fdf5 b03c
00000240: fdaf 04bc 807d 0b3c 6a57 ab3c b613 b0bc
00000250: cf68 d83c 355f b1bc 09aa 4ebc 9314 97bc
00000260: b1d9 de3c 68bd 13bc b33f 9d3c 5d1c be3c
00000270: 83c1 d13c 1ba1 b1bc f7b0 ba3b 5a92 e9bc
00000280: c3f9 ad3c 111e d33c d280 82bb bb17 253b
00000290: 2575 ab3c 0cf4 ac3b bf1d 9fbc 20da 9238
000002a0: 56af 8a3a ddf1 9ebc 9bac 803c 216b 1e3c
000002b0: b864 753c 1832 00bc 6358 92bc d50c b33c
000002c0: 10fa d5bc 010a e2bc 5ee8 e1bb 1c43 96bb
000002d0: 49c0 a0bc 5efe bcbc d280 0fbc b73d 743c
000002e0: 6889 9a3b 9631 d13c 8000 0abc 1a11 14b9
000002f0: 95ce e8bb edbf 773c 5b06 973c 3272 d13b
00000300: a14a ef3c 4c95 53bb 071e 273c 7fb6 aa3c
00000310: 2f80 cdbc 6643 9b3c 6385 e33c 3f3d 8ebc
00000320: ed94 38bc 04da ca3c 5737 d03c 5d44 873c
00000330: 8a4d 20bc 6827 1dbc 1b43 a0bc 32c7 d43c
00000340: 684c 693c d4e4 e33b ea2d 6b3c e01e e43c
00000350: e01f 4a3c 187e 933b 1c62 1b3b 5a80 cd3c
00000360: 9615 dfba 817c fb3b 3bb0 afbb a036 ea3c
00000370: 0401 99bc 48ed 1b3c f5b6 b73c 05e8 b73c
00000380: 0388 543c be16 ad3c 1505 9abc 35d9 7fbb
00000390: cdb6 9dba 997c b63c 1573 b03c 10dd 0fbc
000003a0: da80 303c b7e9 ad3c e0ff 93bc f67f a1bc
000003b0: 1e8e 6e3c f958 c33b a9db a43c 5a66 533c
000003c0: 909c 47bc 733c a53b c415 edbb abe6 9dbb
000003d0: 146e 8cbc 624b 9ebb 987d c43c 8f1b a43c
000003e0: 5219 b53c 5a9a a5bc 4fda 813b 7791 3fbc
000003f0: f4e4 1b3c 047d 0e3c 5719 e03c 5fa6 eebb
-0.02523368 -0.012971365 -0.012227048 -0.019354612 -0.011957253 0.02770719 0.028564252 -0.026652373
0.0102143325 0.0089391805 -0.019934257 -0.013371555 0.014622601 0.0008577562 -0.005238236 0.012823564
0.024542544 -0.0269572 0.008017209 0.028925573 0.0074383966 0.021526797 -0.010241699 -0.027728455
0.0068598613 -0.0013267696 0.011820585 0.0045417496 -0.00018653875 0.007822337 -0.008820405 0.0123394
0.022452477 -0.02496522 -0.008329943 -0.010435294 0.023555798 -0.014753978 -0.024403987 0.025430795
0.024852669 0.0040107546 -0.022125648 -0.02218016 -0.014715359 0.027227223 -0.028440323 0.02791845
-0.015620739 0.019999368 0.01197683 0.013873219 0.02378844 -0.0060425615 0.021390771 0.02475405
-0.010078585 -0.005297708 0.01065014 0.0077871634 0.010564826 0.01913207 -0.0032634551 0.012490162
0.021992518 -0.012447024 0.0018090883 -0.022262292 0.017864393 0.022466106 -0.027714914 0.025848206
0.011191158 -0.007317163 -0.02572099 0.026687233 -0.00044542624 -0.014471122 -0.012580307 0.0071376152
-0.009260145 -0.014279448 -0.013315473 -0.0060833604 0.0030229837 -0.001563321 0.018964132 0.021768352
-0.013664112 0.021942785 0.029193569 0.0015860297 0.02026019 0.026561027 0.015107228 0.027827956
0.02655916 0.0024702274 -0.0027729124 0.012264422 0.028963063 -0.027248759 -0.0067677456 -0.014813081
-0.014862691 0.0048183906 0.0011930668 0.029225798 0.008121185 0.026745142 -0.010603319 0.00047551948
0.023836691 -0.026146872 0.009705204 -0.019973952 -0.01126152 -0.023111716 0.011649958 0.0050185686
-0.0015897835 0.020903809 0.025432315 0.01657227 0.015723603 -0.012161189 -0.007708712 0.011678524
-0.0021482422 0.013616064 -0.026627135 0.02478234 0.017856192 -0.02285675 0.02119058 -0.01981725
0.0026411994 -0.011472868 0.023966493 -0.01879456 0.008035083 0.017258814 0.014854241 0.021601671
-0.0080985995 0.008513808 0.020915706 -0.021493774 0.026417164 -0.021651844 -0.012613782 -0.018442428
0.027203413 -0.009017326 0.019195413 0.023206884 0.025604969 -0.021683266 0.0056973654 -0.028512169
0.02123726 0.025771173 -0.0039826417 0.0025191146 0.020929882 0.005278116 -0.019423364 7.0024515e-05
0.0010580819 -0.019402439 0.015707305 0.009669096 0.0149776265 -0.007824443 -0.017864412 0.021856705
-0.026120216 -0.02759266 -0.0068941554 -0.004585637 -0.019622939 -0.02307051 -0.0087587405 0.014907292
0.004716087 0.02553634 -0.008422971 -0.0001412075 -0.0071047046 0.015121442 0.018435648 0.006391787
0.02921039 -0.0032285033 0.01020003 0.020838974 -0.025085537 0.018953037 0.027773565 -0.017363189
-0.011265975 0.024762161 0.025417013 0.01651209 -0.009784112 -0.009591915 -0.019563248 0.02597389
0.014239408 0.0069547687 0.0143542085 0.027846754 0.012336701 0.0045011155 0.00237096 0.025085617
-0.0017019983 0.007674754 -0.0053615845 0.0285905 -0.018677242 0.0095170215 0.022426108 0.022449503
0.012971881 0.021129008 -0.018801251 -0.0039039378 -0.0012032628 0.02227621 0.02153925 -0.008780733
0.010772908 0.021229608 -0.018066347 -0.019714337 0.014560251 0.005961534 0.020124273 0.0129028205
-0.0121833235 0.0050426065 -0.0072352607 -0.0048187575 -0.017142333 -0.0048307637 0.023985669 0.020032672
0.0221068 -0.020215202 0.003962792 -0.011692396 0.009515036 0.008696798 0.027355833 -0.0072830166

bnorm.weight f4 [20]
00000000: a61e 8a3f c83e 8a3f 0f73 8b3f 6422 8a3f
00000010: 4117 8b3f 0c71 8b3f 6223 8c3f a3fb 893f
00000020: d9e1 893f ef55 8b3f baae 8a3f 6d69 8a3f
00000030: 422d 8a3f d303 8b3f 1878 893f 09d2 893f
00000040: d5b1 8a3f 2ff6 893f fbed 893f 8e45 8a3f
1.0790603 1.0800409 1.0894488 1.0791745 1.0866472 1.0893874 1.0948298 1.0779918
1.0772048 1.08856 1.0834572 1.0813423 1.0795062 1.0860542 1.0739775 1.0767223
1.083552 1.0778254 1.0775751 1.0802476

bnorm.bias f4 [20]
00000000: 227e 31bb 6f87 0fbc a933 b5bb 4486 983d
00000010: 5995 e5bc 0338 5c3c cf46 e7ba 968e 49bb
00000020: a9f8 c8b9 07cb 4aba 34fc 2c3b ffe4 5cbb
00000030: 18e8 a9bc 4446 02bb b647 f5bc e7ee 33bd
00000040: a75a 043d d57b d5bc bca3 b63c d380 a1bb
-0.0027083238 -0.008760317 -0.00552984 0.07447484 -0.028025316 0.013441089 -0.0017645004 -0.0030755154
-0.0003833224 -0.0007735942 0.0026395442 -0.0033705828 -0.020740554 -0.0019878307 -0.029941421 -0.043929007
0.032313015 -0.026060024 0.022294872 -0.004928687

bnorm.running_mean f4 [20]
00000000: 8e98 c1ba a892 953a ee52 153b d1b4 e73a
00000010: d631 99bb 040c e33b 7366 fd3b d442 873b
00000020: 9e9c c5ba e48c be3a b85d 623b a2f5 9c3b
00000030: 895b 9bbb 28d5 283b 45ff 85bb 39fa 0a3b
00000040: 654d 58bb 416d 38bb 28fe e23a 75ee b7ba
-0.0014770196 0.0011411505 0.0022785026 0.0017677789 -0.0046751304 0.0069289226 0.00773316 0.0041278396
-0.0015076583 0.0014537838 0.0034540724 0.004790024 -0.0047411365 0.0025761817 -0.0040892684 0.0021206273
-0.0033005115 -0.0028141292 0.0017318176 -0.0014032858

bnorm.running_var f4 [20]
00000000: 95c9 bc40 c7a4 9c40 fe2e 0741 02f4 2841
00000010: 8e84 4640 1c12 0541 e526 2441 697d 0441
00000020: f37b 8040 5e45 5540 4261 4a40 2bf0 9e41
00000030: 1908 e740 17a2 e040 9ffd 0a41 6e9e c140
00000040: 696d 8040 7460 1441 b1c7 7940 75e0 9640
5.899607 4.8951144 8.448973 10.559572 3.1018405 8.316921 10.259496 8.280618
4.0151305 3.3323588 3.1621861 19.86727 7.2197385 7.0197864 8.686919 6.0505896
4.0133557 9.273548 3.9028132 4.7148995

conv_classifier.weight f4 [1, 20, 163, 1]
00000000: 1bf7 04bc f5dd f93c 2f79 5a3c e963 5fbc
00000010: 3085 d8bc f578 273d 51b1 183c 1255 ddbc
00000020: 5435 24bd f890 dcbc cbca ad3c 912a 003d
00000030: dc9d d23c f10f 3d3b ddd0 f5bc f1c8 07bd
00000040: 45df 3fbc 6f68 7bbc c7d8 bcbc b5e7 b2bc
00000050: 400f 49bd 0b6d ac3c 97c5 98bc 3e28 023d
00000060: aced a0bb 0264 5d3c 9077 b53c e018 103d
00000070: 4f2f 4fbc 4740 fc3c fb20 25bc 7d13 0bbd
00000080: c79f 14b9 4a8b 063d 3688 ae3c 65ac 57bc
00000090: dd1c 3a3c cb9a b13c 9e11 46bc 5ea7 1d3c
000000a0: 3824 85bc 6bad b1bc df33 063d f7d0 2a3b
000000b0: c273 873c 13f1 afbc 5c95 bf3c f1ab 8b3c
000000c0: 0554 28bc 36e3 86bc 1321 ab3c 1cfd 463c
000000d0: a5dd 0fbd 259a c73c bd58 163d d305 04bd
000000e0: cea0 98bc 99c5 e6bc 5379 94bb b88a e43c
000000f0: e5fb 59bc dcd8 30bb ed03 57bb ba8d 553c
00000100: 6643 803b 098e 193d fed3 92ba 7693 723c
00000110: 0dcc 17bd d867 353c 51bb 073d 1c4b 543c
00000120: e664 84bc 78d7 a4bc dd4f edbb bd50 6abc
00000130: 5762 e53c 79dd 623c 08bd cabc 0cd2 163c
00000140: 8848 bf3c 148d aabb d07e c4bc f906 e33b
00000150: bc87 d53b a630 6e3c 3abc c1bc b532 f7bb
00000160: dbe2 f23c 437f d9bc 91d3 c8bc aa90 383c
00000170: f104 ebba 8d83 013d 2b6b d63b 2e4c 2cbd
00000180: e4b8 743c d04b 193d 1c3d cdbc 141c a83c
00000190: 1e85 b5bc 53cf 8d3b 277c a6bc e704 17bc
000001a0: 3c1a 2e3d e5d2 8cbc 8a66 a3bc e1d8 bb3c
000001b0: 17fa c8bc 92f5 8c3b 5485 8a3c 6cc4 cfbc
000001c0: 162d db3c 8617 3b3c 2441 ebbb 516f 9e3b
000001d0: f828 b5bc 961f e83a 8377 00bd df75 19bc
000001e0: 696c b83b 069f 263d 6d2d b1bc 90c9 f0bc
000001f0: 8c4b 03bd 508d c03b 6ecb 1ebd d0e9 103d
00000200: 893d f4bc a9cf 12bd ce03 0b3d 648b 07bc
00000210: 530d b9bc fca0 003c 9af5 0aba 2cbb d03c
00000220: 4157 dc3c 306c 25bd a8fb b1bc 24f3 bcbc
00000230: 4cd3 763c 04b4 22bc 8ff1 8fbc b1be ae3c
00000240: 57c2 37bd cd0b be3c 4074 683c cfe6 023c
00000250: 392e 87bc cb5d c93b b01c 6bbb be4c 593c
00000260: 8923 58bc ebe6 c9ba fd59 8c3c 6006 243d
00000270: db44 903c 0487 78bc 79d9 173d 3d71 b0bc
00000280: e6d5 e83b f4f1 1e3d a0e9 233d 4287 0b3d
00000290: 5107 babb c62b 3a3d 8d02 9fbc 1305 413d
000002a0: d50c 7a3c 01d2 a8b9 c808 8fbb 83f9 b6bc
000002b0: c3f2 66bc 080d e43c 3853 f63c 378e 41b8
000002c0: 36bb b4bc 7721 b73a f4af 13bc 1dd3 c4bc
000002d0: c645 85bc 59e0 303c 3ab7 3ebc 9845 913c
000002e0: 6762 2b3d f912 093a 76d0 133d 44a9 073d
000002f0: fb62 9b3c a8bb e23c 5df3 04bb 8c15 193d
00000300: 9623 0ebc 55a5 f1bc 0459 ab3c d5ff 84bb
00000310: a744 953b 52ef 3b3c 691d 973c 9626 993c
00000320: 14ab ce3a 41da 3dbc 3c69 95bc d6c0 203d
00000330: b860 fc3c d1e8 cbbb 29c0 9f3c 4fa2 c0bb
00000340: f2b1 bf3c e6eb c6bc 94a0 e33c 7a37 893c
00000350: b043 10bc d136 7ebc 6eb8 ef3a 9b9a fe3c
00000360: 07a0 0a3c 6caa f43b dac3 ed3c 322f 363d
00000370: 83cc 88bb a550 15bd f70c 01bd 2cf2 9f3c
00000380: 1cda 0dbc bfc8 82bc f104 3bbc 6a40 c4bc
00000390: b4e6 16bc 7062 d4bb 5b05 053c 0243 86bc
000003a0: fd42 043c c11c 2c3d 061a 193c 05ea 8bbc
000003b0: 74ea aa3c ca9a 10bb be6d 983c 5328 153d
000003c0: b0f8 f9bc 865e e0bb b962 d5bc a67d 4a3c
000003d0: 1f83 3d3c 016a 96bc 1a82 b23c bb63 8f3c
000003e0: 0067 83bb 346c acbc c823 40bc d571 5fbc
000003f0: 8483 5c3c 4bdd 223c 595d f2bc d19f fdbb
-0.008115555 0.030501345 0.0133345565 -0.01363466 -0.026430696 0.040886838 0.009319619 -0.027018104
-0.04008992 -0.026924595 0.021214863 0.031290594 0.025710039 0.0028848613 -0.03000682 -0.033150617
-0.011710946 -0.015344723 -0.023052586 -0.021839002 -0.04908681 0.02104809 -0.018648906 0.03177666
-0.004911145 0.013512613 0.022151738 0.035179973 -0.012645557 0.030792369 -0.010078664 -0.033954132
-0.00014173902 0.03284768 0.021305185 -0.013163661 0.011359421 0.021680256 -0.012089161 0.009622423
-0.016252622 -0.021689137 0.032764312 0.0026064494 0.01653469 -0.021477258 0.02338665 0.017049761
-0.010273938 -0.016465764 0.020889794 0.012145307 -0.035123486 0.024365494 0.03670572 -0.032232117
-0.018631365 -0.028170394 -0.0045310645 0.027898178 -0.013304685 -0.0026984727 -0.0032808736 0.0130342785
0.0039142845 0.03748897 -0.0011202095 0.014805665 -0.037059832 0.011072122 0.033137623 0.012957361
-0.016161393 -0.020122275 -0.0072421865 -0.014301476 0.028000994 0.0138467485 -0.02474834 0.0092053525
0.023350015 -0.005204806 -0.02398625 0.0069283214 0.006516425 0.014537966 -0.023649324 -0.0075438865
0.029649189 -0.02654994 -0.024514945 0.011264959 -0.001793055 0.031619597 0.006543537 -0.042064838
0.0149366595 0.037425816 -0.025053553 0.020521201 -0.022158202 0.0043276935 -0.020322872 -0.009217477
0.042505488 -0.017190406 -0.019946355 0.022930564 -0.024533315 0.004301735 0.016909279 -0.025362216
0.026754897 0.011419183 -0.007179396 0.0048350473 -0.022114262 0.0017709609 -0.031363975 -0.009366482
0.005628158 0.040679 -0.021628106 -0.029392987 -0.03205447 0.0058762208 -0.038768224 0.03537923
-0.029814498 -0.03584257 0.033939175 -0.008272979 -0.022589361 0.007850882 -0.000530088 0.025479876
0.026897075 -0.04038638 -0.021726444 -0.023065157 0.015065026 -0.009930614 -0.017571239 0.021331163
-0.04486307 0.023198986 0.014187872 0.007989599 -0.016501533 0.006145214 -0.0035875253 0.013262926
-0.013192066 -0.0015403902 0.017132754 0.040045142 0.017610958 -0.015168909 0.037072632 -0.021538371
0.007105577 0.038804963 0.040017724 0.03406454 -0.0056771417 0.0454519 -0.019410396 0.04712398
0.015261848 -0.00032199922 -0.0043650605 -0.022335773 -0.014095965 0.027838245 0.030068979 -4.6147234e-05
-0.022061925 0.0013971765 -0.009014118 -0.024026448 -0.016268622 0.010795676 -0.011640364 0.01773338
0.04184189 0.00052289624 0.036087476 0.03312041 0.018968096 0.027677372 -0.0020286657 0.037374064
-0.008675477 -0.029497782 0.02091647 -0.004058818 0.004555303 0.011470633 0.018446641 0.018695157
0.0015767538 -0.01158768 -0.018238656 0.039246403 0.030807838 -0.0062228222 0.019500809 -0.0058787237
0.02340028 -0.024282407 0.02778653 0.016750086 -0.0088052 -0.015515999 0.0018289217 0.031079581
0.008461005 0.007466605 0.029024053 0.044478603 -0.0041747703 -0.03645386 -0.031506505 0.019524656
-0.008657958 -0.015964864 -0.011414752 -0.023956496 -0.009210277 -0.006481461 0.008118953 -0.016389374
0.008072612 0.04201961 0.009344583 -0.017079363 0.02086375 -0.0022064918 0.018607017 0.03641541
-0.030514091 -0.0068472056 -0.026048051 0.0123590585 0.011566906 -0.018361093 0.021790553 0.01750361
-0.0040100813 -0.021047689 -0.011727281 -0.0136379795 0.01345909 0.009940456 -0.029585527 -0.007739999
