final_presentation/final_results/shallow/interval1/7000/2021-10-14_02-13-47/checkpoints/best_model_1_trial_59_validation_acc=0.9664.pt (torch, 760143 bytes, 6 tensors)

conv_time.weight f4 [30, 62, 100, 1]
0	0x3bcbcd96	0.006219576
1	0xbc8d0af8	-0.017217144
2	0x3c81722a	0.015801508
3	0x3bb6c691	0.00557787
4	0x3c847318	0.016168162
5	0x3c97b58c	0.018519185
6	0x3ca5a56a	0.020220477
7	0x3c983954	0.018582024
8	0x3c1fb24a	0.009747097
9	0x3c8f063d	0.01745903
10	0xbb80082b	-0.0039072237
11	0x3ccb7f01	0.024840834
12	0x3cafa559	0.021441149
13	0x3c8b2d5b	0.0169894
14	0x3bfde8fd	0.0077487216
15	0x3c5daeb5	0.013530423
16	0x3bd13939	0.0063849953
17	0xbc05a266	-0.008156395
18	0x3cd4a167	0.025955869
19	0x3c39a2b7	0.011330298
20	0x3c9ac13f	0.018890975
21	0xbc99a4ca	-0.018755335
22	0x3c0ad9d3	0.008474785
23	0xbcc17286	-0.02361418
24	0x3c90dace	0.01768246
25	0x3c459345	0.012059038
26	0x3ae3dbb5	0.0017384203
27	0xbc7ade01	-0.015311719
28	0xbbbf3bc7	-0.0058359834
29	0xbad1a794	-0.0015995377
30	0x38e5b2a0	0.000109528424
31	0x3c61f1bb	0.013790543
32	0x3cc2b167	0.023766233
33	0x3ca4ee01	0.02013302
34	0x3c156ac4	0.009119693
35	0x3ca04dfa	0.019568432
36	0x3c95343f	0.01821339
37	0xbc8481d9	-0.016175197
38	0xbcc6c659	-0.024264501
39	0xba0ebb1d	-0.0005444752
40	0x3c153992	0.009107964
41	0xbce9d88d	-0.028545642
42	0xbcb9a4d0	-0.022661597
43	0xbcb52bde	-0.022115644
44	0xbc83b93c	-0.016079538
45	0xbc25c890	-0.010118619
46	0xbcecfd78	-0.028929457
47	0xbb0e7c65	-0.0021741625
48	0x3bea42b1	0.0071490635
49	0xbc3d988b	-0.011572014
50	0xbb550b4d	-0.0032507956
51	0x3bfc407a	0.007698116
52	0x3c21412e	0.0098422
53	0xbb29fbdb	-0.002593747
54	0xbc1462e4	-0.0090567805
55	0x3c9cdf09	0.01914932
56	0x3ba9fee2	0.005187855
57	0xba26bba3	-0.00063603575
58	0xbc2d799b	-0.010588075
59	0x3cd110b5	0.025520662
60	0xbc87d981	-0.016583206
61	0xbca637c5	-0.020290265
62	0x3b8fc3c3	0.0043873503
63	0xbc908068	-0.017639354
64	0x3bfa950a	0.0076471614
65	0x3c094e41	0.008380474
66	0x3cae9866	0.021312904
67	0xbc91b70a	-0.017787475
68	0xbc22272f	-0.009897037
69	0x3c793874	0.015211213
70	0x3c8d8a38	0.017277822
71	0x3cf6fd2a	0.030150015
72	0x3ce9aac0	0.028523803
73	0xbbfd182b	-0.0077238283
74	0x3c197dd6	0.0093683805
75	0x3cbd1631	0.02308187
76	0xbc9f29d6	-0.019429129
77	0xbb51ae13	-0.0031994625
78	0x3b11b2f2	0.0022231904
79	0x3cefd838	0.029277906
80	0x3c2657d6	0.010152778
81	0xbc8dc002	-0.01730347
82	0x3bc4fd7e	0.006011664
83	0x3b279c4a	0.0025575333
84	0xbbd68fb9	-0.006547895
85	0x3c7ca783	0.015420797
86	0x3c9f0731	0.019412609
87	0xbbd38d58	-0.0064560585
88	0x3ca7059e	0.02038842
89	0xbbe773ce	-0.0070633655
90	0x3cff9e1f	0.031203328
91	0x3c21bb6c	0.009871345
92	0x3cdace88	0.02670981
93	0xbb6c5323	-0.0036060296
94	0x3cbc6df2	0.023001645
95	0x3aec0a37	0.0018008415
96	0x3c9e335c	0.0193116
97	0xbc4e8580	-0.012605071
98	0xbc02eab6	-0.00799053
99	0x3b0a7b10	0.002113048
100	0x3c2444ba	0.010026151
101	0xbcb3712c	-0.02190455
102	0x3cbf92f9	0.023385512
103	0xbbf6ee1f	-0.0075357105
104	0xbc966f2d	-0.01836356
105	0xbca42b4d	-0.020040179
106	0x3baf77dc	0.0053548645
107	0xbc9f65e9	-0.019457774
108	0x3cace151	0.021103533
109	0x3bf21889	0.0073881787
110	0x3b997441	0.004683048
111	0x3aa18d66	0.0012325465
112	0x3beafe5b	0.007171435
113	0xbc9f86c2	-0.019473437
114	0x3be4e4a4	0.006985264
115	0x3c5951dd	0.013264147
116	0x38a4d1de	7.85922e-05
117	0x3c2295a4	0.009923372
118	0xba84dd93	-0.0010136835
119	0xbb99e2b6	-0.0046962155
120	0x3cac3573	0.02102158
121	0xbc74475a	-0.01490959
122	0x3cba730f	0.022759942
123	0xbc014d80	-0.007892013
124	0x3caa701d	0.020805413
125	0x3c9b759f	0.018976985
126	0x3c810b3d	0.01575243
127	0xbca65ce4	-0.020307966
128	0x3c8dc7dc	0.017307214
129	0xbcbcbd93	-0.023039615
130	0xbcbdd576	-0.023173075
131	0xbc21aaf7	-0.009867421
132	0x3cadfd03	0.02123881
133	0x3ca59e22	0.020217005
134	0xbc90b3d1	-0.017663868
135	0xbce6b83c	-0.028164022
136	0xbb37ba6c	-0.00280347
137	0x3cbaaa82	0.022786383
138	0x3c5a8572	0.01333748
139	0xbc1d334c	-0.00959475
140	0xbb3372e2	-0.0027381708
141	0x3c6cbc77	0.01444923
142	0xba704e32	-0.00091669254
143	0x3b5da4bd	0.0033820115
144	0x3c9ae433	0.018907642
145	0xbb905cc2	-0.004405589
146	0xbc0fe7ab	-0.008783261
147	0xbcc80db0	-0.02442059
148	0x3c926db1	0.01787457
149	0xba425863	-0.00074136833
150	0xbcbf2a1a	-0.023335505
151	0x3c0b939a	0.008519078
152	0xbaf126dc	-0.0018398422
153	0xbb95e54f	-0.004574455
154	0xbcb707dd	-0.022342617
155	0x3a8952e4	0.0010476974
156	0xbcd2acfa	-0.025717247
157	0x39f414be	0.0004655476
158	0x3c907861	0.017635526
159	0xbc370683	-0.011170986
160	0x3ccab827	0.024746014
161	0xbc869482	-0.016428236
162	0x3c87fd31	0.016600223
163	0x3ccaca77	0.024754746
164	0xbc239f6b	-0.009986739
165	0x3c2dd8aa	0.010610739
166	0xbbc15b4e	-0.005900777
167	0xbbdf9e3a	-0.006824282
168	0x3c043f42	0.008071722
169	0xbc1351e8	-0.008991696
170	0x3c8708f2	0.016483758
171	0x3cbf1496	0.023325246
172	0xbc84c282	-0.01620603
173	0xbc846660	-0.016162097
174	0xbc3bd5db	-0.011464561
175	0xbc6323c9	-0.013863512
176	0x3cc2cd80	0.02377963
177	0x3c2f9a6c	0.010717969
178	0x3bc4aaad	0.0060017915
179	0x3caea7b3	0.0213202
180	0x3c1cfd02	0.009581806
181	0xbc8efeed	-0.017455542
182	0x3c9fb81c	0.01949697
183	0x3a9bccf9	0.0011886648
184	0x3b474e69	0.0030411726
185	0x3ca4848b	0.020082733
186	0xbc6da671	-0.014505015
187	0x3c8322f2	0.016007874
188	0x3c1dfd86	0.009642964
189	0xbb467d2a	-0.0030287006
190	0x3c706bf0	0.014674172
191	0xbc112c67	-0.008860684
192	0xbc02bddd	-0.007979837
193	0x3c8eae2d	0.017417038
194	0x3ccfc3a9	0.025361853
195	0xbc47cbae	-0.012194557
196	0xbbb543fd	-0.0055317865
197	0xbbeeca47	-0.007287297
198	0xbc644832	-0.013933228
199	0xb8c68e6c	-9.467904e-05
200	0xbc222cf5	-0.009898414
201	0xbc965de3	-0.018355316
202	0xbac68528	-0.0015145885
203	0xbca4e949	-0.02013077
204	0x3ca6f17b	0.020378819
205	0xbb0172e2	-0.0019752313
206	0xbc8ba51e	-0.017046507
207	0x3b608284	0.003425748
208	0x3c800f6f	0.01563236
209	0xbb3bbd52	-0.002864678
210	0x3c8ee69f	0.017443953
211	0x3c92e689	0.017932193
212	0x3c2a5208	0.010395534
213	0x3b5bc382	0.003353328
214	0x3bd43c52	0.0064769173
215	0x3c611602	0.013738157
216	0xbbb97bf9	-0.0056605306
217	0xba9f2da4	-0.0012144339
218	0xbc894a92	-0.01675919
219	0x3c5d6e1a	0.01351502
220	0xbbcc40d5	-0.0062333145
221	0x3bdefd37	0.006805088
222	0x3caaf939	0.020870792
223	0xbc5c8313	-0.013458985
224	0xbcb19e4c	-0.021681927
225	0x3ba386cb	0.004990434
226	0x3c65a121	0.014015467
227	0x3be13369	0.0068725836
228	0x3cad8e66	0.021186065
229	0x3b1fbe82	0.0024375026
230	0xbc426bce	-0.011866523
231	0x3b0d7cd0	0.0021589287
232	0xbcba1b2a	-0.022718031
233	0xbbbdd18b	-0.0057928017
234	0xbbbed67e	-0.0058239093
235	0x3c480bb6	0.012209823
236	0xbcab04d7	-0.020876331
237	0x3c46cdb0	0.012134001
238	0xbb804dbd	-0.003915517
239	0xbc07565f	-0.008260339
240	0x3ca0b0f7	0.019615633
241	0xbcc125f7	-0.023577673
242	0x3c4b103c	0.012394007
243	0xbc05c0b6	-0.008163622
244	0xbc9ce4a5	-0.019151995
245	0x3a88b9c4	0.0010431339
246	0xbbc43488	-0.0059877075
247	0xb95da527	-0.00021137726
248	0xbc8d8f11	-0.017280133
249	0xbc8c3637	-0.017115695
250	0xbc4977b4	-0.012296606
251	0xbc830d8d	-0.015997672
252	0x3cccb241	0.024987342
253	0x3ccf796a	0.02532645
254	0xbcaafbcd	-0.020872021
255	0x3ba00f43	0.004884632

bnorm.weight f4 [30]
0	0x3fade587	1.3585671
1	0x3fa95817	1.3230008
2	0x3fbb744b	1.4644865
3	0x3fb11d26	1.383702
4	0x3fa821ca	1.3135312
5	0x3fa5ff5c	1.2968554
6	0x3fb0b4be	1.3805158
7	0x3fae57f1	1.3620588
8	0x3f9ff6fd	1.249725
9	0x3faa4242	1.330147
10	0x3faa4038	1.3300848
11	0x3facd7a1	1.3503305
12	0x3fb0fbc4	1.3826833
13	0x3fafdb4a	1.3738797
14	0x3fab010f	1.3359698
15	0x3fab9e71	1.3407727
16	0x3fab7f07	1.3398141
17	0x3fa8cfa1	1.3188363
18	0x3fab1c8c	1.3368087
19	0x3faabf2f	1.3339595
20	0x3fa83682	1.3141634
21	0x3fac0cf2	1.344145
22	0x3fa7ed31	1.311926
23	0x3fabc08d	1.3418137
24	0x3fb37ce6	1.4022491
25	0x3fb330f5	1.3999316
26	0x3f98ada9	1.1927997
27	0x3fb0d817	1.3815945
28	0x3fab40cf	1.3379153
29	0x3fb3d888	1.4050455

bnorm.bias f4 [30]
0	0xbe57945f	-0.21052693
1	0xbe18ed0b	-0.14934175
2	0x3e8c0d93	0.27354106
3	0xbe8f80a4	-0.28027833
4	0x3e459400	0.19294739
5	0x3e578505	0.21046837
6	0xbdd2656b	-0.1027325
7	0x3d6c68c0	0.057717085
8	0x3f3f4931	0.74721056
9	0x3e127136	0.14300999
10	0x3b6ea9db	0.003641716
11	0xbe8a537e	-0.27016824
12	0x3dc47b9c	0.09593889
13	0x3da7bfbd	0.08190868
14	0x3e64fd29	0.22362198
15	0xbeb9e511	-0.36307576
16	0x3e093a58	0.13401163
17	0xbd338cdf	-0.043835517
18	0x3da196ed	0.07890115
19	0x3d3fa17f	0.046784874
20	0xbe270e15	-0.16313966
21	0x3edec20e	0.43507427
22	0xbe16ad9a	-0.14714661
23	0x3d8f7ac0	0.070058346
24	0xbdd133a0	-0.10214925
25	0xbe01e40d	-0.1268465
26	0x3f565502	0.8372346
27	0x3dc2b88a	0.09507854
28	0x3d878518	0.066171825
29	0xbbd30acd	-0.0064404965

bnorm.running_mean f4 [30]
0	0xbd513f54	-0.051085785
1	0x3c2f475d	0.010698167
2	0xbd520254	-0.05127175
3	0xbc0323cf	-0.008004143
4	0x3b2bd05b	0.0026216719
5	0x3c041be3	0.008063289
6	0xbd0d93f8	-0.034564942
7	0x3cd29a67	0.02570839
8	0x3cd295db	0.025706222
9	0x3c6114a7	0.013737834
10	0x3d2d6994	0.042337015
11	0xbb9d4d2e	-0.0048004603
12	0x3bda5c7d	0.0066638575
13	0x3d22bf50	0.03973323
14	0x3d5059f3	0.050867032
15	0x3cb2eb13	0.021840608
16	0xbcbbdb05	-0.022931585
17	0xbcb9cddc	-0.02268117
18	0xb96ac12d	-0.00022387943
19	0x3cd197db	0.025585106
20	0xbc8c93ce	-0.017160323
21	0xbbc749d2	-0.006081798
22	0xbc101cea	-0.008795956
23	0xbd01e13e	-0.03170895
24	0x3ccfbd6e	0.025358882
25	0x3cfe7d6e	0.031065669
26	0xbd44ebdd	-0.0480765
27	0x3ab48604	0.001377285
28	0x3ca0d2a1	0.019631686
29	0xbd7dc092	-0.061951227

bnorm.running_var f4 [30]
0	0x42429de3	48.654186
1	0x423acf38	46.702362
2	0x42b15aca	88.67732
3	0x42353bd6	45.308434
4	0x423eac73	47.668407
5	0x422419c2	41.025154
6	0x41e916fd	29.136225
7	0x420c975e	35.14782
8	0x4310c9e2	144.7886
9	0x41fb287e	31.394772
10	0x422b43cb	42.816204
11	0x426792fb	57.893536
12	0x428c8227	70.2542
13	0x423353cd	44.831837
14	0x42194f8e	38.32769
15	0x425d9c47	55.402615
16	0x421a6733	38.60078
17	0x4225f1eb	41.486248
18	0x41c57c24	24.685616
19	0x4230b020	44.171997
20	0x4229afa0	42.42151
21	0x425ec478	55.691864
22	0x422b5181	42.829594
23	0x42016315	32.34676
24	0x4277eba2	61.98011
25	0x42839f96	65.81169
26	0x43176673	151.40019
27	0x4237aafd	45.91698
28	0x41e7d440	28.978638
29	0x4276b813	61.67976

conv_classifier.weight f4 [1, 30, 108, 1]
0	0x3dc3684b	0.09541377
1	0xbca84723	-0.020541733
2	0x3da29022	0.079376474
3	0x3c7d1e23	0.01544908
4	0x3d277c0d	0.04088979
5	0x3e17f456	0.148393
6	0x3c2ea41e	0.010659246
7	0x3cc1acfe	0.02364206
8	0x3d1f1368	0.038836867
9	0xbd898f74	-0.06716815
10	0xbdec5a33	-0.11540642
11	0x3d078926	0.03308978
12	0x3d0cd115	0.034379084
13	0xbcc598bb	-0.02412068
14	0xbdb09b44	-0.086233646
15	0xbd4cecc7	-0.050030496
16	0x3b9ebb30	0.004844092
17	0x3ce420d6	0.027847689
18	0x3dc4b001	0.096038826
19	0x3d0e6a4c	0.03476934
20	0xbd68b619	-0.056814287
21	0x3cf815a2	0.030283753
22	0xbd3e9d1e	-0.046536557
23	0xbceb2dc9	-0.028708356
24	0xbd8d1076	-0.06887905
25	0xbc72864a	-0.014802525
26	0x3e05901d	0.13043256
27	0x3d9d0312	0.07666601
28	0xbc989e39	-0.018630134
29	0xbd77c64b	-0.06049184
30	0x3dd4b1eb	0.10385498
31	0x3d180cbf	0.03712153
32	0x3d14d2dd	0.036333907
33	0xbd86e2fd	-0.06586263
34	0x3c45149d	0.01202884
35	0xbd453efb	-0.048155766
36	0x3c2a3240	0.010387957
37	0x3d7fa29e	0.062410943
38	0x3d69697d	0.056985367
39	0xbd5058df	-0.050866004
40	0xbd737a8b	-0.059443038
41	0xbcb7e9f2	-0.022450421
42	0x39c12bb1	0.0003684438
43	0xbd96197d	-0.0732908
44	0xbbe820ae	-0.007083974
45	0x3990edb1	0.00027642914
46	0x3b03d7df	0.0020117683
47	0x3d8711e0	0.06595206
48	0x3d38cfaa	0.04511992
49	0xbdab427c	-0.0836229
50	0xbde12718	-0.10993785
51	0x3df727c7	0.12068134
52	0xbd542eec	-0.05180256
53	0x3d859968	0.065234005
54	0xbd87d3f5	-0.066322245
55	0x3c559fcc	0.013038587
56	0xbc4dce54	-0.0125613995
57	0xbdad3cba	-0.08458848
58	0xbdb9097f	-0.09035014
59	0xbc0f5e38	-0.008750491
60	0xbc7f5deb	-0.015586357
61	0xbd7436a8	-0.059622437
62	0xbddd719c	-0.10812685
63	0xbd7917b2	-0.060813613
64	0x3d23e334	0.0400116
65	0xbe15ace9	-0.14616741
66	0x3d54c6d4	0.05194743
67	0xbce3ae26	-0.027793001
68	0x3bc33fca	0.005958532
69	0xbd0234b8	-0.031788558
70	0xba89a8af	-0.0010502542
71	0x3c9abb0f	0.018888025
72	0xbd037ca1	-0.032101277
73	0xbca77ff1	-0.02044675
74	0xba890a87	-0.0010455408
75	0x3d32e84a	0.04367856
76	0xbd189707	-0.037253406
77	0xbd121428	-0.035663754
78	0x3d08c91e	0.033394925
79	0x3d3cadae	0.04606407
80	0x3d017444	0.03160502
81	0x3c63c238	0.013901286
82	0x3d4bed62	0.049786933
83	0x3c821f30	0.015884012
84	0xbd1200f4	-0.03564544
85	0xbdadb04e	-0.08480893
86	0xbca3dc06	-0.020002376
87	0x3d292ca1	0.041302327
88	0x3d78131a	0.06056509
89	0xbc83d32c	-0.016091906
90	0xbd55495a	-0.052071907
91	0xbc9a9a4e	-0.018872406
92	0xbb580906	-0.0032964363
93	0x3b22ad18	0.002482241
94	0x3cd94f76	0.026527148
95	0xbdeb25d1	-0.11481822
96	0xbdff4682	-0.1246462
97	0x3c8d1cc6	0.017225634
98	0x3d6214d6	0.055195652
99	0x3dbb1ac5	0.09135965
100	0x3d2847a0	0.041083932
101	0xbbc5ddce	-0.006038404
102	0x3bc89d79	0.006122288
103	0xbe023bad	-0.12718077
104	0xbdeb1e15	-0.11480347
105	0xbc7828b5	-0.015146424
106	0xbbd1dc67	-0.006404448
107	0xbdbcc5fe	-0.092174515
108	0x3dc19af1	0.09453381
109	0xbb3a79fb	-0.0028454054
110	0x3cb1e0c3	0.02171362
111	0xbe1ec1ac	-0.15503567
112	0x3d926bf6	0.07149498
113	0xbd622d32	-0.055218883
114	0x3d3601b5	0.04443522
115	0xbcec9945	-0.028881678
116	0x3dabe394	0.083930165
117	0xbcde24ab	-0.027117094
118	0x3d70d06b	0.058792513
119	0x3b8a101e	0.004213347
120	0xbd140da5	-0.036145825
121	0x3cf53e28	0.029936865
122	0x3d1c6bfa	0.038188912
123	0xbcf3f927	-0.029781891
124	0xba976664	-0.00115509
125	0xbda61545	-0.081095256
126	0x3d9ea4aa	0.07746251
127	0xbc1563af	-0.009118005
128	0x3db0c753	0.08631768
129	0x3bc82c16	0.006108771
130	0x3c84b0bf	0.01619756
131	0xbd2cebb6	-0.04221698
132	0x3ccd603f	0.025070308
133	0xbd1d7a13	-0.038446497
134	0x3de767c3	0.11299088
135	0xbd066c04	-0.032817855
136	0x3d98cae0	0.0746057
137	0x3cd310ca	0.025764842
138	0xbbb12b1f	-0.0054067518
139	0xbdc57c61	-0.09642864
140	0x3d577646	0.05260303
141	0x3db6e78f	0.08930885
142	0xbc0ed0e3	-0.008716795
143	0x3d4c4707	0.049872424
144	0xbc53d278	-0.012928598
145	0x3c8058c3	0.015667325
146	0xbc409dff	-0.011756419
147	0xbdb4a200	-0.088199615
148	0xb9ccfeeb	-0.0003909984
149	0x3c04b7c0	0.00810045
150	0xbd266d81	-0.040631775
151	0x3e4813b3	0.19538765
152	0xbd85d62f	-0.06534993
153	0xbd447e15	-0.047971804
154	0x3ce346ac	0.02774366
155	0xbd4e7148	-0.050401002
156	0x3dd6b473	0.10483637
157	0x3b8ff570	0.004393272
158	0xbd3e5904	-0.04647161
159	0x3d4d37af	0.050101932
160	0x3d486010	0.048919737
161	0x3c98c11a	0.018646766
162	0x3d6a7248	0.057237893
163	0x3d8a8e3c	0.0676541
164	0x3e11c81f	0.14236496
165	0x3ca48456	0.020082634
166	0x3ce86236	0.028367143
167	0x3d114041	0.035461668
168	0xbc849754	-0.01618544
169	0xbd909e0a	-0.070613936
170	0x3daba658	0.08381337
171	0xbd4e38ee	-0.05034726
172	0x3d837a1a	0.064197734
173	0xbd4032de	-0.04692351
174	0xbd413c7c	-0.047176823
175	0xbe1c4d2d	-0.15263815
176	0x3de383e6	0.11109142
177	0xbd5bcfb9	-0.053664897
178	0x3cc6419a	0.024201203
179	0x3d283e70	0.04107517
180	0xbd079beb	-0.03310768
181	0x3c2eb9c0	0.010664403
182	0x3d25fc48	0.040523797
183	0x3dfdcfe9	0.12393171
184	0xbdfb749e	-0.12278102
185	0x3d5a49d2	0.053293057
186	0x3d2d51e6	0.042314433
187	0x3d906a89	0.0705157
188	0x3dee9aaa	0.116505936
189	0x3d841aaa	0.06450398
190	0x3d801706	0.06254391
191	0xbd83595d	-0.06413529
192	0xba76cd87	-0.0009414781
193	0x3d78bb20	0.06072533
194	0x3cccf5b3	0.025019502
195	0x3cee9e82	0.029128317
196	0x3deec08d	0.1165782
197	0xbcf3c06d	-0.029754842
198	0x3d25ce74	0.040480092
199	0xbcdf8784	-0.027286299
200	0x3c644b36	0.013933947
201	0x3d4e7d7d	0.050412644
202	0x3a84718f	0.0010104644
203	0x3ddd4b3a	0.10805364
204	0x3cfddf17	0.030990167
205	0x3c67c360	0.014145702
206	0xbce6d347	-0.028176917
207	0xbd2480cf	-0.040161904
208	0xbc894b62	-0.016759578
209	0xbcbb9726	-0.022899222
210	0x3d75e9da	0.06003747
211	0x3cdc3310	0.026879817
212	0xbdec5310	-0.115392804
213	0x3daa874d	0.08326588
214	0x3d6b8381	0.05749846
215	0xbc3def51	-0.011592702
216	0xbbaa4779	-0.0051965085
217	0xbdd9ab0f	-0.1062833
218	0xbc4b25fb	-0.012399192
219	0x3dbf3ba6	0.09337549
220	0x3e1333eb	0.14375274
221	0x3e123e02	0.14281467
222	0xbd632b66	-0.05546131
223	0xbe335fe9	-0.17517056
224	0xbc57fd95	-0.013183017
225	0xbd2b873b	-0.041877013
226	0x3cb73d96	0.022368234
227	0xbd4d7ecf	-0.050169762
228	0xbcf6c95d	-0.030125314
229	0xbca4436c	-0.02005168
230	0xbccf0da2	-0.025275055
231	0x3b502627	0.0031761022
232	0xbd89e5ad	-0.0673326
233	0xbc3c5716	-0.011495372
234	0x3cceb038	0.025230512
235	0xbb19cac5	-0.0023466807
236	0xbd22d453	-0.03975327
237	0xbc2ae9a0	-0.010431677
238	0xbd8ca7da	-0.06867953
239	0x3cc506bd	0.024051065
240	0xbd9742c4	-0.073857814
241	0xbce67158	-0.028130218
242	0x3d7ec436	0.06219884
243	0xbdaf0ebf	-0.085477345
244	0x3c8c8142	0.017151479
245	0x3d5d8278	0.054079503
246	0x3d931906	0.07182507
247	0xbdc0e1cb	-0.094180666
248	0xbbdc751a	-0.006727827
249	0xbcafff1f	-0.021483956
250	0xbcfe6d50	-0.031057984
251	0xbda97906	-0.082750365
252	0xbd229d2d	-0.039700676
253	0xbb2dabd3	-0.002650012
254	0xbdb566a4	-0.08857468
255	0xbd58fe01	-0.052976612
