final_presentation/final_results/shallow/interval1/7000/2021-10-14_02-13-47/checkpoints/best_model_1_trial_94_validation_acc=0.7349.pt (torch, 685903 bytes, 6 tensors)

conv_time.weight f4 [30, 62, 90, 1]
00000000: f0de ecbb 3dc3 903c 57d8 563c 254d 74bb
00000010: e1af c33c 597a 593c bd3b ecbb 73d2 503b
00000020: b66e 7fbc 4d0c 633c 1097 86bc e4d4 dd3c
00000030: 6dc7 b8b9 6e6b 8d3c cb3f 963b 5d95 fc3b
00000040: 47c0 36bb 1f4b 96bc 90ee 593c 3c21 bcbc
00000050: 8d98 773c 364b 92bc 3925 0fbc 4ea0 74bc
00000060: 14c0 d23c db1e fbba ecab 55bc 245a 5cb9
00000070: aad6 d53c 5924 87bc 790a 7bbc d0d7 b1bc
00000080: d57d a1bb b1a9 933c 5f43 b6ba d917 423b
00000090: 2873 24bb 5c0c 54bc 0cf5 083c 0554 b13c
000000a0: aa68 5dbc b212 b7bc 0639 d73c 3a18 0dbc
000000b0: a57d b93c a4a1 b0bc e287 4fbc 0aee d63c
000000c0: a0b6 2f3c 000a 4f3b 6899 223c 7aef 543c
000000d0: eaea c13c fabe a83c ad51 c3bb 3024 30bb
000000e0: 0fa7 91bc d612 133c 0f05 d03a 0f41 0ebc
000000f0: 3f96 6d3c d34c e6bb 3cb0 da3c f82e 41bc
00000100: 6a67 413c cbaa 933c 41cd c43c 2a73 4bbc
00000110: 49eb be3c 4532 20bc a9f0 cfb9 6264 a4bc
00000120: 8e10 1f3c 7dfe aabc 9061 e83a 8231 c0bc
00000130: d487 123b 0ed4 0abc 7660 a3bc 7def 7abb
00000140: 9ede c9bc 6f38 423c abac ae3a 872b 84bb
00000150: 2eb7 b4bc 4bb3 9e3c ee94 dabc f3f7 303b
00000160: 663b 98bb 53fa b93c 687a 72bc a00b 443b
00000170: 7022 613c 217f a63c 93de 7e3c 28e2 923c
00000180: 03da 89bc 77ee 63bc dcb1 6a3b 535a 2abc
00000190: dcab af3c d9b5 b9bc 1bad 85ba 6be7 8a3b
000001a0: 0ad5 af3c a0ce 93bc 8ab5 9f3c bc2a f23c
000001b0: b687 903b 7189 bebc 5afe 26bc eaa0 81bc
000001c0: 7d35 20bc 44e8 153b ab37 96bc cfd9 6dbb
000001d0: dbf9 87bc d5b3 fdba 6aa1 d53c 1bf7 dc3c
000001e0: e613 7e3b e306 b0bc 9bcd 59bb bca1 9fbc
000001f0: 100e a6bc 2be5 b73c 38b6 1d3c 95a6 99bc
00000200: 62e3 743c 5f64 5cbc e331 863b ec7c 9f3b
00000210: 5a9e 973c 6cad 2ebb 3b29 6d3c 95fd b2bc
00000220: e753 b0bc 48a6 633a 4737 99bc 5e74 31bb
00000230: 8aa4 2abc d8e4 673c 4a23 b8bb 8cd0 50bc
00000240: 6852 c5bc b3b7 c0bb 0475 c2bb 8c2c 8b3c
00000250: b707 79bc 2ff7 aebc a383 af3c b81b 823c
00000260: 6c30 4abc 7562 c8bb 02bb 4dbc 4b68 b73c
00000270: f2e3 a83c 2d66 0abc 0d04 9cbc 1752 fdbb
00000280: 7727 e03c 0efd d13c 4701 b5bc a29d 88bc
00000290: cb05 333c d9c5 04bc 52ba 29bc 1686 63bb
000002a0: 66f3 0b3c 7746 f8bb 42b1 a3bc b547 d33c
000002b0: 7988 6f3c c55d 8bbc ffe4 44bb 5148 8e3c
000002c0: 44cd b73c 9509 9fba eeee 153c 68f7 37bc
000002d0: 1e5c 4a3c d87f b0bb 9327 13ba c1d0 743c
000002e0: 136d 70bb 0967 37bc 3a77 6ebc ac27 123a
000002f0: b310 9d3c 817b a63c 61fa 7ebc f3c6 4abc
00000300: e6c6 0ebc 785b 5a3b a483 db3c 3bc9 843c
00000310: b305 99bc 1061 babc 24ac 4b3c 9115 99bc
00000320: 40ee 99bc eddb a83c 1b3a 88bc 979b 14bc
00000330: dc65 96bc d173 193c a36d aabb 5df2 453c
00000340: 887d 81bb 6401 74bc 38ce 2fbc 46f2 c1bc
00000350: a558 83bc bf78 b43b 7a64 263b 1ab2 da3c
00000360: 440b f13b ac7e 313b aa6b 633a 72db b4bc
00000370: 88d8 813b 86d3 adbc b1d7 33bc 4e77 923a
00000380: 27af e4bb 859f 303c 0904 77bb 3745 bcbc
00000390: da69 87bc 3b6a 983b 6bc9 c53c 698f db39
000003a0: 0fff 30bc a0de 38bc 600f 6e3c 4e82 0f3c
000003b0: f950 4dbb c81b a93c 2d23 cbbb 9542 eb3b
000003c0: 6304 82bc 884d 9d3c 33d6 dc3b 9b0e 0f3b
000003d0: c3cc 803b d632 da3c 8452 fb3a 0faa d6bc
000003e0: 557a bdbc c0b7 b4bc fc50 853c 34df 953c
000003f0: 79c0 093b 0807 a9bc c8fb ec39 8eed 10bb
-0.0072287247 0.017671222 0.013113103 -0.0037277427 0.023887577 0.013273799 -0.00720927 0.0031863719
-0.01559036 0.013857913 -0.016429454 0.027079053 -0.000352438 0.01726314 0.0045852414 0.007708235
-0.0027885602 -0.018346367 0.013301507 -0.022965066 0.0151120545 -0.017858129 -0.008736902 -0.014930798
0.025726356 -0.0019158976 -0.013041478 -0.00021014415 0.026103336 -0.016496824 -0.015322321 -0.021709353
-0.0049283304 0.018025251 -0.0013905576 0.0029616265 -0.0025093053 -0.0129424 0.008359205 0.021646509
-0.013513723 -0.022347782 0.026272308 -0.008611733 0.02264292 -0.021561451 -0.012666674 0.026236553
0.010724694 0.0031591654 0.00992427 0.012996549 0.023671586 0.020598877 -0.0059606642 -0.0026877038
-0.017779855 0.008976659 0.0015870648 -0.008682503 0.0145011535 -0.007028201 0.026695363 -0.011790983
0.011804441 0.018025776 0.024023654 -0.012417594 0.023305552 -0.00977761 -0.00039661422 -0.020067398
0.009708537 -0.020873303 0.0017729271 -0.023461107 0.0022358792 -0.008473409 -0.019943457 -0.0038289719
-0.024642285 0.011854275 0.0013326606 -0.004033509 -0.022060003 0.019372603 -0.026682343 0.0027003258
-0.0046457527 0.022702372 -0.014799692 0.0029914156 0.013741121 0.020324292 0.0155559955 0.017930105
-0.016827589 -0.013911835 0.003581158 -0.010397512 0.021444254 -0.02266972 -0.0010198684 0.004239013
0.02146389 -0.018042862 0.019495744 0.029561393 0.0044107093 -0.023258897 -0.010192478 -0.0158238
-0.009778378 0.0022874037 -0.018337091 -0.0036293154 -0.016598633 -0.0019355962 0.026077945 0.026973298
0.0038769185 -0.021487659 -0.0033234123 -0.0194863 -0.020270377 0.022448143 0.009625964 -0.01875619
0.01494679 -0.013451665 0.0040953024 0.004867187 0.018508125 -0.002665366 0.014475162 -0.021849433
-0.021524383 0.00086841406 -0.018703116 -0.0027077417 -0.010415206 0.014153682 -0.005619441 -0.012745034
-0.024087146 -0.0058812737 -0.0059343595 0.016989015 -0.015199593 -0.0213581 0.021425074 0.015882358
-0.012340646 -0.0061152526 -0.012556793 0.022388598 0.020616505 -0.008447212 -0.0190449 -0.007730733
0.027362568 0.025633361 -0.022095336 -0.016676728 0.010926674 -0.008103811 -0.010359364 -0.0034717373
0.008541917 -0.0075767594 -0.019981984 0.025791029 0.01461994 -0.017012486 -0.003004372 0.017368468
0.022436745 -0.0012133593 0.009151204 -0.01122842 0.012351064 -0.005386334 -0.0005613502 0.014942349
-0.0036686107 -0.011193999 -0.014554793 0.00055753696 0.019173002 0.020322563 -0.015562625 -0.012376535
-0.008714413 0.003331868 0.02679617 0.016209235 -0.018679475 -0.022751361 0.012431178 -0.018687041
-0.018790364 0.020612681 -0.01662927 -0.009070299 -0.018359117 0.009365992 -0.005201058 0.01208171
-0.003951732 -0.01489291 -0.010730319 -0.023675095 -0.01603348 0.005507558 0.0025389479 0.026696254
0.0073560793 0.002708356 0.0008675406 -0.022077296 0.00396258 -0.021219026 -0.010976718 0.0011174472
-0.0069788876 0.01078022 -0.0037691614 -0.022982223 -0.016529966 0.0046513355 0.024143895 0.00041877784
-0.010802998 -0.011283547 0.014530033 0.008759094 -0.003132878 0.02064313 -0.0061992616 0.007179568
-0.015871232 0.019202009 0.0067394017 0.0021828774 0.0039306595 0.026635569 0.0019174372 -0.026204137
-0.023129622 -0.022060275 0.016273968 0.018294908 0.0021019264 -0.020633236 0.0004520102 -0.002211425

bnorm.weight f4 [30]
00000000: f0c0 9b3f 11af 9b3f 1820 993f 4f62 9d3f
00000010: c3d1 9a3f fde4 9d3f 922f 9d3f ae60 9c3f
00000020: 37f3 9a3f 4ab8 9c3f 7e71 9d3f f29b 9a3f
00000030: 6264 9f3f 2cf9 983f 3d49 9d3f 9418 993f
00000040: dcc0 993f f680 9a3f 0a17 9e3f 9503 9c3f
00000050: d606 973f 0afc 9b3f 0fa3 993f 1d7e 9b3f
00000060: e751 9b3f 98dc 9a3f 8969 983f 9ad8 9a3f
00000070: 1fa7 9a3f 06e0 953f
1.2168255 1.2162801 1.1962919 1.2295626 1.2095264 1.2335507 1.2280142 1.2217004
1.2105473 1.224374 1.230026 1.2078841 1.2452509 1.1951041 1.2287976 1.1960626
1.2011981 1.2070606 1.2350781 1.2188593 1.1798961 1.2186291 1.2002887 1.2147862
1.213437 1.209857 1.1907207 1.2097352 1.2082251 1.1708992

bnorm.bias f4 [30]
00000000: 3ce7 75bc 957f c5bc 89ae 8cbc a7df 99bc
00000010: e894 4bbd cf8a 95bd 0978 c1bd 0a66 b0bc
00000020: b85e 6c3c 2b5e 993d a51d 21bc e392 b93b
00000030: 07a5 42be c830 05be 2995 fdbc d954 d7bd
00000040: bf35 033e 250f 913c f363 993d eecc 873d
00000050: 3ece 813c ace4 7dbd 99ff ffbc 8853 76bc
00000060: 325b 983e 1ce7 2cbc fab8 6d3d 22b1 a33c
00000070: 8037 ffbb ee5a 5bbe
-0.015008744 -0.024108687 -0.017173069 -0.018783404 -0.049702555 -0.07301866 -0.09446723 -0.021533031
0.01442688 0.07488664 -0.009833728 0.005663262 -0.19008265 -0.1300689 -0.030954914 -0.1051423
0.12813471 0.017707417 0.07489767 0.06630884 0.015845414 -0.061985657 -0.031249808 -0.015034564
0.29757077 -0.010553148 0.058037736 0.019981924 -0.0077885985 -0.21421406

bnorm.running_mean f4 [30]
00000000: 8e02 a43a 2f35 1abc a1cd fd3b 15cf 283c
00000010: 5b66 b7bb 942d babb 6e80 f2bb 3f00 6cbb
00000020: 6772 8c3a 0363 4cbc 5b42 2c3b 2b9f 723b
00000030: 2f07 093a 3af5 893b 542b 763b 03fd 4c3c
00000040: f1b1 f5ba eb62 81bb 0d3d e8bb 395d fb3b
00000050: 73b5 6bbb e99b a7bb 5cf6 d03b c446 0a3c
00000060: f608 60bb a0c2 283c 5a48 003b fe20 d3ba
00000070: 1f25 063c 19f5 13bc
0.0012512968 -0.009412094 0.00774546 0.010303278 -0.0055969185 -0.005681703 -0.007400564 -0.003601089
0.0010715247 -0.012474778 0.0026284668 0.003702114 0.00052272057 0.0042101415 0.0037562447 0.012511495
-0.0018745047 -0.0039485595 -0.007087356 0.007671025 -0.0035966306 -0.0051150215 0.0063770246 0.008439723
-0.0034185029 0.0103003085 0.0019574375 -0.0016107855 0.008187561 -0.009030604

bnorm.running_var f4 [30]
00000000: 9a2c 3041 9325 7641 d697 6d41 ef2c 4d41
00000010: 988c 9a41 c0c7 ec41 4ee5 1b42 bdab 8e41
00000020: ccb0 7841 d4d9 af41 4923 df41 685c 5441
00000030: 56cb 0242 3ca9 8341 2a77 9841 d9d3 aa41
00000040: 3a4e e141 b92a 4f41 d735 8641 2f0f c741
00000050: 36ea 1d41 0ed9 c641 5a72 8441 26c5 1841
00000060: 7476 1a42 92c6 6641 b527 4641 3a7b 2541
00000070: 04cc 7841 82a5 f141
11.010889 15.384173 14.849569 12.82347 19.31865 29.597534 38.97393 17.833857
15.543163 21.981361 27.89223 13.27256 32.69857 16.457634 19.058186 21.353441
28.163197 12.94793 16.776289 24.882414 9.86968 24.855984 16.555836 9.548132
38.615677 14.423479 12.384694 10.342585 15.5498085 30.205814

conv_classifier.weight f4 [1, 30, 109, 1]
00000000: 6a81 203c f604 8d3c f746 753c f4c5 2ebd
00000010: 702b e2bc c56a 1cbb b663 e9bb 222e adbc
00000020: 6107 d6bc 6a13 333c d2b5 b5bc 4ce5 693c
00000030: 37f8 d2bc 9d95 16bb 40fe 1e3c f5c1 4ebc
00000040: 8820 d93c 8ee4 023b 1118 d0bc e6c9 7c39
00000050: c641 d23c e6f6 ecbc d837 023b b94a 4e38
00000060: 8f57 f43c 32d7 0c3c 8f35 d7bc 88c3 043c
00000070: 758e 9fbc bc60 d63c 76ff 8e3b f52c 33bc
00000080: 346b 923d fe49 8cbc 63c8 26bb 03c4 643c
00000090: 834c 08bd 7576 3e3c 0882 81bd 5acc e13c
000000a0: b887 13bb eae0 443c 6344 09bd 78bc c2bc
000000b0: 0a20 d2bc 253e 8ebc bb0e d7bc 6933 53bc
000000c0: d2ca 103c e14a 46bb d1c2 bd3c 67c5 80bc
000000d0: 6350 c2bc c11e c8bc 21c1 e8ba c98b 7f3c
000000e0: 9da9 443c 2fb9 153c caa2 c8bb ed41 a23c
000000f0: 0883 513c 955e 793a bd94 bbbc b60c 00bd
00000100: e219 1abd 81d7 5fbd e1b8 103d 6e6c 30bd
00000110: 1133 38bd d1f3 263d 89b1 38bd e747 593b
00000120: 3869 50bc 2278 07bd 6bf9 203d 48b8 01bb
00000130: 727e 3b3d 982f 7ebb b2cf c53b df12 bf3c
00000140: 0304 c83b 2eed 333d 1023 743c 398b db3a
00000150: 4ab7 1fbc 865e 07bd b6e6 a13c bfbe bd3c
00000160: 0df5 d3bc ae8d e83c 417f c1bc 7dc8 87bc
00000170: aeaf cd3c ca2f 633a cbdb 2f3d 07ae eebb
00000180: 50f5 4c3c 8fc4 7fbd 00ac 0f3d 25f3 2a3c
00000190: 529a 303d f307 f83c e505 e93b 262e b9bc
000001a0: 67d5 943c 6bb7 af3c 6e5e 533c 106e fcbc
000001b0: a542 903c 801e 8f3c 3835 96b9 4f80 49bd
000001c0: 021f 813b c970 7abc c9ca 10bb 25cf 68bd
000001d0: 11e1 613a f91d 27bb 5cb1 2a3d 5299 5bbc
000001e0: fec2 163d b1cf 383b fadf df3a e420 4d3c
000001f0: b983 6cbb 2fc1 503d 43d2 2f3c 5815 76bb
00000200: 37d7 3c3c c16d e43c c485 303c ec1a 263c
00000210: 9538 0d3c 5246 2dbc ef6a c4bc 0db8 86bb
00000220: 8fff c73c adb7 5abc 7ddb 753c 3b45 d33b
00000230: c708 1fbc 3547 35bd 2a27 a93c b9b4 ed3c
00000240: 6035 e2ba d19d 373d 2c22 b03c c0b3 52bc
00000250: ce03 e2bc 8d3b 7a3c cc0b 26bd 9eea 9fbc
00000260: 5724 07bc ac83 253b 2ec2 54bd 5103 a8bc
00000270: ffa2 793d d1c6 04bb dd6b 10bc fa44 33bc
00000280: df62 3dbd 6d1f c0bc ea0a 66bb 3387 be3b
00000290: eda7 72bd 5027 4ebb 1c2c 823c b272 053d
000002a0: c253 543d a17f 203c 4d47 c0bc 7ace 7abc
000002b0: fb32 44bc 8c05 f2bb ba09 82bc 3088 aabb
000002c0: fb66 0cbc 5823 9abc 608b 23bd 6a01 6bbc
000002d0: 3a96 c23b c6cc 6ebc 0981 a83c 869d d03b
000002e0: fbba bf3c d0f2 5f3c a325 1f3d 2acb 62bc
000002f0: 1741 08bd 04d2 40bc 4a1b 82bb 6c40 a23c
00000300: b849 acbc 0766 c03c c56d 1abd 63e4 373d
00000310: bcc6 8d3b 9a84 f8bc caed d1bc 9c28 5cbc
00000320: 7429 bbbc da31 c33c b6bc 48bb 40b3 06bd
00000330: e9d0 da3c 75f1 8fbb faf2 9a3b b304 313c
00000340: 3b9e d93c 5a7b 43bb 92f3 1b3d 9612 daba
00000350: eba8 81bc 2183 033d 67eb 5c3c b9a0 463a
00000360: 15cc fb3c b9a4 173c 9ff4 0b3c c5a3 03bc
00000370: c58b d03b 9dc6 ae3c cd27 ee3c a1c0 88bd
00000380: 2907 d1bc 2642 1dbd 6e6e 3bbd e3ac 91bc
00000390: 5af1 28bd 3675 eabc 1d23 2a3d ed14 91bc
000003a0: 5d5a 303d 61c5 55bb dfef c53c 6a50 4b3d
000003b0: 21ec 483a c530 87bc 1b42 543c 15bf c0ba
000003c0: 872b 323b f59b b3bb 16d2 9ebd f893 d0bc
000003d0: 6e2f b3bb c356 b3bc 2140 d23c b1f6 32bc
000003e0: e383 e83b d8bb 5a3c d8fc a03c d3bb 223c
000003f0: 490e 84bc 8fb3 17bd dac9 28bc d44f bb3c
0.00979648 0.01721428 0.014970533 -0.04266925 -0.027608603 -0.002386735 -0.007122482 -0.021140162
-0.026126565 0.010929922 -0.022181425 0.01427586 -0.025753124 -0.002297736 0.009704173 -0.012619485
0.02650477 0.0019972655 -0.0254021 0.00024107806 0.025666129 -0.028926324 0.0019869711 4.918382e-05
0.029826907 0.008596228 -0.026270656 0.008103259 -0.019477108 0.026169173 0.0043639494 -0.010936012
0.071493536 -0.017125126 -0.002544903 0.013962748 -0.033276092 0.011624922 -0.063236296 0.027563263
-0.0022511315 0.012016514 -0.033512484 -0.02377151 -0.025650043 -0.017363617 -0.026252141 -0.012890675
0.008837419 -0.0030257034 0.023164185 -0.015719129 -0.023719972 -0.024428727 -0.0017757752 0.015597292
0.01200333 0.0091383895 -0.0061229216 0.019806826 0.012787588 0.000951269 -0.022898072 -0.031262122
-0.03762234 -0.05464888 0.035332564 -0.043072157 -0.044970576 0.040759865 -0.045091186 0.003315443
-0.012720399 -0.033073552 0.039300364 -0.0019793678 0.045774885 -0.0038785692 0.006036722 0.023324428
0.006103994 0.043927364 0.014900938 0.0016749866 -0.009748289 -0.03304913 0.019763332 0.023162244
-0.025873685 0.02838787 -0.02362025 -0.016575092 0.025108185 0.0008666484 0.04293422 -0.0072839293
0.012509659 -0.062443312 0.03507614 0.010433947 0.04311592 0.030277228 0.0071112984 -0.022605013
0.018168164 0.021449765 0.012900932 -0.0308142 0.017609904 0.017470598 -0.0002864988 -0.04919463
0.003940464 -0.015285679 -0.0022093526 -0.056838173 0.00086166064 -0.0025500043 0.04167305 -0.013403254
0.036807053 0.0028199966 0.00170803 0.012520049 -0.0036089255 0.050965484 0.010731283 -0.0037549343
0.011525921 0.027884366 0.01077408 0.010138255 0.008619447 -0.010575848 -0.023976771 -0.004111296
0.024413852 -0.013349456 0.015005943 0.006447462 -0.0097066825 -0.04425736 0.020648558 0.02901684
-0.0017258339 0.04482824 0.02150067 -0.012860239 -0.027589705 0.015272987 -0.040538594 -0.019521054
-0.00824841 0.0025255485 -0.051942997 -0.020509394 0.06094646 -0.0020260105 -0.008814779 -0.010941738
-0.04623687 -0.023452485 -0.003510172 0.005814457 -0.059242178 -0.0031456538 0.015890174 0.032580085
0.05183769 0.009796054 -0.023471499 -0.015308017 -0.011975045 -0.007385915 -0.015873779 -0.005204223
-0.008569474 -0.018815681 -0.03992784 -0.014343599 0.0059383186 -0.014575189 0.020569341 0.0063664345
0.023404589 0.013668731 0.038854253 -0.013842383 -0.0332652 -0.011768822 -0.0039705383 0.01980611
-0.021031246 0.02348615 -0.03770234 0.04489554 0.0043266695 -0.030336667 -0.025626082 -0.013437416
-0.022846915 0.023827482 -0.0030630059 -0.03288579 0.026710944 -0.0043927976 0.004728672 0.010804343
0.026564708 -0.0029828162 0.038074084 -0.0016637619 -0.015827617 0.032107476 0.013483859 0.000757705
0.030736962 0.009255582 0.008542209 -0.008034651 0.006364318 0.02133494 0.029071713 -0.06677366
-0.02551611 -0.038393162 -0.04575961 -0.017782634 -0.041245796 -0.028620344 0.041537393 -0.017710174
0.043054927 -0.0032618868 0.024162231 0.049637236 0.00076645805 -0.016502747 0.012955214 -0.0014705384
0.002718659 -0.005481238 -0.077549145 -0.025461182 -0.0054683005 -0.021891957 0.025665345 -0.010923074
0.0070958002 0.0133504495 0.019651815 0.009932476 -0.016120093 -0.037036475 -0.010302031 0.022865213
