final_presentation/final_results/shallow/interval1/7000/2021-10-14_02-13-47/checkpoints/best_model_1_trial_84_validation_acc=0.8111.pt (torch, 507919 bytes, 6 tensors)

conv_time.weight f4 [20, 62, 100, 1]
000000 76 2a 6c bc e0 5f 0e bd af ab 0b bc 18 1e 9e bc
       -0.01441442 -0.034759402 -0.008524819 -0.01930146
000010 e7 b2 b9 bc 7b df 4a bc 5f ed 51 3c ae 48 05 bc
       -0.022668315 -0.012382383 0.012812941 -0.008135004
000020 09 63 50 3c 3f 3e 06 3c 82 3a a4 bc f8 fe 06 bd
       0.012718924 0.008193552 -0.02004743 -0.032958
000030 46 85 f7 bc d4 06 a9 bc a9 cb e2 bb 47 7c a3 3c
       -0.030214917 -0.020633139 -0.006921251 0.019956721
000040 12 a2 9f bc ae 43 77 3c c4 03 90 bc 55 96 55 39
       -0.01948646 0.01509182 -0.01757992 0.00020369266
000050 65 5c c6 bc e4 7a d2 3b 66 cb 9e bc b8 bf b6 bc
       -0.024213979 0.006423341 -0.019384097 -0.022308215
000060 12 68 88 bc 0c 28 d4 3b 39 2d b0 bc 4d f2 73 bc
       -0.016651187 0.0064745005 -0.021505939 -0.014889312
000070 c2 5b c8 bc b5 57 af bc 33 c5 0b bc 0d 9c bb bc
       -0.024457816 -0.021404127 -0.008530903 -0.02290156
000080 49 0c ce 3c 67 8b aa bc f1 7f 91 b9 67 81 99 3a
       0.025152342 -0.020818425 -0.0002775188 0.0011711539
000090 2b d2 bc 3c 40 32 96 bb 06 12 a2 3c bc 1c b0 3b
       0.023049435 -0.004583627 0.019783985 0.005374519
0000a0 72 e7 97 bc 0a 86 db bc 4e 2a 1f bc d9 54 a8 3c
       -0.018542979 -0.026797313 -0.009714676 0.020548271
0000b0 27 be d8 bc 0e db e5 bc 51 8f ca 3b 50 ee 58 3c
       -0.02645786 -0.028058555 0.0061816354 0.013240412
0000c0 db 28 44 3a 8b 2e 7a ba ed aa 3c 3c 62 24 a5 3c
       0.00074828946 -0.00095436786 0.011515361 0.02015895
0000d0 23 34 96 bc 5b 57 8f bc 39 bb 33 bb d5 3b 27 bb
       -0.018335408 -0.017497709 -0.0027424826 -0.002551784
0000e0 29 4b a7 3c 7e 24 89 3b 90 a9 88 3c 8e 81 b0 bc
       0.020421581 0.0041852584 0.016682416 -0.021546151
0000f0 10 7f 93 3c 09 47 63 bc ad 1b 71 bc 33 2e 15 3c
       0.018004924 -0.013871917 -0.014716071 0.009105253
000100 f4 ad a8 bc ff 14 ae bc 09 46 82 bc 26 00 ff bb
       -0.02059076 -0.021250246 -0.015902536 -0.007782
000110 af 67 d1 bc fd 8a 94 3c bf 72 eb bc 1f cc b4 3c
       -0.025562136 0.018132681 -0.028741239 0.022069989
000120 dd d6 ce 3c 57 83 a8 3c 74 03 18 3b 5b 36 44 3c
       0.02524894 0.02057044 0.0023195418 0.01197585
000130 da 2d be ba 7f db 27 3b 99 8c 38 bc 3d 37 d6 bc
       -0.0014509514 0.0025613008 -0.01126399 -0.026149387
000140 58 d0 d1 bc ab 7f 92 ba c5 f4 11 bc ba 84 1f 3c
       -0.025612041 -0.0011176964 -0.008908455 0.009736234
000150 ad 6e b7 3b 2d 98 ec bc 11 02 55 bc 38 7f 25 bb
       0.0055979104 -0.028881157 -0.013000981 -0.002525283
000160 c0 f3 19 bc aa e7 b4 3c d9 a4 c7 3c 15 7b d1 ba
       -0.009396493 0.022083122 0.024370598 -0.0015982116
000170 b0 17 8f bc 6a db 85 bc f0 f5 90 3a 60 51 85 bc
       -0.01746735 -0.016339976 0.0011059623 -0.016274154
000180 cb 04 b8 bc b6 49 25 3c 6a 87 2e 3c 29 0a 8e 3c
       -0.022463223 0.010088375 0.010652402 0.01733883
000190 eb 2f 7e ba ce c8 0d bd bb f4 9e bb e7 ca d8 3a
       -0.00096964714 -0.03461533 -0.0048509515 0.0016539962
0001a0 5f cc 9c bc 86 0f 02 bd f4 37 88 bc 95 42 a1 3c
       -0.01914042 -0.031753086 -0.016628243 0.01968507
0001b0 50 47 98 bc fb 98 e9 3b 4d f0 fd bc 67 35 37 3c
       -0.018588692 0.0071288324 -0.030998373 0.011182166
0001c0 ff 32 20 bc a9 8f d3 bc b7 e8 2d bb 8f a4 8f 3c
       -0.009777783 -0.025825338 -0.0026536414 0.017534522
0001d0 1b bc 0b 3c 07 c6 62 3c d7 3a 17 bc f1 db 9c 3c
       0.008528735 0.013841159 -0.009230337 0.019147845
0001e0 3e 03 47 3c ac d6 72 3b 5e af c7 ba 43 78 b7 3c
       0.012146769 0.0037054224 -0.0015234759 0.022396212
0001f0 e1 47 be 3c 9d 87 81 bc 84 b2 9e bc 4c f6 cd bc
       0.023227634 -0.015811736 -0.019372232 -0.025141858
000200 be 37 ac 3c af 54 c0 bc a2 cf 46 bc 54 6c ac bc
       0.021022674 -0.02347788 -0.012134464 -0.021047749
000210 3d d2 ad bc 47 05 2f 3c 73 39 bc 3c d0 2c 70 3c
       -0.021218413 0.010682411 0.022976613 0.014659122
000220 b4 2e 33 3c 60 27 61 bc fa 45 10 3c 37 fa 3b 3c
       0.010936428 -0.013742298 0.008805746 0.01147323
000230 7e db 7f ba 13 29 24 3c 72 8c 87 bc dd b0 96 bc
       -0.0009760185 0.0100195585 -0.016546462 -0.018394882
000240 36 2a 6d 3b da bc 9d bc e2 e2 8b bb ef df 12 3c
       0.003618849 -0.01925509 -0.00426899 0.008964523
000250 0e 47 bd 3c d8 73 c8 bc d1 b2 7f bc fe d7 ae bc
       0.02310517 -0.024469301 -0.015606598 -0.021343227
000260 d8 70 8c 3b 9e 70 98 bc 1f d0 a4 38 2c c6 b2 3c
       0.004285913 -0.018608388 7.858895e-05 0.021823011
000270 74 da ea bc 06 50 83 bc fb 73 99 3c 43 60 40 bc
       -0.02866862 -0.01602937 0.018732062 -0.011741701
000280 08 ed 94 3c ff 4d 78 bc de 42 4b bc 69 f0 a1 3c
       0.018179432 -0.0151553145 -0.012406079 0.019767957
000290 95 f4 37 bc 76 9c e4 bc 01 cf b5 3c 0b 1b 1b ba
       -0.0112277465 -0.027906638 0.022193434 -0.00059168105
0002a0 bf 86 bd bc d5 00 cf bc f9 d8 77 bc a1 57 ca 38
       -0.023135541 -0.025268951 -0.015127414 9.648433e-05
0002b0 d4 27 2c 3c 29 22 00 3c 87 fe 8b bc 1f d5 2f bc
       0.010507543 0.007820644 -0.017089142 -0.010731964
0002c0 43 45 81 bc 2d 98 0f bc 1a d2 0f 3c 4a e1 ac bc
       -0.015780097 -0.008764309 0.008778119 -0.02110352
0002d0 52 7b a7 3c 43 46 a9 bb a9 75 44 3a 1c 73 a1 3c
       0.020444546 -0.0051658466 0.00074943394 0.019708209
0002e0 2e 53 8c 3b 85 01 ab bb 28 40 ba bc 8e 48 14 bc
       0.0042823767 -0.005218687 -0.02273567 -0.0090505015
0002f0 a0 7a 12 3c 79 85 0e 3c 75 3a 08 bc af 55 c6 3b
       0.008940369 0.008698815 -0.0083147185 0.0060526947
000300 56 87 d9 bc 09 75 5c bc 47 67 64 bc e7 a1 a4 bc
       -0.026553791 -0.013455638 -0.013940639 -0.020096732
000310 cb e8 8b 3c 81 81 cf 3b 4b ec 8e b9 9a 05 39 bc
       0.017078778 0.0063325767 -0.00027260403 -0.011292839
000320 1e 18 7c 3c e3 b5 79 3c 2d 67 e5 bc c4 07 92 bb
       0.015386609 0.015241119 -0.0280033 -0.004456492
000330 25 91 bf 3b 26 19 40 3b 71 62 35 bc 49 b1 60 3c
       0.00584616 0.0029311865 -0.011070834 0.013714143
000340 00 4e 9c 3b d6 9f 9b bc 79 10 e4 bb 96 a6 33 3c
       0.0047700405 -0.018997114 -0.0069599715 0.01096501
000350 74 4c 3c bc e1 fa 20 bc cf 76 81 3c c6 0d bd bb
       -0.011492837 -0.009825439 0.015803723 -0.005769464
000360 3e 7d 5f bc 4d 90 85 bc 27 84 8f 3c e4 a9 91 3c
       -0.0136407 -0.01630416 0.01751907 0.017781205
000370 85 88 3a bb 82 0b 93 bc a4 13 87 bc 70 02 d5 bb
       -0.002846272 -0.017949823 -0.016488858 -0.0065005347
000380 b8 84 d4 bc d2 c8 f2 3a 52 9b bc bb 57 1f dc b9
       -0.025942191 0.0018522984 -0.0057558203 -0.0004198502
000390 84 0f 20 b9 33 79 9a bc cb fd 33 3b 07 14 cb bc
       -0.00015264569 -0.01885662 0.0027464505 -0.024789823
0003a0 6c f5 50 3a 5f 1d d2 bb 0b 66 6d 3c 41 db a3 bb
       0.0007971141 -0.0064121927 0.014489661 -0.0050005023
0003b0 d3 92 c8 bb fd 27 d3 bc b2 18 d2 bc 93 0d c7 bc
       -0.0061210184 -0.025775904 -0.025646541 -0.024298465
0003c0 91 d0 b4 3c 21 90 13 bc c5 7a 73 bc 2e d5 b5 bc
       0.022072108 -0.009006531 -0.0148608135 -0.022196379
0003d0 c6 fb 19 3c e9 89 5b ba 9f 85 6c 3a 7b e6 f9 bc
       0.009398406 -0.0008374737 0.00090225966 -0.03050541
0003e0 57 32 7c 3c 2b ab 51 bb de d1 af bc a2 43 80 3c
       0.015392861 -0.0031992893 -0.021462377 0.01565725
0003f0 52 c4 0e 3b 76 85 bc 3a b8 18 e8 3b 8e d3 20 bc
       0.0021784496 0.0014383036 0.007083025 -0.009816064

bnorm.weight f4 [20]
000000 88 55 b1 3f b7 ad ae 3f 6c aa ad 3f be d8 ab 3f
       1.3854227 1.3646764 1.3567634 1.342552
000010 77 13 ad 3f 33 76 ac 3f 15 85 ad 3f 55 a1 ad 3f
       1.3521565 1.3473572 1.3556238 1.356486
000020 ea 65 ae 3f 94 8b ac 3f bf 1a af 3f 49 29 af 3f
       1.3624852 1.3480096 1.3680037 1.3684474
000030 e5 70 b0 3f 95 f5 a8 3f 6f b3 ad 3f 44 77 b2 3f
       1.3784453 1.3199946 1.3570384 1.3942647
000040 bb 1d ae 3f af 07 ac 3f 2e d3 af 3f 08 79 b1 3f
       1.3602823 1.3439845 1.3736322 1.3865061

bnorm.bias f4 [20]
000000 0c 25 69 bd 34 88 60 3d e8 a4 b4 bc 5e bf b1 3c
       -0.056920096 0.054817393 -0.02205129 0.021697696
000010 1e 8e f8 3b cd 96 87 3c dd b7 35 3e c5 59 21 be
       0.007585301 0.0165514 0.1774592 -0.157569
000020 8b b2 3f bd 0a b1 5f be 49 98 8c 3c 3a c1 c0 be
       -0.04680113 -0.21844879 0.017162459 -0.3764742
000030 13 74 06 3d fd b1 03 bf f8 65 98 bd 4c 27 95 be
       0.03282554 -0.51443464 -0.07441324 -0.29131544
000040 79 7c 28 3c 45 5f a6 3d f8 7e e3 bc 00 db dc 3d
       0.010283583 0.0812364 -0.027770504 0.107839584

bnorm.running_mean f4 [20]
000000 04 3c e1 bb 62 84 c8 3c e6 ac c9 bb 60 f4 08 bd
       -0.0068736095 0.024477188 -0.0061546443 -0.03343618
000010 ef f9 ad 3c b2 69 f9 bc d0 38 76 3c 11 41 ec 3c
       0.021237342 -0.030445907 0.015028194 0.02883962
000020 04 8c ff 3a 9b e0 09 bd 7c 7f e6 bc 94 65 05 3d
       0.0019496684 -0.033661466 -0.028136961 0.032567576
000030 74 7b 78 3c b3 76 72 bc bb f9 e7 bb ed f7 16 3d
       0.015166152 -0.014798808 -0.0070793307 0.036857534
000040 5d 5e fa bc 3b 9c a7 bc 25 62 1a bd 3d 24 19 3d
       -0.030562574 -0.020460239 -0.037691254 0.037388075

bnorm.running_var f4 [20]
000000 a9 97 3b 42 6e e5 00 42 f5 16 0d 42 da e9 ec 41
       46.898106 32.224052 35.27242 29.614185
000010 62 2c 09 42 5d 0e d6 41 d1 20 08 42 27 bc 26 42
       34.293343 26.757013 34.032047 41.683743
000020 3a 8f 1c 42 1c 87 47 42 ec 7c 4d 42 6d 9d be 42
       39.13987 49.881943 51.371994 95.30747
000030 d4 86 f5 41 06 94 95 42 df 89 1a 42 ad f6 a0 42
       30.690834 74.78911 38.63464 80.48179
000040 b5 ec 00 42 5c 67 10 42 e3 49 40 42 91 c7 8e 42
       32.23116 36.100937 48.072155 71.38978

conv_classifier.weight f4 [1, 20, 109, 1]
000000 ad 8d a5 3b 64 4d 5c bd 06 5a 1d bd 9e d2 58 bc
       0.0050522895 -0.053784743 -0.03841593 -0.013233809
000010 49 21 94 bc de cd 14 3b 23 3b e6 bb 82 2e 59 bd
       -0.018082278 0.0022705714 -0.0070260926 -0.05302287
000020 1c 04 bc bd bc e0 7b bc 20 15 71 bd c5 3f 40 bd
       -0.09180471 -0.015373405 -0.058858037 -0.046935815
000030 96 a2 39 bd b3 e8 37 3c cc b6 3d bd 64 1a a4 bc
       -0.04532107 0.011224913 -0.046316907 -0.020032115
000040 6b ca 7b bc 85 2f 26 bd 4d 74 45 3c 14 54 c6 bc
       -0.015368084 -0.040572662 0.012051654 -0.024210013
000050 bc 6a 91 bb c9 16 83 bc 6d 14 57 bd eb 6f 0f bd
       -0.0044377726 -0.016002076 -0.052509714 -0.035018843
000060 8a c7 3f bb ae 0b 86 3c 25 14 b8 3c 2a c5 46 bc
       -0.0029263222 0.016362991 0.022470543 -0.0121319685
000070 55 f9 0a bc d2 96 89 bd 3d 55 4a bc bc 8b d6 bc
       -0.008482297 -0.0671822 -0.012349424 -0.026189677
000080 91 bd ee 3c 92 49 b4 bb 6d 69 ca 3c ad cb 61 bb
       0.029143127 -0.0055019343 0.024708474 -0.0034453676
000090 13 8b 88 bc c2 da 78 bc 07 0f 05 3d 63 73 39 3d
       -0.016667878 -0.015188875 0.032485034 0.045276057
0000a0 6b 41 53 bc c8 86 b0 bc 4b 45 0d 3b 33 db 62 3d
       -0.012894015 -0.021548644 0.0021556194 0.055384826
0000b0 29 f7 84 3c 9f 87 8b 3d ae ba a2 bc 6c d4 d8 3c
       0.016231136 0.06812977 -0.019864406 0.026468478
0000c0 c8 34 7a bc 9f f1 8c 3c cf f8 9b bb ea 44 00 3d
       -0.015271373 0.017205058 -0.004759885 0.03131572
0000d0 42 e8 f2 bc b2 03 cd bc 6b 2c 7c 3d d8 5c bf 3d
       -0.029651765 -0.025026176 0.061565798 0.093438804
0000e0 b9 15 23 bc a2 c5 0b 3c 14 ab af bc c9 f5 7a bd
       -0.00995391 0.008531006 -0.021443881 -0.061269555
0000f0 48 8b 8c 3d ff 72 b6 bb 9f 80 36 3d 93 ad 14 3a
       0.06862503 -0.005567908 0.044556256 0.00056716165
000100 8a d8 f2 bb ba b8 67 bc 37 4c f5 bc 49 c0 89 3d
       -0.0074110674 -0.014143163 -0.029943569 0.067261286
000110 ea 44 cd 3c dd 2c c2 3b e0 e1 af 3b 06 fb b8 bc
       0.025057275 0.0059257583 0.0053675026 -0.022580635
000120 80 41 a6 bc 36 f1 1c bc 18 7b 46 3c d3 c6 a0 3c
       -0.020294905 -0.009578994 0.012114309 0.019626057
000130 be 46 bb 3a f6 b5 08 3d d5 55 49 3c 63 8d ff 3a
       0.0014288051 0.033376656 0.01228853 0.0019497093
000140 92 54 f0 3a 67 f0 68 3c a1 34 11 3d 20 4c 82 3d
       0.0018335751 0.014217473 0.03545058 0.06362176
000150 4e 59 80 bc 76 14 80 3c 20 ff 12 bd 0a f1 6e bc
       -0.015667584 0.015634757 -0.035887837 -0.014583835
000160 1c 4f 5a 3d 8b 19 04 3d c0 c5 08 bb 78 5e 04 3d
       0.0532981 0.032250922 -0.0020869821 0.032316655
000170 84 d9 c4 3c 3e a0 08 bd c8 34 4c bb fb 1a 28 bc
       0.0240295 -0.033355944 -0.003115939 -0.010260339
000180 ee c7 d6 bc ee c6 93 bc fa fe 0a bd f8 64 e0 3c
       -0.02621838 -0.018039193 -0.03393457 0.027391896
000190 53 af 84 3d b0 90 fe bb 98 1a 48 3c c7 6e 99 3c
       0.06478753 -0.007768713 0.012213372 0.01872958
0001a0 97 40 9c bc 5e ca 82 3c ba 0b 73 3c 7c 35 f8 3c
       -0.019073768 0.015965637 0.014834339 0.03029894
0001b0 f0 13 12 bd 6a 5b ef 3c 98 91 93 3c c8 a8 34 bd
       -0.035663545 0.029218394 0.01801376 -0.044106275
0001c0 19 3b 83 bd b8 36 c5 bc 2b ff a0 bc 2d a2 1b bd
       -0.06407756 -0.024073943 -0.019652924 -0.03799646
0001d0 ad 2c 86 bc 33 a8 7f 3d 31 b2 1f bc c6 82 0d 3c
       -0.016378725 0.062416267 -0.009747074 0.008637136
0001e0 83 63 77 bc e0 e3 09 bc 80 68 a2 3a 2d 75 1d bd
       -0.015099409 -0.008416146 0.0012390763 -0.038441826
0001f0 c0 41 96 bb 56 5b ca bb 4c 94 a7 3c a3 af 89 bc
       -0.0045854747 -0.006175439 0.020456456 -0.016807383
000200 ba 80 f3 bb 25 71 82 39 e0 93 ea bc e3 7b 7b 3c
       -0.007431117 0.00024879831 -0.028634965 0.015349361
000210 5e 5c 13 bc d9 3a 33 3c 2d dc 5d bd ef dc 2b bc
       -0.00899419 0.010939323 -0.054165054 -0.010489686
000220 a3 ca 36 3d da 87 a8 bc bb 63 9e bc b2 e1 93 bc
       0.044626843 -0.020572592 -0.019334665 -0.018051956
000230 1f 50 b2 3c e1 78 af 3c e2 9f 32 bc 3a 7c 1d 3d
       0.02176672 0.021419944 -0.010902377 0.03844855
000240 90 ce 08 bc 35 04 84 bc 98 65 f1 bb 6d 86 18 bc
       -0.00835003 -0.016115287 -0.0073668472 -0.009309393
000250 64 f0 3e bd 7a 25 ca 3c fa 13 c8 3c 5e 9c f2 3c
       -0.046615973 0.024676073 0.024423588 0.029615577
000260 fa 7c 85 bc 44 86 97 bc 5d 0f 87 3c 61 5f 1f 3d
       -0.016294945 -0.01849664 0.016486818 0.03890932
000270 c5 ec 17 3d b8 a7 0f 3c 45 fe 44 3d 7f 12 f8 bb
       0.037091035 0.008768015 0.048094053 -0.0075705643
000280 d2 92 fc 3c 19 78 b5 3b c7 dd 75 3c 74 2d bb bc
       0.030831728 0.0055379984 0.015006489 -0.022848822
000290 75 85 44 bc 4b cc 57 bc 4c e9 b9 bd 7d 48 d3 bc
       -0.011994709 -0.013171266 -0.09077701 -0.025791401
0002a0 5b 38 7c 3d a9 d1 34 bd 87 d2 f7 bb 7c c1 1f 3d
       0.061577182 -0.04414526 -0.0075629386 0.03900288
0002b0 71 a8 b6 bc 3e da 3f 3c e4 c8 04 3d f1 2e 08 3d
       -0.022297116 0.011709748 0.032418147 0.03324789
0002c0 bd 69 5b bc ae 00 0e 3d ad f7 f0 ba d8 03 c6 bc
       -0.013391909 0.034668617 -0.001838436 -0.024171755
0002d0 2d 42 3a 3c 0b 36 b2 3c 06 0a 20 3d 7a 7a b9 3a
       0.011368317 0.021754285 0.03907206 0.0014150881
0002e0 ee d2 fb 3c c1 12 bb 3c 5d 26 c4 3c d0 46 c4 bc
       0.030740228 0.022836091 0.023944074 -0.023959547
0002f0 03 1d a1 3c 4f 0d 0f 3d 6d 74 35 3c be 27 d5 3b
       0.019667154 0.0349248 0.011075121 0.006504982
000300 8d 7f b7 3c cf f2 9e 3c b0 36 7e 3c 21 df f8 bb
       0.022399688 0.01940289 0.015515968 -0.0075949584
000310 99 ae 41 3d 2d 47 22 3c 69 22 80 bb 62 55 d7 3c
       0.04728565 0.009904665 -0.003910352 0.02628583
000320 6b 66 ac 3a a8 1e 10 3d 4c 33 21 bd 7d 54 c0 bc
       0.0013153082 0.035185486 -0.03935556 -0.023477787
000330 04 9a 34 3d dd be 9f 3d db c8 39 bc 7a 9c 0d 3c
       0.044092193 0.07800076 -0.011339392 0.008643264
000340 bf 33 91 bc b4 3c 10 bc e9 ee b6 bb 4f 6a cd 3c
       -0.01772487 -0.008803535 -0.0055826795 0.025075106
000350 d2 5f c3 3b a1 69 77 bc 39 36 f4 bb ed c7 93 3c
       0.0059623504 -0.0151008675 -0.007452753 0.018039668
000360 a5 f2 7a bd 02 5f 01 3c d6 2c 73 3d a8 a8 ad bc
       -0.06126656 0.007896187 0.05936893 -0.021198586
000370 66 04 ab bb 75 bd 0d 3d 74 b2 12 bd 3b 5c 75 b9
       -0.00521903 0.03460451 -0.035814717 -0.0002339938
000380 ac 4b 2c bd 20 24 b9 bc fb 5b ea bb 81 7d ec 3c
       -0.042064354 -0.022600234 -0.007152078 0.028868439
000390 7d 56 d8 bd 0b 02 15 bd 25 df bc bc 51 72 28 bc
       -0.10563371 -0.0363789 -0.023055622 -0.010281161
0003a0 64 a8 28 bc 74 59 06 3d 16 85 4d bb 42 8b c0 b9
       -0.010294054 0.032800153 -0.0031359843 -0.0003672485
0003b0 05 cf 04 3d 50 7e 5c 3d de 85 1d 3d 1b 43 3f bd
       0.03242399 0.0538314 0.038457744 -0.046694856
0003c0 80 02 8f bc a0 9a 73 3c a3 9f 2c 3c 08 de 85 3a
       -0.017457247 0.014868408 0.010536107 0.0010213265
0003d0 4e d8 62 3c b4 20 53 bd 1a fa 9a 3d 0f cc 16 39
       0.013845516 -0.05154486 0.07567234 0.00014381132
0003e0 c6 f8 94 bc c8 6a 18 3d 63 a6 db 3c 95 3f 30 3d
       -0.01818503 0.03721121 0.026812738 0.043029387
0003f0 8c ed 76 3c c5 15 31 3d 0d b2 72 3c 88 82 88 bc
       0.015071284 0.04323365 0.014812958 -0.016663805
