final_presentation/final_results/shallow/interval1/7000/2021-10-14_02-13-47/checkpoints/best_model_1_trial_99_validation_acc=0.8239.pt (torch, 760143 bytes, 6 tensors)

conv_time.weight f4 [30, 62, 100, 1]
0	0x3e90e0ed	0.28296605
1	0x3e9b9664	0.30388176
2	0x3e940f2e	0.2891783
3	0x3e97d0d1	0.29651502
4	0x3e227f58	0.1586889
5	0x3d9b54f2	0.075845614
6	0x3cb853e7	0.022500945
7	0x3c06ef87	0.008235819
8	0xbd5a7015	-0.053329546
9	0xbda5b406	-0.08090977
10	0xbdd0febe	-0.10204838
11	0xbddc4312	-0.1075498
12	0xbe032b7a	-0.12809554
13	0xbdc29c4d	-0.09502468
14	0xbdce890a	-0.10084732
15	0xbdc8b39f	-0.09799885
16	0xbde5fd6b	-0.11229976
17	0xbe06f576	-0.13179573
18	0xbde1bb27	-0.110220246
19	0xbddda69a	-0.10822792
20	0xbddfc708	-0.10926634
21	0xbda8cabf	-0.08241796
22	0xbdda3beb	-0.1065596
23	0xbdb6f376	-0.08933155
24	0xbdd54686	-0.10413842
25	0xbdf59860	-0.11991954
26	0xbdef1811	-0.11674512
27	0xbdd0375f	-0.10166811
28	0xbe01b2b3	-0.12665825
29	0xbe14a900	-0.14517593
30	0xbe03c301	-0.12867357
31	0xbdd4c0b0	-0.10388315
32	0xbe1bc009	-0.15209974
33	0xbe0940f6	-0.13403687
34	0xbde586b5	-0.11207334
35	0xbdf1f7f8	-0.118148744
36	0xbe0cf8cb	-0.13766782
37	0xbdfe00fb	-0.12402531
38	0xbdf2640d	-0.118354894
39	0xbe03462d	-0.12819739
40	0xbdecf3c6	-0.115699336
41	0xbdf735d9	-0.120708175
42	0xbdf6a7f0	-0.1204375
43	0xbddbc86f	-0.10731589
44	0xbddd5d7e	-0.10808848
45	0xbe06ac23	-0.13151602
46	0xbe0fcf2f	-0.14043878
47	0xbe0bb19a	-0.13641968
48	0xbe0b93d4	-0.1363061
49	0xbde39e69	-0.11114199
50	0xbe063316	-0.13105425
51	0xbe188f05	-0.14898308
52	0xbe139b9f	-0.14414833
53	0xbe1ed61a	-0.15511361
54	0xbdffea4d	-0.12495861
55	0xbe241152	-0.16022232
56	0xbdee9976	-0.11650364
57	0xbe1fd3da	-0.15608159
58	0xbe228f87	-0.15875064
59	0xbe20078a	-0.15627876
60	0xbe0262eb	-0.12733047
61	0xbe14b06f	-0.14520429
62	0xbe0d9940	-0.13827991
63	0xbe1ed949	-0.15512575
64	0xbe067242	-0.13129523
65	0xbe0f091c	-0.13968319
66	0xbddd9e8a	-0.108212546
67	0xbe047b3c	-0.12937635
68	0xbe06c27f	-0.13160132
69	0xbe006641	-0.12539007
70	0xbdee4377	-0.11633962
71	0xbde5d6db	-0.11222621
72	0xbdfd7cce	-0.1237732
73	0xbdecce1c	-0.1156275
74	0xbe0587d6	-0.13040099
75	0xbded2bb3	-0.115806006
76	0xbe16d965	-0.14731367
77	0xbe035fdd	-0.12829538
78	0xbe124b73	-0.14286594
79	0xbe191ed1	-0.14953162
80	0xbdfa4e38	-0.1222195
81	0xbe0cb5bc	-0.13741201
82	0xbe03bcdf	-0.12865017
83	0xbdeea12b	-0.11651834
84	0xbdf1d3d6	-0.118079826
85	0xbddf8463	-0.10913923
86	0xbe19d0f9	-0.15021123
87	0xbdf5d2a2	-0.12003066
88	0xbde9057e	-0.11378001
89	0xbdde6c0d	-0.10860453
90	0xbe1f3e16	-0.15551028
91	0xbdf6c804	-0.12049869
92	0xbdf61ca7	-0.12017184
93	0xbe123f67	-0.14281999
94	0xbe22ee04	-0.15911108
95	0xbdf72786	-0.12068085
96	0xbe146dda	-0.1449503
97	0xbe2bbeb3	-0.16771965
98	0xbe1ae210	-0.15125299
99	0xbe0a51bf	-0.13507746
100	0xbc5e13b5	-0.013554503
101	0xbc40acc0	-0.011759937
102	0xbbd964c0	-0.006634325
103	0xbbb805ec	-0.0056159403
104	0xbd5ec8e7	-0.054390814
105	0xbd4f4331	-0.050601188
106	0xbd2004f8	-0.03906724
107	0xbd359afe	-0.044337265
108	0xbd524753	-0.05133755
109	0xbdaf10c9	-0.085481234
110	0xbd7a9814	-0.06118019
111	0xbd9f0012	-0.07763685
112	0xbe020cab	-0.12700145
113	0xbdae069d	-0.08497355
114	0xbdfcdab2	-0.123464
115	0xbdbf4fc1	-0.09341384
116	0xbddaaf3c	-0.106779546
117	0xbdf80287	-0.12109857
118	0xbdd28c0d	-0.10280619
119	0xbde7c1e2	-0.11316277
120	0xbe02e1ef	-0.127815
121	0xbdbbd118	-0.09170741
122	0xbe02a433	-0.1275795
123	0xbe018666	-0.12648925
124	0xbdffcc33	-0.1249012
125	0xbe0a7e82	-0.13524821
126	0xbdc7629c	-0.09735605
127	0xbdea8aa5	-0.114522256
128	0xbdc8caa6	-0.09804277
129	0xbdcdf6ce	-0.1005684
130	0xbdecb477	-0.115578584
131	0xbe116b98	-0.142012
132	0xbdcc2228	-0.09967452
133	0xbe0a594e	-0.1351063
134	0xbde839dc	-0.11339161
135	0xbe09909c	-0.1343407
136	0xbdfd81e3	-0.123782896
137	0xbdd3f1c9	-0.10348851
138	0xbe064ed4	-0.13116008
139	0xbde08c4a	-0.10964258
140	0xbdcd0c51	-0.10012115
141	0xbddf31f2	-0.10898198
142	0xbdec60ad	-0.11541877
143	0xbe02e344	-0.12782007
144	0xbdf4c27e	-0.11951159
145	0xbdd8e86b	-0.10591205
146	0xbe020bb8	-0.12699783
147	0xbde6f87f	-0.112778656
148	0xbe0adde2	-0.13561204
149	0xbe0e9b90	-0.1392653
150	0xbdf45719	-0.11930675
151	0xbdce3545	-0.10068754
152	0xbdf29023	-0.11843898
153	0xbddf0d66	-0.108912274
154	0xbe0a3d70	-0.13499999
155	0xbe0b924d	-0.13630028
156	0xbe00856f	-0.12550901
157	0xbe1a5759	-0.15072383
158	0xbe026c36	-0.12736592
159	0xbe0aa291	-0.13538577
160	0xbddf6521	-0.10907961
161	0xbde4d4b4	-0.111733824
162	0xbe10002c	-0.14062566
163	0xbdf09342	-0.11746837
164	0xbe0f5b3c	-0.13999647
165	0xbdef9a43	-0.11699345
166	0xbe0608fe	-0.13089368
167	0xbde194a6	-0.110146806
168	0xbe17e84b	-0.14834706
169	0xbdfec140	-0.12439203
170	0xbe000421	-0.12501575
171	0xbe1ab9a2	-0.15109876
172	0xbddbe698	-0.10737342
173	0xbdd14965	-0.10219077
174	0xbdd47b1b	-0.10375043
175	0xbdc93134	-0.09823838
176	0xbdede97e	-0.11616801
177	0xbdf70d0c	-0.12063035
178	0xbe0d8666	-0.138208
179	0xbe1244fe	-0.14284131
180	0xbde133a6	-0.10996179
181	0xbdcbfe77	-0.09960645
182	0xbdc892b5	-0.09793607
183	0xbe0af7bf	-0.1357107
184	0xbdfb811a	-0.122804835
185	0xbe0f9f90	-0.14025712
186	0xbe0dc722	-0.13845494
187	0xbddb87e9	-0.10719282
188	0xbe105aec	-0.14097184
189	0xbdf34350	-0.11878073
190	0xbdfd84c1	-0.123788364
191	0xbdf666b6	-0.12031309
192	0xbe02e3a4	-0.1278215
193	0xbde271de	-0.11056875
194	0xbe00e508	-0.12587368
195	0xbddac567	-0.10682183
196	0xbdda1e6f	-0.10650336
197	0xbe0b4820	-0.13601732
198	0xbe14ce1f	-0.14531754
199	0xbe1ece82	-0.15508464
200	0xbd7ec02e	-0.062194996
201	0xbda0c3b6	-0.07849829
202	0xbd7f3767	-0.062308695
203	0xbd8a6880	-0.06758213
204	0xbdbe3d00	-0.092889786
205	0xbdb19aff	-0.08672141
206	0xbdb70182	-0.089358345
207	0xbd9e91fb	-0.07742687
208	0xbdd55f32	-0.10418548
209	0xbda13f14	-0.07873359
210	0xbddefd34	-0.108881384
211	0xbdeab07d	-0.11459444
212	0xbdb14c28	-0.08657104
213	0xbdce4aa8	-0.10072833
214	0xbddaef76	-0.10690205
215	0xbdee5b02	-0.11638452
216	0xbdf8cf80	-0.121489525
217	0xbddf5ed1	-0.10906757
218	0xbe08ae9c	-0.13347858
219	0xbde42a51	-0.11140884
220	0xbe03eb4b	-0.12882726
221	0xbde855fd	-0.11344526
222	0xbe08c018	-0.13354528
223	0xbdeb9e23	-0.115047716
224	0xbdcd3330	-0.10019529
225	0xbe089026	-0.13336238
226	0xbdfff9a2	-0.124987856
227	0xbdb3002a	-0.08740266
228	0xbe006e59	-0.12542094
229	0xbdf0bb11	-0.1175443
230	0xbe0121e8	-0.1261059
231	0xbdba17f7	-0.09086602
232	0xbe0b67b8	-0.13613784
233	0xbe0937fd	-0.13400264
234	0xbe013829	-0.1261908
235	0xbdf27232	-0.11838187
236	0xbdd29519	-0.10282344
237	0xbe05816d	-0.13037653
238	0xbdbf6675	-0.09345714
239	0xbdc00953	-0.093767785
240	0xbdc42673	-0.09577646
241	0xbe0a578f	-0.13509963
242	0xbe0b139c	-0.13581699
243	0xbe0be8fe	-0.13663098
244	0xbdc71126	-0.09720068
245	0xbe0b1345	-0.1358157
246	0xbdd1def3	-0.10247602
247	0xbde6aed6	-0.11263816
248	0xbdca5e15	-0.09881226
249	0xbe02be7b	-0.12767975
250	0xbe060bb4	-0.13090402
251	0xbddd1234	-0.107944876
252	0xbe0d7348	-0.13813508
253	0xbdfa2269	-0.122135945
254	0xbdf06e66	-0.11739807
255	0xbe14dd5f	-0.14537571

bnorm.weight f4 [30]
0	0x3fbe27bd	1.4855877
1	0x3f96d330	1.1783199
2	0x3fa143c7	1.2598809
3	0x3fb21771	1.3913404
4	0x3f9879a0	1.1912117
5	0x3f96cc53	1.1781105
6	0x3fadec84	1.3587804
7	0x3faa5ec5	1.3310171
8	0x3fa715fb	1.3053583
9	0x3f955143	1.1665424
10	0x3fa3bb8b	1.2791609
11	0x3fa1c058	1.2636824
12	0x3fa5b0a2	1.2944529
13	0x3f96b202	1.1773074
14	0x3f93083f	1.1486892
15	0x3fa3dfb4	1.2802644
16	0x3f97860c	1.1837783
17	0x3fb89e8a	1.4423382
18	0x3faa88c7	1.3322991
19	0x3fb1b568	1.3883486
20	0x3fa541d8	1.2910719
21	0x3fa0d46d	1.2564827
22	0x3f97913d	1.1841198
23	0x3f8db832	1.1071837
24	0x3f978084	1.1836095
25	0x3faef118	1.3667326
26	0x3fa844e5	1.3146025
27	0x3fbe4ad9	1.4866592
28	0x3f9b6231	1.2139341
29	0x3fb0f871	1.3825818

bnorm.bias f4 [30]
0	0xbd58b8ed	-0.052910734
1	0xbda434a5	-0.08017854
2	0x3e86c260	0.2632017
3	0x3f0c8921	0.5489674
4	0xbed02618	-0.40654063
5	0x3e4eb21c	0.20185131
6	0x3e391492	0.18074253
7	0xbdfd59e4	-0.12370661
8	0xbd690f59	-0.056899402
9	0x3e26c4a5	0.16285951
10	0x3df4dc3f	0.11956071
11	0x3e35286f	0.17691205
12	0xbf07dedc	-0.5307443
13	0xbf130fa7	-0.5744576
14	0x3f112dc9	0.5671049
15	0x3dc8b9ec	0.09801087
16	0x3dc23880	0.09483433
17	0xbec7ef80	-0.39049911
18	0x3cb66d27	0.022268845
19	0x3d839366	0.064245984
20	0xbe4438ff	-0.19162367
21	0xbdeb20f1	-0.114808924
22	0xbf4ded57	-0.80440277
23	0x3f307118	0.6892257
24	0xbe7c8ae2	-0.24662355
25	0xbc7e0bbc	-0.015505727
26	0xbe9bbdb2	-0.30418164
27	0x3e824698	0.25444484
28	0xbd825dfa	-0.06365581
29	0xbea0969e	-0.31364912

bnorm.running_mean f4 [30]
0	0xbebc37f2	-0.36761433
1	0x3e72c604	0.2370835
2	0x3eb4ef41	0.35338786
3	0xbdd9e6ce	-0.106397256
4	0xbf3bab26	-0.73308027
5	0xbf44e435	-0.76910716
6	0x3eee6a14	0.46565306
7	0xbe0a67f3	-0.13516216
8	0x3f098d68	0.53731394
9	0xbe6810fb	-0.22662728
10	0xbdd83f08	-0.10558897
11	0x3e601935	0.21884616
12	0x3d60272b	0.054724853
13	0x3e283be5	0.16429098
14	0xbee742db	-0.45168194
15	0xbd252881	-0.04032183
16	0x3f0a8800	0.5411377
17	0x3e044cbc	0.12919897
18	0x3eca5437	0.39517376
19	0xbd1d5e1d	-0.03841983
20	0x3e0adf15	0.13561662
21	0xbe696044	-0.22790629
22	0x3de29080	0.110627174
23	0x3e18dc61	0.14927818
24	0x3ee3b082	0.44470602
25	0x3e7e1aaf	0.24814866
26	0x3ec7f230	0.39051962
27	0xbf0160a2	-0.50538075
28	0xbf3a5f9c	-0.7280214
29	0x3f20f9b1	0.62881

bnorm.running_var f4 [30]
0	0x47a3a255	83780.664
1	0x4793ebdd	75735.73
2	0x47de91ec	113955.84
3	0x476d2209	60706.035
4	0x474e619b	52833.605
5	0x47885260	69796.75
6	0x46b150dd	22696.432
7	0x4803686f	134561.73
8	0x47ce488c	105617.09
9	0x4796d2ed	77221.85
10	0x4705bb44	34235.266
11	0x47866d2c	68826.34
12	0x4834ee45	185273.08
13	0x47fe2428	130120.31
14	0x470d6b0a	36203.04
15	0x47bdf6d6	97261.67
16	0x4798ac63	78168.77
17	0x47c82f3f	102494.49
18	0x475b055b	56069.355
19	0x484082ac	197130.69
20	0x481c9f48	160381.12
21	0x47d87be7	110839.805
22	0x47016696	33126.586
23	0x47d36338	108230.44
24	0x4708a63e	34982.242
25	0x470ffd17	36861.09
26	0x47b33133	91746.4
27	0x47d1cad2	107413.64
28	0x47aaf0a0	87521.25
29	0x476f6cbd	61292.74

conv_classifier.weight f4 [1, 30, 108, 1]
0	0x3e08f4bd	0.1337461
1	0x3dd7ea0a	0.10542686
2	0x3da3ddb4	0.08001271
3	0x3d1e60d7	0.038666572
4	0x3c133009	0.00898362
5	0x3d2cda48	0.042200357
6	0xbda8959d	-0.082316615
7	0x3dc48188	0.095950186
8	0x3e087f90	0.13329911
9	0xbc7d2c21	-0.015452416
10	0xbc11f49c	-0.008908417
11	0x3de304c7	0.110848956
12	0x3b5c918f	0.0033656096
13	0xbd7e0237	-0.06201383
14	0xbe05fdd0	-0.13085103
15	0xbd1ae936	-0.037820064
16	0xbb56cbd8	-0.003277531
17	0xbd5fb6d9	-0.054617736
18	0x3d2c1d6d	0.04202025
19	0xbd4f4a11	-0.050607745
20	0x3de474fe	0.11155127
21	0xbe0eeff7	-0.13958727
22	0x3c3ac8b3	0.0114003895
23	0xbbc41d91	-0.00598497
24	0x3dff212d	0.124575
25	0x3d85fb9d	0.06542132
26	0x3e01a761	0.12661506
27	0x3d7a0321	0.06103814
28	0xbd9a9f7b	-0.0754995
29	0x3c2e3935	0.010633756
30	0xbd87a089	-0.066224165
31	0xbd22d996	-0.039758287
32	0xbdb3da38	-0.08781856
33	0xbd244dcf	-0.040113267
34	0xbddf5cac	-0.10906348
35	0xbd9d227f	-0.07672595
36	0x3d6df86e	0.05809825
37	0x3d96e6a5	0.07368211
38	0x3c18f5fe	0.009335993
39	0xbd01a1eb	-0.031648558
40	0x3ad8c4c0	0.0016538128
41	0xbd209d5b	-0.039212566
42	0xbb96f0fb	-0.004606364
43	0xbc5fc3c8	-0.013657518
44	0xbd813f47	-0.06310897
45	0xbd9d61d6	-0.07684676
46	0xbd73f13a	-0.059556223
47	0x3d5eb790	0.054374278
48	0xbd6fad1d	-0.058514703
49	0xbd820781	-0.063490875
50	0xbd875111	-0.06607259
51	0xbd0c215c	-0.0342115
52	0x3c97bf71	0.018523904
53	0x3d18f4f3	0.037342977
54	0xbd026176	-0.031831227
55	0x3cea3cfb	0.02859353
56	0xb9dbd56d	-0.0004192995
57	0xbdea7dfa	-0.11449809
58	0xbd3520b4	-0.04422064
59	0x3d8b7404	0.068092376
60	0xba5742a6	-0.00082115305
61	0xbda94be9	-0.08266432
62	0xbdad0302	-0.08447839
63	0xbb0c67d9	-0.0021424203
64	0x3c336809	0.010950097
65	0x3dbe1f43	0.092833064
66	0xbd63a658	-0.05557856
67	0x3d138a19	0.036020372
68	0x3b9647ff	0.0045862193
69	0x3c887618	0.016657874
70	0x3e141e90	0.14464784
71	0xbd412697	-0.047155943
72	0xbdc97f49	-0.09838731
73	0xbe269780	-0.1626873
74	0xbcf710e7	-0.030159427
75	0x3da3b058	0.07992619
76	0xbd6a1d63	-0.05715693
77	0xbe5b8821	-0.21438648
78	0x3bc28935	0.0059367665
79	0xbd5c677a	-0.05380962
80	0xbdc80052	-0.09765686
81	0x3d9aa645	0.07551245
82	0xbe0eadf8	-0.13933551
83	0x3e082065	0.13293608
84	0xbde0af4c	-0.10970935
85	0xba6aae7c	-0.0008952392
86	0x3bc99c42	0.0061526606
87	0xbda3b945	-0.07994322
88	0xbbf201a8	-0.0073854513
89	0xbd91e9df	-0.071246855
90	0xbcfe56c3	-0.03104723
91	0x3daebeac	0.085324615
92	0xbe2959a7	-0.16538106
93	0xbccc829f	-0.024964629
94	0xbc85fbe1	-0.016355457
95	0x3d817448	0.06321007
96	0xbdf0fc0d	-0.11766825
97	0xbe47b2ce	-0.19501802
98	0xbdde9f04	-0.108701736
99	0x3ba88f90	0.005144067
100	0xbd7306a8	-0.05933252
101	0x3cd3e7cb	0.025867363
102	0xbe6bce7f	-0.23027991
103	0xbbaf7fab	-0.0053557954
104	0xbe172498	-0.14760053
105	0xbd574a84	-0.052561298
106	0xbd9ffed0	-0.078122735
107	0xbd834e95	-0.06411473
108	0xbcd60e8c	-0.026129983
109	0xbcb6d4d0	-0.022318274
110	0xbda899ef	-0.082324855
111	0x3e17d5bc	0.14827627
112	0xbe0d4dc3	-0.13799195
113	0x3dacdb05	0.08440212
114	0xbe088b1e	-0.13334319
115	0x3da20a93	0.07912173
116	0x3dd081d7	0.10181015
117	0xbe37e5d6	-0.17958769
118	0xbd336564	-0.043797866
119	0xbc6a8500	-0.014313936
120	0xbe3aa7bd	-0.1822805
121	0xbdaef851	-0.08543456
122	0xbd6f7440	-0.058460474
123	0xbdec0778	-0.11524862
124	0x3dbd9f25	0.0925887
125	0xbe038684	-0.12844282
126	0x3cac937b	0.021066418
127	0xbd78c7ef	-0.060737547
128	0x3e1daf0d	0.15398808
129	0xbe2cc1f6	-0.16870865
130	0xbd618615	-0.05505951
131	0x3d806e15	0.062709965
132	0xbe83d948	-0.2575171
133	0xbdda2c0b	-0.10652932
134	0xbe1d60fc	-0.15369028
135	0xbe8faa75	-0.28059736
136	0xbdb84427	-0.08997374
137	0x3d8d3df6	0.06896584
138	0xbd021f4c	-0.03176813
139	0x3d17ac90	0.037029803
140	0x3d6a177f	0.057151314
141	0x3db8944d	0.09012661
142	0xbd557ef4	-0.052123025
143	0xbd81a50b	-0.063303076
144	0xbddb11df	-0.10696768
145	0xbd54e1e0	-0.051973224
146	0xbb6406bd	-0.0034794055
147	0xbd28bc93	-0.041195463
148	0x3e05f181	0.13080408
149	0x3ce028b5	0.02736316
150	0xbd2e411d	-0.042542566
151	0xbe338180	-0.17529869
152	0xbd99670f	-0.0749036
153	0xbdf84fb0	-0.12124574
154	0xbd8a6f84	-0.06759551
155	0xbcc58b01	-0.024114134
156	0x3d9404f5	0.07227508
157	0xbdbdb52f	-0.09263074
158	0xbc258314	-0.010102052
159	0x3de5cea1	0.11221052
160	0x3da44373	0.080206774
161	0x3c32febb	0.01092499
162	0x3dc1349b	0.09433862
163	0x3ca37165	0.019951532
164	0xbd8ed5ec	-0.06974396
165	0x3d8aa6ff	0.06770133
166	0xbd5aa774	-0.053382352
167	0xbd07fddc	-0.033201084
168	0xbc5a8ab3	-0.0133387325
169	0xbcc776a4	-0.024348564
170	0xbd1f26ec	-0.03885548
171	0xbcb5957d	-0.022166008
172	0xbd084f7e	-0.033278935
173	0xbd207e1b	-0.039182764
174	0xbdc7c6e1	-0.0975473
175	0xbd9efa5e	-0.077625975
176	0xbba15e5a	-0.0049245777
177	0xbd92a9f0	-0.07161319
178	0x3cbf51f5	0.02335451
179	0x3d66f115	0.056382257
180	0xbc1e00e9	-0.009643772
181	0xbe286aea	-0.16447034
182	0xbc23fcd5	-0.01000901
183	0xbd52220a	-0.051301993
184	0xbd87fcae	-0.06639992
185	0x3e0ba272	0.13636187
186	0xbc7cf95f	-0.015440314
187	0x3d8840f4	0.06653014
188	0xbc8acb3f	-0.016942618
189	0x3e0a8c52	0.1353009
190	0x3dbd6595	0.09247891
191	0x3e62002e	0.22070381
192	0x3d5cf5d8	0.053945392
193	0x3b7f58f6	0.0038962937
194	0xbce56787	-0.028003467
195	0xbd9759da	-0.07390185
196	0xbd90320e	-0.07040797
197	0x3d428ab8	0.047495574
198	0xbd5faf39	-0.054610465
199	0xbce9043f	-0.028444408
200	0xbe29e6ea	-0.16591993
201	0x3d114090	0.035461962
202	0x3c91df7f	0.017806767
203	0x3d6842ec	0.056704447
204	0x3bb6a74e	0.0055741435
205	0x3cda0712	0.0266147
206	0x3ccd0f54	0.025031723
207	0xb9898830	-0.00026232144
208	0x3e5136d2	0.20431069
209	0xbd7741ba	-0.060365416
210	0x3e56f9c0	0.2099371
211	0xbda6a82c	-0.08137545
212	0xbd1515df	-0.03639781
213	0x3cd8964d	0.026438856
214	0x3b3e020c	0.002899292
215	0xbe1166d2	-0.14199379
216	0x3de2eac7	0.110799365
217	0x3e17b506	0.14815149
218	0x3d15c65a	0.036566116
219	0x3bfb0ef5	0.007661695
220	0xbce13718	-0.027492091
221	0xbcca0e65	-0.024665067
222	0x3d3fc9c1	0.046823267
223	0x3d0a8c4f	0.033825215
224	0xbdd78fb7	-0.10525458
225	0xbce7a9ed	-0.02827927
226	0x3dd6ca49	0.104878016
227	0x3dbb8905	0.09156994
228	0xbb5fd011	-0.0034151117
229	0xbd0bf177	-0.034165826
230	0x3d94320f	0.072361104
231	0xbd892115	-0.06695763
232	0x3dd22bcc	0.1026226
233	0x3d2093c4	0.03920342
234	0xbd8e8ad9	-0.06960077
235	0x3d0f8dc9	0.035047326
236	0x3dc6afec	0.09701523
237	0x3d2aea0f	0.041727122
238	0x3df84284	0.12122062
239	0xbe1d06ba	-0.15334597
240	0xbbd1f837	-0.0064077633
241	0x3bbd28ff	0.0057727094
242	0x3d9f4edf	0.07778715
243	0xbcbd1b72	-0.023084376
244	0x3dc7ac9b	0.09749719
245	0xbe889c97	-0.2668197
246	0x3c49f0ae	0.012325449
247	0xbc6dad43	-0.014506641
248	0xbe0bf2d2	-0.13666847
249	0xbca8b8d5	-0.020595947
250	0xbd7022ce	-0.058626942
251	0x3dde8fe5	0.108672895
252	0x3d9e4bd8	0.0772931
253	0xbd3bd91a	-0.04586134
254	0xbe207d26	-0.1567274
255	0xbd64ace3	-0.05582894
