final_presentation/final_results/shallow/interval1/7000/2021-10-14_02-13-47/checkpoints/best_model_1_trial_71_validation_acc=0.9120.pt (torch, 458319 bytes, 6 tensors)

conv_time.weight f4 [20, 62, 90, 1]
0	0x3b20a22c	0.0024510724
1	0x3c7d726d	0.015469176
2	0xb9f73c4c	-0.00047156436
3	0xba804e28	-0.0009788917
4	0x3c0d7a90	0.008635178
5	0xbcb3e72b	-0.021960815
6	0xb88e98ce	-6.79955e-05
7	0xbc2a8c26	-0.010409391
8	0x3cbc0976	0.02295373
9	0xbcfd53a6	-0.030923676
10	0xbbb504f6	-0.005524273
11	0xbcf40dbe	-0.029791709
12	0xbc74a890	-0.014932767
13	0xbc8155b8	-0.015787944
14	0xbccab298	-0.024743363
15	0xbb869152	-0.004106679
16	0x3a41f217	0.000739844
17	0x3ca60098	0.020263955
18	0xbcff07a5	-0.031131575
19	0xbcd2f0cf	-0.025749592
20	0x3c0c5198	0.008564375
21	0xbcd4c9d7	-0.025975151
22	0xbc4aaae2	-0.012369843
23	0xbc5e6bc4	-0.013575498
24	0xbcd21cec	-0.025648557
25	0xbc95c214	-0.01828102
26	0xbcae83a3	-0.021303004
27	0xbc66b94e	-0.014082266
28	0x3c87a792	0.016559396
29	0xbd07067a	-0.03296516
30	0x3c7c232d	0.015389246
31	0x3c23a031	0.009986923
32	0xbbcb795a	-0.0062095346
33	0xbcfd00b5	-0.030884126
34	0x3c78117a	0.0151408855
35	0x3a1f84e6	0.0006085172
36	0xbc8c35ab	-0.017115435
37	0x3bc7d31e	0.006098165
38	0x3b03866b	0.0020069133
39	0x3cb46bad	0.022024
40	0xbc798192	-0.015228646
41	0xbc7b2da6	-0.015330708
42	0x3c1cdd7c	0.00957429
43	0x3cbeb35b	0.023278883
44	0xbc90cf47	-0.017676963
45	0xbd065cdd	-0.032803405
46	0xbcaaa9d1	-0.020832928
47	0xbd07db84	-0.03316833
48	0xbcaba3b3	-0.020952081
49	0xbc59736d	-0.013272149
50	0x3c9022e7	0.017594768
51	0xbc7a0248	-0.015259333
52	0x3bb0a994	0.005391309
53	0x3c1e16b1	0.009648965
54	0xbbcf085d	-0.0063181357
55	0xbce63d5d	-0.028105432
56	0xbcb42eda	-0.021994997
57	0x3c727f1d	0.014800814
58	0xbba35c6d	-0.0049853832
59	0xbcc399e3	-0.02387709
60	0xbc753044	-0.014965121
61	0xbb76256a	-0.0037558922
62	0xbca413a6	-0.0200289
63	0xbcb5146e	-0.022104468
64	0x3cb9a95c	0.022663765
65	0xbceee907	-0.02916385
66	0xbc7af28c	-0.015316617
67	0x3c0617a6	0.008184349
68	0xbcef050d	-0.029177213
69	0xbb162b06	-0.0022913828
70	0xbc6238ad	-0.013807458
71	0x3b04f337	0.002028657
72	0x3c8a0cd8	0.016851828
73	0xbc944c20	-0.018102705
74	0x3c3f4270	0.011673555
75	0x3cc4fc52	0.024046097
76	0xbc886fef	-0.016654937
77	0xbc0862f6	-0.008324375
78	0xbcbc0865	-0.022953222
79	0x3cb3b7e5	0.021938274
80	0xbcb2ea91	-0.021840366
81	0xbcece2b5	-0.028916696
82	0xbc9d135d	-0.019174272
83	0xbc211220	-0.0098309815
84	0xbcdfece1	-0.027334632
85	0x3bb90be0	0.0056471676
86	0xbcf29a62	-0.029614631
87	0x3aa4ab46	0.001256325
88	0x3c2df3e3	0.010617229
89	0x3c3b72e5	0.011440967
90	0x3a8718af	0.0010307039
91	0x3c2f02e4	0.0106818415
92	0x3a284e2d	0.00064203405
93	0xbc9516a8	-0.01819928
94	0x3caa84d7	0.020815296
95	0x3c61af65	0.0137747275
96	0xbb0b9f53	-0.0021304681
97	0x3bd0c47f	0.0063710804
98	0x3c809040	0.015693784
99	0xbc5a4fbb	-0.013324673
100	0x3cb720fc	0.022354595
101	0x3ccb69e5	0.024830768
102	0x3b6e5dc8	0.0036371816
103	0xbb2ed898	-0.0026679393
104	0xbc907ed0	-0.017638594
105	0x3c3542cc	0.011063289
106	0x3be37a4e	0.00694207
107	0xbc519e41	-0.012794078
108	0x3c8e0cda	0.017340112
109	0xbb06acbe	-0.002054974
110	0x3ca8d8d7	0.02061121
111	0x3c058f0e	0.008151783
112	0x3ca4ccb2	0.020117138
113	0xbc10a335	-0.008827974
114	0xbc914809	-0.017734544
115	0x3c9e7934	0.019344904
116	0xbc937f3f	-0.018005012
117	0xbc8ed5fe	-0.017436024
118	0xbc8d52d9	-0.017251419
119	0x3cc3cc9b	0.023901274
120	0x3cb09c75	0.02155898
121	0xbc220b71	-0.009890423
122	0xbc45a86c	-0.012064081
123	0xbb1d6156	-0.0024014316
124	0x3ca52769	0.020160394
125	0xbcc9af94	-0.024619855
126	0x3c6a02d1	0.014282898
127	0xbc9e9d6e	-0.019362178
128	0x3c1ec4f2	0.00969051
129	0xbc28be57	-0.010299287
130	0x3bc0f7f9	0.0058889356
131	0x3cd2a818	0.025714919
132	0xbc0e4842	-0.00868422
133	0xbc183812	-0.009290712
134	0x3c502287	0.012703544
135	0xbc8c1a22	-0.017102305
136	0xbbebc56e	-0.0071951663
137	0xbab2845a	-0.0013619766
138	0x3caf717e	0.021416422
139	0x3c1bc0c2	0.009506406
140	0xbce1cd24	-0.027563639
141	0xbcb2ec82	-0.021841291
142	0xbc4b7d59	-0.012420022
143	0xbc9fe053	-0.019516146
144	0xbcbb0624	-0.022830077
145	0x3cb35cf5	0.021894911
146	0xbb3c71e1	-0.00287544
147	0xbc42d29f	-0.011891036
148	0x378c0235	1.6690328e-05
149	0x3c56056a	0.013062814
150	0xbccfedfa	-0.02538203
151	0x3b3baa78	0.0028635543
152	0xbcd5dc8f	-0.026106147
153	0xbbd54ffa	-0.006509778
154	0x3cd088d2	0.025455866
155	0x3cae02ba	0.021241535
156	0xbb71883f	-0.003685489
157	0x3c18926d	0.009312254
158	0x3ca12f42	0.019675855
159	0xbc27a03d	-0.010231075
160	0x3cca8b5a	0.024724651
161	0xbcbfe0c0	-0.023422599
162	0x3c7e516d	0.015522343
163	0x3c72543d	0.014790592
164	0xbcbc818a	-0.023010988
165	0xbbe37e67	-0.0069425586
166	0xbb8107c5	-0.003937694
167	0xbcd820f8	-0.026382908
168	0x3b9784c8	0.004623983
169	0x3bc1284e	0.0058946973
170	0xbc974efa	-0.018470276
171	0xbbb183fb	-0.0054173446
172	0x3c9a731a	0.018853713
173	0xbc98f270	-0.01867029
174	0xbcbd3a53	-0.0230991
175	0x3c7d5f55	0.015464623
176	0x3c0d36d9	0.008619034
177	0x3cb4b4c6	0.022058856
178	0xbcc9eb91	-0.02464846
179	0x3c212ce2	0.009837361
180	0x3bb29eec	0.005451074
181	0x3cae6acf	0.021291165
182	0x3c352bba	0.0110577885
183	0xbcefceb4	-0.029273368
184	0xbcecbb8b	-0.028898021
185	0xbcf17bea	-0.029478032
186	0x3b50f489	0.0031884036
187	0xbaf84792	-0.0018942228
188	0xbb0b08c2	-0.0021214937
189	0x3cac7a85	0.021054516
190	0xba8fd8b4	-0.0010974617
191	0x3ca359dd	0.019940311
192	0x3c0216fb	0.007940049
193	0x3b4210b0	0.0029611997
194	0x3c8ce81e	0.017200526
195	0xbc7e9908	-0.015539415
196	0x38b701f4	8.726484e-05
197	0x3cbeee60	0.023307025
198	0x3c3f5c74	0.011679757
199	0xbb49ce0b	-0.0030792977
200	0x3b4ceb72	0.0031268266
201	0xbcf01136	-0.029305082
202	0x3c2e7539	0.010648065
203	0xbb9c4a1a	-0.004769576
204	0x3cc50a46	0.02405275
205	0x3b3a29dd	0.00284063
206	0x3a8a4622	0.0010549466
207	0xbc810394	-0.015748776
208	0xbcdd71c3	-0.027031785
209	0x3bec4503	0.0072103753
210	0xbc6f9465	-0.014622782
211	0x3ca1f7b5	0.019771436
212	0x3cb6e9fd	0.022328371
213	0x3cc0611d	0.023483807
214	0xbc80172e	-0.015636053
215	0xbca8450e	-0.02054074
216	0x3c2fd8a0	0.0107328
217	0xbce575e3	-0.028010314
218	0x3cc200e1	0.02368206
219	0x3c7e07d4	0.015504796
220	0xbced84bc	-0.028993957
221	0x3ca6d1c8	0.020363703
222	0xbc9c08fc	-0.019047253
223	0x3ca8c15d	0.020600015
224	0xbca76750	-0.020435005
225	0x3b3d54db	0.002888969
226	0x3c69bff6	0.014266958
227	0x3ca87f6e	0.020568576
228	0x3cc7d386	0.024392854
229	0xbc690bd3	-0.0142240105
230	0x3bafd3ba	0.005365816
231	0x3c0f60c0	0.008751094
232	0xbba11c5f	-0.004916712
233	0xbcdce353	-0.026963865
234	0xbcb02c3c	-0.021505468
235	0x3c25767a	0.010099048
236	0xbcd8590d	-0.02640965
237	0x3ad7383a	0.0016419955
238	0x3a324945	0.0006801079
239	0x3ca7301c	0.020408683
240	0xbcc77732	-0.024348829
241	0xbc9efa4d	-0.019406462
242	0xbce16bf4	-0.027517296
243	0xbcca4697	-0.024691863
244	0x3ba0fd55	0.004913012
245	0xbb26d21d	-0.0025454827
246	0x3cd9bf5f	0.02658051
247	0x3c5183eb	0.012787799
248	0x3b663b8b	0.0035130705
249	0x3ca8178a	0.020519037
250	0xbbfd422f	-0.007728837
251	0x3c985767	0.018596364
252	0xbcb8e206	-0.022568714
253	0x3cc09604	0.023509033
254	0x3c8f39fc	0.017483704
255	0xbcd7fb65	-0.026364991

bnorm.weight f4 [20]
0	0x3f99aa7e	1.2005155
1	0x3fa18120	1.2617531
2	0x3f97d709	1.1862499
3	0x3f96a37c	1.1768641
4	0x3f98ec62	1.1947138
5	0x3f9b3af6	1.2127368
6	0x3f9ac1f4	1.209044
7	0x3f9afd95	1.2108637
8	0x3f95ce79	1.1703635
9	0x3f9921be	1.1963422
10	0x3f9a2e20	1.2045326
11	0x3fa02acb	1.2513059
12	0x3f9b7923	1.2146343
13	0x3f9aebcb	1.2103208
14	0x3f9e72a5	1.2378737
15	0x3fa05bdd	1.2528034
16	0x3f9b44f8	1.2130423
17	0x3f9c11c0	1.2192917
18	0x3fa197a5	1.2624403
19	0x3f9d119c	1.2270999

bnorm.bias f4 [20]
0	0xbdb66dda	-0.08907671
1	0x3c6b96f7	0.014379255
2	0xbc3311ad	-0.010929507
3	0xbebff16b	-0.37488875
4	0x3e1fb534	0.15596467
5	0x3d85a41c	0.06525442
6	0x3caa3572	0.020777438
7	0x3e329227	0.17438565
8	0x3b9afd02	0.004729868
9	0x3d19e49c	0.037571535
10	0xbe9d262d	-0.30693188
11	0xbdfaa8ab	-0.12239202
12	0x3c820051	0.015869291
13	0xbd20361b	-0.0391141
14	0x3c2fb82f	0.010725065
15	0x3dc06983	0.09395125
16	0xbd6f7142	-0.05845762
17	0x3db9d3b1	0.0907358
18	0x3d565179	0.052323792
19	0x3ea2d104	0.3180009

bnorm.running_mean f4 [20]
0	0xb9c91b4f	-0.00038358054
1	0xbb9c8239	-0.004776266
2	0x3b306e24	0.0026921118
3	0xbc068393	-0.008210081
4	0x3a065ef7	0.0005125845
5	0xbb3664c0	-0.0027831048
6	0x3b1b1442	0.0023663198
7	0x3b4d5ada	0.003133467
8	0x3adee525	0.0017005546
9	0x3b927745	0.0044697844
10	0xbabcaf35	-0.0014395477
11	0x39cf7ab3	0.00039573535
12	0xbc61369b	-0.013745929
13	0xbb16bc7b	-0.0023000527
14	0xbbc91247	-0.006136212
15	0x3bbdf4df	0.005797013
16	0x3bdfe78b	0.006833022
17	0xbbb1b2dd	-0.0054229335
18	0x3b3fbcc4	0.00292568
19	0xbbbb3442	-0.0057130167

bnorm.running_var f4 [20]
0	0x411387d6	9.220663
1	0x417464ba	15.274591
2	0x4113d5ca	9.239695
3	0x41c05c42	24.045048
4	0x41c3dec1	24.483767
5	0x4102115d	8.129239
6	0x4180f526	16.119701
7	0x416b451b	14.704371
8	0x410d2f72	8.824083
9	0x4108c48b	8.547984
10	0x41a89bbf	21.076048
11	0x41252087	10.320441
12	0x41bc15a8	23.510574
13	0x4115b05e	9.355558
14	0x413eee88	11.933235
15	0x416fda8e	14.990858
16	0x41317dc6	11.093206
17	0x41a6bb44	20.841438
18	0x4199d85c	19.230644
19	0x41c70dd4	24.881752

conv_classifier.weight f4 [1, 20, 109, 1]
0	0x3ce2d3c3	0.027688866
1	0x3c2424c8	0.010018535
2	0xbbda15bf	-0.0066554244
3	0xbd87514b	-0.06607302
4	0xbddcf3fe	-0.10788725
5	0xbdbd9f41	-0.09258891
6	0xbde4e7fd	-0.11177061
7	0xbd35a4b9	-0.044346545
8	0xbd5e15b0	-0.0542199
9	0xbcff79c2	-0.031185988
10	0xbcb74ad6	-0.022374552
11	0xbd307bee	-0.04308694
12	0xbd60b482	-0.054859646
13	0x3c8c5a98	0.017133042
14	0xbd474cc0	-0.04865718
15	0x3b3c07f9	0.0028691276
16	0xbad75998	-0.0016429899
17	0xbcf6919f	-0.030098734
18	0x3c4490be	0.0119974
19	0x3c37ace1	0.011210651
20	0xbd022721	-0.031775597
21	0xbd3136b0	-0.043265045
22	0x3c9f526b	0.01944848
23	0x3cb6fb64	0.02233667
24	0xbba6fef4	-0.0050963107
25	0xbb92e451	-0.004482784
26	0xbbf45d60	-0.00745742
27	0x3ca6be03	0.020354277
28	0xbd4e2420	-0.05032742
29	0x3c61e801	0.013788224
30	0x3cf010e1	0.029304923
31	0xbcabd933	-0.020977592
32	0x3c0f15ef	0.008733257
33	0x3cca7c2b	0.024717411
34	0x398a0b95	0.0002633004
35	0xbd07df04	-0.03317167
36	0xbc99c229	-0.01876934
37	0xbcc6f044	-0.02428449
38	0xbb913a26	-0.0044319807
39	0xbd1fc4bf	-0.03900599
40	0x3b8d2f66	0.004308629
41	0x3c6a4e2c	0.014300864
42	0xbc26f95b	-0.010191287
43	0x3c6873e9	0.014187791
44	0xbc82a456	-0.015947502
45	0x3bc5d505	0.006037357
46	0x3c9058c7	0.017620457
47	0x3d5929cd	0.05301838
48	0xbd502a43	-0.050821554
49	0xbc487602	-0.0122351665
50	0x3c9fd91e	0.01951271
51	0xbc9c7fa6	-0.019103836
52	0x3c9b94cf	0.018991856
53	0xbc58680a	-0.013208399
54	0xbb029702	-0.0019926433
55	0x3cf44eed	0.029822791
56	0xbc2ff598	-0.010739706
57	0xbb882579	-0.0041548577
58	0xbd18da0f	-0.037317332
59	0xbcd2d23d	-0.025735015
60	0x3cb438c2	0.02199972
61	0x3add23b2	0.00168716
62	0x3d4e3107	0.050339725
63	0x3bb6ff26	0.0055846153
64	0xbc8c8df0	-0.017157525
65	0xbd785a9f	-0.060633298
66	0x3b0f2adf	0.0021845622
67	0xbd2d9e73	-0.042387437
68	0xbcc6ba16	-0.024258655
69	0x3c888fc6	0.016670119
70	0x3d8f0fc3	0.06985428
71	0x3821f1f8	3.8610742e-05
72	0xbc6332ef	-0.013867124
73	0xbbe4a4da	-0.0069776597
74	0x3b05203a	0.0020313398
75	0x3d399e78	0.045317143
76	0x3d032f61	0.032027606
77	0xbc3cb3f0	-0.01151751
78	0x3ce79721	0.028270306
79	0x3d2a3b2f	0.041560348
80	0x3d4e5030	0.05036944
81	0x3d688b43	0.056773435
82	0x3d066e9f	0.03282034
83	0x3a9b37a3	0.0011842143
84	0xb9d361de	-0.00040317973
85	0x3acfdde0	0.0015858971
86	0x3cddb34d	0.027063036
87	0x3c93b4ad	0.018030489
88	0x3d342e0f	0.043989237
89	0x3ce33c88	0.027738824
90	0xbcc6b770	-0.024257392
91	0x3d29c28a	0.041445293
92	0x3cf2a32e	0.029618826
93	0x3d11f1be	0.035630934
94	0xbc669a1d	-0.014074829
95	0x3c6e7450	0.014554098
96	0xb9add644	-0.00033156772
97	0xbda858a8	-0.08220035
98	0xbd163897	-0.036675062
99	0xbbe07593	-0.0068499534
100	0xbc7f957d	-0.015599606
101	0xbd41929c	-0.04725896
102	0xbd10978f	-0.035300788
103	0xb8fc456b	-0.000120292265
104	0x3d9a3970	0.075304866
105	0x3d24df92	0.040252276
106	0xbca0242d	-0.0195485
107	0x3c3ea570	0.011636123
108	0x3c2bd9b2	0.010488914
109	0x3c28cbac	0.010302465
110	0x3a87e4b5	0.0010367843
111	0xbd390a18	-0.04517564
112	0xbbb0be8b	-0.0053938082
113	0xbd8f86f2	-0.07008161
114	0xbd90c379	-0.070685335
115	0xbcc16177	-0.023606045
116	0xbc65a421	-0.014016182
117	0xbd986b97	-0.07442396
118	0xbce87fb7	-0.028381212
119	0xbce156cd	-0.02750721
120	0x3d3338bb	0.043755274
121	0xbaf91e2a	-0.0019006182
122	0x3d44528c	0.047930285
123	0xbc42de9f	-0.011893897
124	0x3d6fabf5	0.0585136
125	0x3d4cd1c8	0.05000475
126	0x3bd43245	0.006475719
127	0x3b0cb68b	0.0021471109
128	0xbc5d3fa9	-0.013503947
129	0x3d17a2d1	0.03702051
130	0x3c650700	0.01397872
131	0x3c7f5d75	0.015586247
132	0x3c203569	0.009778359
133	0xbb3d5f99	-0.0028896092
134	0xbcb05848	-0.02152647
135	0x3c521f64	0.012824867
136	0xbc08f937	-0.008360199
137	0xbcf7c0b6	-0.030243259
138	0xbca33c23	-0.019926136
139	0xbca19c30	-0.019727796
140	0xbd0c6d09	-0.03428367
141	0xbbf80984	-0.0075694937
142	0xbce9316c	-0.028465949
143	0xbd02ec02	-0.031963356
144	0xbcb7d3f0	-0.022439927
145	0xbd317608	-0.043325454
146	0xbc8c173c	-0.017100923
147	0xbce26c26	-0.02763946
148	0x3ce1dc5b	0.027570894
149	0x3c74129b	0.014897014
150	0x3cb114e5	0.021616409
151	0x3d3e9458	0.04652819
152	0x3d7eca5b	0.0622047
153	0x3d4c4a42	0.049875505
154	0x3cad562d	0.021159256
155	0xbb3947c4	-0.0028271535
156	0x3c9ea5a4	0.019366093
157	0x3d00da84	0.031458393
158	0xbbd965b5	-0.006634439
159	0x3d270987	0.04078057
160	0x3d26b465	0.04069938
161	0x3d690420	0.0568887
162	0xb98ddf1b	-0.00027059842
163	0xbc81b27d	-0.01583218
164	0xbc05d30d	-0.008167994
165	0xbd0830dd	-0.033249725
166	0xbcba1a06	-0.022717487
167	0xbdc004b8	-0.093759
168	0xbbcb776b	-0.006209304
169	0x3c159c6b	0.009131531
170	0xbd20f806	-0.039299034
171	0x3c85177d	0.016246552
172	0x3d4cd4be	0.050007574
173	0x3d0b51a0	0.03401339
174	0xbd17a7ab	-0.037025135
175	0x3cf3cbfe	0.029760357
176	0xbb244a70	-0.0025068782
177	0xbcd3deaa	-0.02586301
178	0xbc6ff43c	-0.014645632
179	0xbd80daf3	-0.06291761
180	0xbc8e8459	-0.017397093
181	0xbb0e0f24	-0.0021676505
182	0xbd416f1e	-0.04722511
183	0x3d257757	0.040397014
184	0xbc556b95	-0.013026138
185	0x3b3c6e56	0.0028752289
186	0xbd0051ee	-0.031328134
187	0x3c246576	0.010033956
188	0xbc2892f1	-0.01028894
189	0xb9d5beeb	-0.0004076877
190	0x3c1fd360	0.009754986
191	0x3d2f7611	0.042837206
192	0xbd3710aa	-0.044693626
193	0x3bf8d55d	0.0075937943
194	0x3b5e2b64	0.0033900375
195	0x3c5f344c	0.013623308
196	0x3bd0f180	0.0063764453
197	0xbd073c3c	-0.03301643
198	0xbc83d899	-0.016094493
199	0xbd3df1ad	-0.046373058
200	0xbd51e942	-0.051247843
201	0xbd0cb71f	-0.034354325
202	0x3c415cdc	0.011801925
203	0xbc02a2de	-0.007973401
204	0xbd0d3e4b	-0.034483235
205	0xbd657ca5	-0.056027073
206	0xbd346a01	-0.044046406
207	0x3c425a0d	0.01186229
208	0xbdb8aa13	-0.09016814
209	0xbc990294	-0.018677987
210	0x3c9977cb	0.01873388
211	0xbbeba9ff	-0.007191896
212	0xbd1333ab	-0.035937946
213	0xbd1586a9	-0.036505375
214	0xbcdf6a17	-0.027272267
215	0xbd16ad96	-0.03678664
216	0xbd19a5d9	-0.03751168
217	0xbc962b17	-0.018331094
218	0x3c0dde85	0.00865901
219	0x3c89cc0f	0.016820936
220	0xbcc0a224	-0.023514815
221	0xbd1e67e2	-0.03867329
222	0x3cadfca7	0.021238638
223	0x3d8a0fe8	0.06741315
224	0xbb2a4f72	-0.0025987295
225	0xbc0aa40c	-0.008461963
226	0xbc9ece94	-0.019385614
227	0xbb4f5c2c	-0.0031640632
228	0x3d75bdd3	0.059995484
229	0x3d80b06e	0.06283651
230	0x3bd03b50	0.006354727
231	0x3d120ed7	0.035658684
232	0xbbccd811	-0.006251343
233	0x3d0bb2e8	0.034106165
234	0x3c878722	0.016543929
235	0xbc031781	-0.008001209
236	0xbd5e2679	-0.05423591
237	0x3c6621c6	0.014046138
238	0x3d38a0b8	0.04507515
239	0xbc55da4f	-0.013052537
240	0xbd750d4e	-0.05982714
241	0x3d0a2081	0.033722404
242	0x3c236dce	0.00997491
243	0xbd8ea4a7	-0.06964999
244	0xbd2aa21a	-0.0416585
245	0x3c0e144d	0.008671832
246	0x3d31405f	0.04327428
247	0x3c84bd11	0.016203435
248	0xbcfeb01d	-0.031089837
249	0x3d26d09e	0.040726297
250	0xbd8e2153	-0.0693995
251	0xbcb3da69	-0.021954732
252	0x3c86ff07	0.016479028
253	0x3c489f4c	0.012245011
254	0xbd1dca6e	-0.03852313
255	0x3d55590d	0.05208688
