final_presentation/final_results/shallow/interval1/7000/2021-10-14_02-13-47/checkpoints/best_model_1_trial_85_validation_acc=0.8398.pt (torch, 458319 bytes, 6 tensors)

conv_time.weight f4 [20, 62, 90, 1]
00000000: 6e09 45bb 623a 8fbc 010d 03bd 5b89 90bc
00000010: 42d2 0bbc 7ddf abbb ca02 a83c 13e2 bb3c
00000020: dd44 fa3b 76a5 b4bc 9ae8 ef3b 2b4d 9bbc
00000030: 6ea8 4dbc 2355 8d3c aae6 bebc cb3e b53c
00000040: c54c 95bc c103 b43c 4752 b9bc 7c88 35bb
00000050: dab4 c13c ac85 b53c 0414 d3bb 7fbf 8dbc
00000060: 537f 11bb cecc 7b3c 3332 c73c 1edc 383b
00000070: c3dd dfbc eaaa cbbc 81e7 96bc c4a8 0fba
00000080: 8ded 30bb be17 23bc c1c6 48bc 00f8 113b
00000090: 3131 b83c 848c fc3b 5f98 b53c ddfe 7f3b
000000a0: aa23 51bc 0e95 b23c 67ed 6d3c 99aa 15bc
000000b0: c0e3 ebbc 4e86 b53a 645a 843c 8e85 8fbc
000000c0: 896b 4c3c b183 82bc 3045 b83b 1232 93bc
000000d0: d623 9dbc 0e5a 5f3c 92e6 cdbc 2c9b d13b
000000e0: d5c5 b6bc ea9a 9fbb f721 47bc f561 1c3c
000000f0: aac8 74bc dc43 bfbc 31f3 e73c 0715 943c
00000100: afb4 203b b142 14bc 08f3 b93c d8f8 c13c
00000110: 62bf 27bc 4d56 3fbc 7924 373c ce60 873c
00000120: 2e94 c33c b807 37bc f317 c5bc 3983 543b
00000130: 17ff 9bbc 8cb1 9d3c d5fd 803c aa16 b4bb
00000140: 4b5d b63c 1546 a73c 4f3d bb3c 6113 99bb
00000150: fcd0 3c3b 9f01 b23c f8da 6a3c e730 f4bb
00000160: 5bfe 70bc d7ff eabb 659f 9fbc 3272 5a3c
00000170: a060 8b3c b5b2 c73c 06e6 cdbc b96e 323c
00000180: 1db4 8d3c 14e6 7abb dc72 d7bc 80eb a13c
00000190: 03b7 95bb bea4 2f3c f4db e6bc c19c c5bc
000001a0: a2b8 2bbb f664 cc3c 25f4 1b38 4dca 05bc
000001b0: 52a7 a8bc d446 f2bc 4748 b53b 3d07 d43c
000001c0: 1b28 54bb 6ee0 913b 69ef a7bc b8f4 1e3c
000001d0: f91a 813c 5c53 c4ba 5559 aebc 08e9 423c
000001e0: b802 a13c ef75 8fbb 8730 b73a 6295 a7bc
000001f0: a7ae 933c 90a1 07bb 47c6 2a3c bcb2 a6bc
00000200: 5327 2abc e4b3 cb39 1bb4 583c a2f3 8abb
00000210: 6867 c23c 9ec5 ae3a bb37 a9b9 8721 2e3c
00000220: 7802 99bc e6d8 9b3c a653 c13b 23da c53a
00000230: 628e 703b 567b d1b9 8509 39bc cb4a 07bc
00000240: eac2 1dbc f747 3dbc a761 8d3c 2b17 533c
00000250: 9113 363c f568 413c ec11 f53a 8dbb d5bc
00000260: 0c7c 83bc 6ab6 87bc 41c1 b23c d0b4 19bc
00000270: 1bd8 7ebb f8a1 473c 2fda d1bb c829 be3c
00000280: 607f 983c b960 bc3b 193c 13bc e6d4 31bc
00000290: 36eb 653c b564 c7bc 99bd 42bc d19f 96bc
000002a0: cca8 233c 6e6b a53c 0464 40bc 70d8 49bc
000002b0: be89 d93c 4569 23bc f508 a7ba a017 96bc
000002c0: 87bf 9cbb 7a16 4e3c 53d3 85bc 38b2 bebc
000002d0: 1731 fbbc 9ada 4d3c d9c3 c1bc 233b b73c
000002e0: 8235 9b3c 8346 1a3c 35ee c0bb b7f2 ba3c
000002f0: 0f5c 88bc c12d 803b 4edc c53c 13e2 5f3c
00000300: e708 23bc b555 243c ad72 a0bc d099 cd3c
00000310: 84dc d33c 7501 debc f5e2 33bc b498 b0bb
00000320: 4dfd d0bc 701b cb3c ffcb 87bc 82a0 b2bc
00000330: b1d7 c2bc 3354 863c 1590 b43c 9be1 c83c
00000340: d4d7 74bc b636 073c 27af b5bc 6951 9a3c
00000350: b475 1e3c 9d97 163c efe6 e6bb b98d 49bc
00000360: b3dd 9dbc 2a00 dfbc 6bb7 92bc 3b09 7a3c
00000370: 12a1 b53c 0486 ab3c 852f bcbc 1586 d93a
00000380: 5d27 bcbc 55e7 8fbc caae 0b3c a395 64bc
00000390: a955 bc3c 508f d4bc 97ec b73c daa0 90bc
000003a0: a865 77bc 49ee 603c 916f 0fbb f1f4 39bc
000003b0: bb21 013a e731 833c 872a 803c 456d 83bc
000003c0: cd2d 9a3c ea87 d2bc 34a1 ba3c 6781 c03c
000003d0: ea8b d13b 417d af3c 434a cc3c 22c4 f6ba
000003e0: 460c 13bc 2f67 89bc 965e 773c ba6b 5abc
000003f0: 9686 693c cdd9 693c 2a72 c8bc fb74 74ba
-0.0030065435 -0.017483894 -0.031994823 -0.017643621 -0.008534016 -0.0052451477 0.020509142 0.022934949
0.0076376037 -0.022051554 0.0073214294 -0.018957695 -0.012552364 0.01725251 -0.023303349 0.022124669
-0.018225083 0.021974446 -0.02262224 -0.002769976 0.023645807 0.022158466 -0.006441595 -0.017303227
-0.0022201135 0.015368653 0.024315929 0.0028207372 -0.027327424 -0.024861772 -0.018420937 -0.0005480165
-0.002699706 -0.009954391 -0.012254418 0.0022273064 0.022484394 0.0077071805 0.022167383 0.0039061822
-0.012764851 0.02179959 0.014521933 -0.009134912 -0.028795123 0.001384923 0.016156383 -0.017519739
0.01247681 -0.015931936 0.005623482 -0.017968211 -0.019182127 0.013632311 -0.025134359 0.0063966718
-0.02231113 -0.004870762 -0.012154094 0.009544839 -0.01494042 -0.023347788 0.028314205 0.018076433
0.0024521758 -0.009049104 0.022698894 0.023678228 -0.0102385 -0.011678291 0.011178129 0.016525652
0.023874369 -0.011171274 -0.024059271 0.0032426848 -0.019042535 0.0192497 0.015746037 -0.005495866
0.022261282 0.02041916 0.022856383 -0.0046714996 0.0028811088 0.021729289 0.014334433 -0.0074521187
-0.014709081 -0.007171612 -0.019485185 0.01333289 0.017013848 0.024377206 -0.025134098 0.010890656
0.017297799 -0.003828411 -0.026299886 0.019765615 -0.004568936 0.01072043 -0.028181054 -0.024122598
-0.002620258 0.024950486 3.7182257e-05 -0.008165908 -0.020587597 -0.02957479 0.005532298 0.025882358
-0.0032372538 0.004451803 -0.020499902 0.0097019 0.015759932 -0.0014978456 -0.021282831 0.011896379
0.019654617 -0.0043780725 0.0013976254 -0.020456973 0.018027617 -0.0020695664 0.01042325 -0.020348899
-0.010385352 0.00038853206 0.013226534 -0.004240469 0.023730949 0.0013334041 -0.00032275714 0.010628111
-0.018677935 0.019024324 0.0058998642 0.0015094917 0.003670596 -0.0003995548 -0.011293774 -0.008257578
-0.009628991 -0.011552802 0.017258478 0.012883942 0.011113063 0.011804809 0.0018697358 -0.026090408
-0.016050361 -0.016566474 0.021820666 -0.009381488 -0.0038886133 0.012184612 -0.0064041833 0.023213282
0.018615425 0.005748835 -0.008986496 -0.010853982 0.014033129 -0.024340013 -0.011886024 -0.018386753
0.009988975 0.020192828 -0.011742596 -0.012319669 0.026554938 -0.009973829 -0.0012743758 -0.018321812
-0.004783574 0.012578601 -0.016336119 -0.02327834 -0.030663056 0.012564326 -0.023652958 0.022367066
0.018946413 0.009416225 -0.0058877715 0.022820814 -0.01664546 0.0039117043 0.024152901 0.01366474
-0.009950853 0.0100302 -0.019585932 0.025097758 0.025861986 -0.027100304 -0.010979404 -0.0053892974
-0.025511408 0.024793357 -0.016576765 -0.021805052 -0.02378449 0.016397571 0.02204136 0.02452164
-0.014944036 0.00825279 -0.022178246 0.018837648 0.009671617 0.009191421 -0.0070465724 -0.012301856
-0.019270753 -0.027221758 -0.017909726 0.01526099 0.02217153 0.020937927 -0.022971878 0.0016595746
-0.022967989 -0.017566362 0.00852556 -0.013951692 0.022990065 -0.025947243 0.022451682 -0.017654825
-0.01509992 0.013728687 -0.0021886567 -0.0113499025 0.00049259857 0.016015006 0.015645279 -0.016043315
0.018820668 -0.025699575 0.022781946 0.023499204 0.006394853 0.02142203 0.024937754 -0.0018826763
-0.008975094 -0.016772835 0.015098235 -0.013331348 0.014253279 0.014273119 -0.0244685 -0.0009325293

bnorm.weight f4 [20]
00000000: 58a8 8d3f 206b 873f 1392 8c3f abd8 8b3f
00000010: 418c 8b3f 3754 8b3f ce3d 8d3f 39a6 8b3f
00000020: 60da 8b3f 0fbf 8d3f 8335 8c3f e279 8c3f
00000030: df2e 8b3f 4fc5 8b3f 8add 8c3f 594f 8b3f
00000040: 624c 8d3f 98d8 8c3f f510 8e3f 6ae9 8a3f
1.1067 1.0579567 1.0982078 1.0925497 1.0902177 1.0885075 1.1034486 1.0910102
1.0926018 1.1073931 1.095383 1.0974696 1.0873679 1.0919589 1.1005108 1.088359
1.1038935 1.1003599 1.1098925 1.0852482

bnorm.bias f4 [20]
00000000: a502 093d 8505 963e d3c4 273e 51ce 423c
00000010: 870c 2dbb 407e 923c 713c f4bd e07b 3fbe
00000020: d20f 373e 66d0 823d 7e91 f83d 12f0 a3bd
00000030: eb5f d3bd 2320 c13b 9ce9 173a 934f fcba
00000040: 3690 ca3c e9f9 dcbd 2807 3e3d 6ada 2ebb
0.033449788 0.29301086 0.16383676 0.01189001 -0.0026405172 0.017882466 -0.11925591 -0.18699598
0.17877129 0.06387405 0.121371254 -0.08004774 -0.10321029 0.0058937236 0.00057950034 -0.0019249789
0.024726968 -0.10789854 0.046393543 -0.0026680478

bnorm.running_mean f4 [20]
00000000: 9832 6abb c482 453c a543 e7bb 8e45 5cbc
00000010: b217 25bb 7705 5b3b 5515 adbb 1ec5 023c
00000020: 6db4 673b 1e68 8b3a b910 a33a eb43 153c
00000030: c06a e63a 0384 063c 6a39 26b9 f192 85bb
00000040: 74a9 00bc 7877 d2bb e5ba 92ba c9d8 033b
-0.0035735723 0.012055103 -0.0070576244 -0.0134443175 -0.0025191125 0.0033420005 -0.005282084 0.007981567
0.0035355345 0.0010635888 0.0012440897 0.009110431 0.0017579421 0.008210185 -0.00015852382 -0.0040763547
-0.007852901 -0.006422933 -0.0011194615 0.0020118228

bnorm.running_var f4 [20]
00000000: 9a00 a240 4389 a041 60a6 1341 c5a4 1d41
00000010: 500f c240 ca36 a140 e10c 4d41 00c8 4f41
00000020: 01bb 4f41 aeeb 1641 2f4c 9d41 949e da40
00000030: 12b4 0b41 b803 d440 b1de ef40 d974 f140
00000040: 4bc2 3641 10bf 3941 60bc ec40 2736 7f40
5.0625734 20.067022 9.228119 9.852727 6.064369 5.037938 12.815644 12.986328
12.983155 9.432539 19.662199 6.8318577 8.7314625 6.625454 7.495934 7.5455136
11.422435 11.609146 7.397995 3.9876802

conv_classifier.weight f4 [1, 20, 109, 1]
00000000: f98a 813c 7337 f33c 3674 debb e49b 27ba
00000010: e929 683c 0a7e 943c 13dd 70bd 602b e7bc
00000020: 5507 d93b b6fc 263b 1afb 4a3c 8dff 0b3c
00000030: dd4b 5bbc e6c1 0a3d 15a7 4abd aa72 893c
00000040: b5fb bfbb 2d31 153d abc6 2f3d 5b75 c43c
00000050: 3804 6abc d060 dd3b 5acb 8a3a 1310 403d
00000060: a0ae 363d a58b 93bc 5188 50bc ec4f 1c3d
00000070: 9b91 82bd 0199 0c3d 7e2a 323c 8053 aebb
00000080: 17b2 f839 3ace 6a38 c4ae 69bc 961f daba
00000090: edde 2dbc cc2d 363b d1a7 a53a d306 c3bc
000000a0: 4ac5 6a3c 3ff5 d9bb 7156 09bd bae4 d0bc
000000b0: e45f 8f3c f5ea a73c 0c64 a93c 3a1d cbbc
000000c0: d1a8 c03a 6ee1 3d3d b8e8 4b3d 7cd2 debc
000000d0: f102 26bc 6d20 92bc cc38 cc3a 8f2a 42bc
000000e0: 99ee 343d 4e2d a4bc ab45 2b3c d0bc c9bb
000000f0: d3da 2ebd 9173 fa3b 9f4a 583d bc8f 38bc
00000100: c537 933b ac7f 273b 582c 0ebc ad0a c0bc
00000110: 320d f1bc 7dd6 533c 9f68 583b a1e2 c63a
00000120: 7033 2b3d 47c1 a7bc 346b 3bbc 5ce2 e73c
00000130: 5e68 8fbb 721e e1bc 8c3f acbc 98bf d43c
00000140: 2e41 103d 1ebf 0a3d baec 58bc 8326 703c
00000150: 86fd 71bb 78f7 96bc 766a a63c 151f 9239
00000160: 70ff 0bbd 2dc1 25ba 5b37 2e3c 7f45 40bc
00000170: 4bc9 503c de0b eabc f318 923c d513 c83c
00000180: cd75 9c3c 18e4 43bd d996 9a3b 9cf9 f8b9
00000190: 18c5 f53b df8e 3d3b 02aa 903b d789 af3b
000001a0: 953a 053d d87e 7dbb 3d41 2b3d 0d0d 7e3a
000001b0: 163b cabb 713f 223a ec87 513c 08f3 ec3b
000001c0: f89b 1bbc da2a 1fbd f7ee d9bd 21de 58bd
000001d0: 94b4 93bd e8fe 5dbd 7c36 b3bd 6229 98bd
000001e0: d410 4abd c942 45bd 33fa 23bd f0df ecbc
000001f0: c63c 48bd 17d8 b4bc 9005 043b 233d 44bd
00000200: f3ba a7bc 066b da3b 1891 c3bc 3fd4 8d3b
00000210: f217 7dbd 123c 32bd 7cf1 633c 78d5 83bc
00000220: 3a5b a23b 8f6c d9bc 95eb d4bc b3ed 0fbc
00000230: d8b4 20bc 3973 62bd aaf7 9d3c f733 f6bc
00000240: b8f4 0fbd 8810 2a3c 8ac3 cfbc 17f0 913c
00000250: 2494 50bc d1aa 303c e88f 443c 822e c2bb
00000260: 5406 1fbd 563c bc3c 1a44 373a 857d 613d
00000270: 87bd a73d 6685 a4bb a17d 86bc 0cfa 323d
00000280: f4b3 8f3d f5d6 c03c 6cac 33bc 9116 28bc
00000290: e855 0a3b c986 2fbc 6bb9 4ebc eb91 8a3c
000002a0: e456 e93a aa3f c1bc c54e 8fbb 9c08 e5bc
000002b0: 5e1d 0cbb 064b 0f3c c965 833b d36f 133c
000002c0: 4633 eabc 0dac 88bb 320b 353d 9f6c 163d
000002d0: 367b 43bc 3c2b 163c 415c 9f3c da17 0b3d
000002e0: b92e 143c 7062 b33c a71e 3cbc a1a4 57bb
000002f0: c7ff 0a3c 9b15 f93c b716 163c 52e1 383d
00000300: 58ae 673d 26b3 44bc aa42 2f3c 2ffd 563c
00000310: e911 603d 2224 c03b 237e 193c caca 0a3d
00000320: 7dae a83c cb45 af3c 049b 5cbc 6267 523c
00000330: 58ab 1c3c 4506 9bbb e2aa ae3c 2a7b 2cbb
00000340: 2fe2 8abc 57ad 7f3d 02d9 153c c892 473c
00000350: d04a 6e3c a5ac 3d3d cf44 6d3d 86b1 15bb
00000360: bd28 21bc 5671 003d 4d59 f03b 9bc6 f83b
00000370: e178 67bc 58dc 38bc 5b6a cb3c fa71 2c3d
00000380: 695c ff3a 1cc7 94ba cd68 f13c 0bd4 153c
00000390: 7e2b d13c 2568 2f3c 5b19 843b 9885 ea3c
000003a0: 8202 513d 6f31 3b3d 600e 813d 5429 363c
000003b0: e798 3b3d a0aa d2bb 3bf9 843d c0a2 8d3c
000003c0: ab37 9d3b 9578 1fbb 1a15 863d 721c a43c
000003d0: 3c20 e23c d9a4 08bd 9dfb 7c3c 9a33 3f3d
000003e0: a535 d43a f5b7 bc3c 5770 05bd 411d 2dbc
000003f0: b245 273c 075f f73c 9a12 bb3c 1477 db3c
0.015813338 0.029689526 -0.0067887558 -0.0006393774 0.014170148 0.018126506 -0.058804583 -0.028218925
0.0066231885 0.0025480217 0.012388969 0.008544815 -0.013384786 0.033876322 -0.049475748 0.016778309
-0.0058588632 0.03642385 0.042914074 0.02398174 -0.014283232 0.0067559257 0.0010589168 0.04689033
0.04460013 -0.018010924 -0.012727813 0.038162157 -0.06375428 0.034325603 0.010874389 -0.0053200126
0.00047434933 5.598201e-05 -0.014262859 -0.0016641493 -0.010612232 0.0027798293 0.0012638514 -0.023806965
0.014329264 -0.00665155 -0.033529703 -0.02549969 0.017501779 0.020497778 0.020677589 -0.02479421
0.0014698749 0.046357565 0.049782485 -0.027199976 -0.010132537 -0.017837727 0.0015580892 -0.011850967
0.044172857 -0.020041134 0.010453622 -0.0061565414 -0.042689156 0.007643171 0.05280554 -0.011264738
0.004492732 0.0025558276 -0.008677565 -0.02344259 -0.029425237 0.012929556 0.0033021343 0.0015173742
0.0417971 -0.020477904 -0.011439133 0.028306179 -0.004376455 -0.027480338 -0.021026395 0.025970265
0.03521841 0.03387367 -0.013240034 0.014657619 -0.0036924793 -0.01842855 0.020314436 0.00027870448
-0.03417915 -0.0006323036 0.010633315 -0.011735319 0.0127433045 -0.028570112 0.017834162 0.02442352
0.01909914 -0.04782495 0.0047176895 -0.0004748822 0.007500302 0.002892427 0.0044147978 0.005357008
0.03252657 -0.003868034 0.041810263 0.0009691276 -0.0061715944 0.0006189263 0.012788754 0.00723112
-0.009497635 -0.038859226 -0.10641282 -0.052946214 -0.07212177 -0.054198176 -0.087506264 -0.07429768
-0.049332455 -0.048159394 -0.04003353 -0.028915375 -0.048886083 -0.022075696 0.0020144917 -0.047909867
-0.020474887 0.00666559 -0.023872897 0.00432828 -0.061790414 -0.04351432 0.013912555 -0.016093
0.0049547227 -0.026541023 -0.02599124 -0.008784699 -0.0098087415 -0.055285666 0.019283134 -0.030054076
-0.03514549 0.010379918 -0.025361795 0.01781468 -0.012730632 0.010782913 0.011997201 -0.0059259543
-0.038824394 0.02297799 0.0006991044 0.055051345 0.08190446 -0.005020785 -0.016417326 0.043695495
0.07016745 0.02354 -0.010966402 -0.0102592865 0.0021108333 -0.010713288 -0.012617449 0.016915282
0.0017802385 -0.023589928 -0.0043734037 -0.027958207 -0.002137981 0.008745914 0.0040099365 0.008998829
-0.028588902 -0.0041709007 0.04420013 0.036724683 -0.011931231 0.009165581 0.01945317 0.033958293
0.009044343 0.021897525 -0.011481917 -0.0032904523 0.008483834 0.03040581 0.009160689 0.045136757
0.05656275 -0.012005603 0.010697046 0.013121887 0.05470458 0.0058636824 0.009368452 0.0338848
0.020591015 0.021395585 -0.013464693 0.012842031 0.009562336 -0.004730972 0.021321718 -0.0026318529
-0.016953556 0.06242117 0.009145977 0.0121809915 0.014544204 0.046307225 0.05792695 -0.0022841408
-0.009836373 0.031358086 0.007334864 0.007592035 -0.014127941 -0.011283003 0.024830988 0.042100884
0.0019482496 -0.0011350843 0.029468918 0.009144793 0.025533434 0.010705982 0.004031343 0.028628156
0.051027782 0.04570144 0.0630157 0.011118252 0.045800116 -0.0064290315 0.064928494 0.01728952
0.004797896 -0.0024333347 0.065469936 0.020033095 0.027603261 -0.033360336 0.015440849 0.04668007
0.0016190304 0.023036936 -0.03257784 -0.010566057 0.010209488 0.03019668 0.022836018 0.02679018
