final_presentation/final_results/shallow/interval1/7000/2021-10-14_02-13-47/checkpoints/best_model_1_trial_31_validation_acc=0.6261.pt (torch, 512143 bytes, 6 tensors)

conv_time.weight f4 [20, 62, 100, 1]
000000 84 62 ed b9 7e 50 9d 3b 7f 76 9f bc 93 01 2f bb
       -0.00045277562 0.004800855 -0.019465683 -0.002670382
000010 40 c9 96 3b 76 1a cf 3c 02 a2 85 3b 54 5d 2e bc
       0.0046016276 0.025281172 0.0040781507 -0.010642368
000020 62 33 d0 bc ad f3 67 3b c4 09 2a bc 3c c4 30 bc
       -0.025415126 0.0035393045 -0.010378305 -0.010788973
000030 a9 3b a4 3b f8 67 a7 3c ec c7 29 3c d1 12 3e 3b
       0.005011995 0.020435318 0.0103626065 0.0029002915
000040 b9 dd ee 3b e5 f1 aa bc fb c1 cd 3c 13 eb 55 3b
       0.007289615 -0.020867297 0.025116911 0.0032641336
000050 7a f3 b7 3c af 34 d0 bb 8f 8f 6c 3c 9c dc fd 3a
       0.022454966 -0.0063539366 0.014438524 0.0019368115
000060 f6 61 99 3c b0 3d 07 bc bf 1d 8b bb b3 7d b7 bc
       0.01872347 -0.008254454 -0.0042454894 -0.022398805
000070 d2 a5 9b bc 37 58 88 3a 1f a2 6f 3c b6 04 8d 3c
       -0.018999968 0.0010402267 0.014626055 0.01721416
000080 cc 54 f7 3b 50 e5 a9 bc 2d 86 c9 bc 4b 32 4f bc
       0.0075479504 -0.020739228 -0.024600113 -0.012646268
000090 53 18 f8 ba cf 81 93 bc d9 26 a3 3c 68 e4 4e bc
       -0.0018928148 -0.018006233 0.019915985 -0.0126276985
0000a0 85 bf 31 bb 33 60 75 3a bf b2 6d 3c e0 a4 50 bc
       -0.0027122211 0.0009360343 0.014507948 -0.012734622
0000b0 16 33 f5 bb 41 34 a6 bc d7 58 d7 bb ed d9 d9 bc
       -0.0074828966 -0.020288588 -0.00657187 -0.026593173
0000c0 30 72 20 bc ee d2 f3 3b 87 d3 1c 3c 36 88 a4 3c
       -0.009792849 0.0074409163 0.009571916 0.020084482
0000d0 35 e0 82 3c e0 f3 b7 3c 72 f4 81 3c 30 38 a2 3b
       0.01597605 0.022455156 0.01586363 0.0049505457
0000e0 b6 66 cb bc ea c4 2d bc 99 b2 57 bc 49 4b 83 3c
       -0.02482925 -0.01060603 -0.01316514 0.01602711
0000f0 86 f4 93 3c 99 cc 38 3c 17 fa b8 bc 94 62 90 3a
       0.018060934 0.011279249 -0.02258019 0.0011015707
000100 ad ad aa 3c 5b eb dd bb d0 1a 62 bc c2 7a 4d bc
       0.020834768 -0.0067724413 -0.013800338 -0.012541475
000110 2d 0a 89 bc fd d8 86 bc 00 f9 a6 3c aa 67 d1 bc
       -0.016728485 -0.01646089 0.020382404 -0.025562126
000120 e1 dc 27 bc 04 6b 77 bc 32 40 7f 3c b5 bb 29 bc
       -0.010245533 -0.015101198 0.01557927 -0.010359694
000130 de 9a 5d bc 76 a6 ef 3b 45 a9 a0 3b d0 68 0e 3b
       -0.013525693 0.007313545 0.004902991 0.0021729954
000140 4d 02 45 bc 66 7c b4 bc 9d fa 01 bc 23 4e 6e 3c
       -0.012024474 -0.022031974 -0.007933286 0.014544996
000150 a2 93 95 b9 c8 1c 7f bc 04 78 41 3c 7b cc 17 bc
       -0.0002852949 -0.015570827 0.011808399 -0.009265061
000160 bc f1 98 39 7d 20 25 ba 70 7f 7b bc 3d e8 8d bc
       0.00029171805 -0.00062990916 -0.015350208 -0.017322654
000170 00 e2 2e 3c 1a 43 9d bc a4 37 6b bb c6 66 24 ba
       0.010674 -0.019197036 -0.0035891319 -0.0006271418
000180 dd 1e 7d bb 18 2b 60 bb dc 7c b1 bc 9a d5 34 3c
       -0.0038623132 -0.0034205373 -0.021665983 0.011037255
000190 61 e1 cd bb 9a 32 98 bb df 71 fb 3b 70 a7 90 3c
       -0.006282971 -0.004644704 0.0076734866 0.017657965
0001a0 f1 e2 2f bc 3e 52 26 3c b5 dd 92 3c 95 1f 89 3a
       -0.010735259 0.010151444 0.017927984 0.0010461683
0001b0 a3 26 21 3b c2 5f a1 3c 74 d7 3a bc c9 f4 b7 bb
       0.002458968 0.019698981 -0.011403907 -0.0056138975
0001c0 97 db 13 3c 98 8a 18 3c 97 c3 86 bb 70 07 30 bc
       0.009024522 0.009310387 -0.0041126716 -0.010743961
0001d0 37 81 cc 3c 2f 38 46 bc ba 92 6f bc bc cd ed bc
       0.024963958 -0.012098356 -0.014622385 -0.029028766
0001e0 c0 80 b5 3c 2e 13 a4 bc dd 45 95 3c ba 60 b6 bc
       0.02215612 -0.020028677 0.01822179 -0.02226292
0001f0 68 58 9e 3c d3 bf 48 bc 89 ae 88 bc 32 43 24 bb
       0.019329265 -0.012252766 -0.016684787 -0.0025064466
000200 35 a8 1d bc 22 32 9d bb a4 d2 90 bc f1 af 88 3c
       -0.009622623 -0.004797236 -0.017678566 0.016685458
000210 31 c3 07 bc 46 46 f6 bc 56 71 a6 bb af 78 2b bc
       -0.008286283 -0.030062806 -0.0050794287 -0.010465785
000220 b0 60 26 bc 47 ef ed bc d9 8f 94 3c 66 e2 6c 3c
       -0.010154888 -0.02904476 0.018134998 0.0144582745
000230 85 b1 e0 3b 7a 16 97 bc 94 d9 cd bc 4e 25 fa 3a
       0.0068570995 -0.018443335 -0.025128163 0.0019084604
000240 79 0d ec bb 72 57 98 3c f3 ad c3 3b 38 17 83 3b
       -0.0072037545 0.018596385 0.005971664 0.0040005706
000250 1a 3f 57 3c 85 04 ef bc 14 f2 b0 bc 3d 39 72 bc
       0.013137603 -0.02917696 -0.021599807 -0.0147841545
000260 9c 75 a6 bc 1d ce 87 3c 3b 22 5d 3c 7e 6a 92 3c
       -0.020319752 0.016577775 0.013496931 0.017873045
000270 6e db da bc c7 47 14 bc f7 52 ab 3a 49 cb 5d bc
       -0.02671596 -0.009050316 0.001307099 -0.0135372365
000280 12 7b a6 3b 19 13 fd bc 73 70 9e 3c d5 eb 29 3c
       0.005080589 -0.030892896 0.01934073 0.010371168
000290 49 eb 4e bc 98 9a b7 3b 1f fd d5 bc 97 50 1a 3b
       -0.012629339 0.005603146 -0.026121674 0.002354657
0002a0 62 ec ad bc e5 e0 8c bc 01 26 a0 3c ac 3d c4 bc
       -0.02123088 -0.017197082 0.019549372 -0.023955189
0002b0 ea 2e 3b 3c 00 e5 84 bc 4f 25 93 3c b9 5d d2 bc
       0.011424759 -0.016222477 0.017962126 -0.025679456
0002c0 f3 6e fa ba 34 19 37 3b 7a 56 a8 3c 32 28 bd 3c
       -0.0019106552 0.0027938606 0.020549048 0.023090456
0002d0 fb df 53 3b 05 12 40 3c b7 a1 80 3c 7b b2 e9 bc
       0.0032329548 0.011723046 0.015702112 -0.028527489
0002e0 37 4c bf bc c6 fc d5 bc 57 0e b0 bc b4 50 1c 3c
       -0.023351772 -0.026121508 -0.021491213 0.0095407255
0002f0 fe 85 8f bb 1d 4b ad bc 73 ab 45 bc 7e a5 7d 3b
       -0.004379987 -0.02115398 -0.012064802 0.0038703377
000300 4d e4 6d bc 09 92 e4 3b 9b 3b dd bc d6 bb 1b 3c
       -0.014519763 0.0069754166 -0.027005961 0.009505233
000310 92 ff a6 bb c0 f3 05 3c 97 dc 54 3c aa f7 6e 3c
       -0.0050963843 0.00817579 0.012992046 0.014585415
000320 de e6 89 3c 49 23 d9 3b 6b d7 ad bb d8 7c a8 3b
       0.016833719 0.006626521 -0.005305221 0.0051418357
000330 cf 66 78 3c 80 9b 2b bc 74 6e b4 bb 3a 79 a4 bc
       0.01516123 -0.010474086 -0.005506331 -0.020077337
000340 2b a4 39 3c 6e 34 0a 3c f1 e7 cf 3c c4 6e 12 bc
       0.011330645 0.008435352 0.025379153 -0.008937541
000350 25 6e 40 3c 0a 90 20 3c 55 ce 91 bc 86 6d e2 bc
       0.0117450105 0.009799967 -0.017798582 -0.027640115
000360 66 a7 bc bc 7a af 9c 3c 73 58 14 ba 17 12 9d bc
       -0.02302904 0.019126642 -0.0005658932 -0.019173665
000370 7c 9b 55 bc 0d ad 96 bc 4c 88 80 3c 2d 81 44 bc
       -0.013037559 -0.018393064 0.015689991 -0.0119936885
000380 1c 38 d0 3c 15 72 bc bc 38 27 9f bc a4 87 64 bc
       0.02541738 -0.023003617 -0.01942788 -0.013948355
000390 3b 69 70 3a ec a6 2a bc 5b d4 88 bc 34 7a 01 bb
       0.0009170954 -0.010415774 -0.016702821 -0.0019756677
0003a0 db 84 c7 bc 1a 0d b4 3c dd 4a 90 3b a5 0b 52 bc
       -0.024355343 0.021978904 0.0044034556 -0.012820159
0003b0 bb cd be bc f8 8c aa bc 8a 1e e3 b9 15 6e b3 bc
       -0.02329146 -0.020819172 -0.00043319567 -0.021903077
0003c0 61 b8 41 bc ab 36 12 3c 47 04 d4 3b 06 6f ac 3c
       -0.0118237445 0.008924167 0.0064702365 0.021049034
0003d0 ba 05 e5 bc 6a 33 91 3c 54 37 be 3c 92 be a6 bb
       -0.027956832 0.017724711 0.023219742 -0.0050886357
0003e0 52 da 46 3c 47 b0 c9 bc 26 77 e4 bc 5e d1 bc bc
       0.012137013 -0.024620188 -0.027888846 -0.023049053
0003f0 14 47 7c bc 6c 2f c6 3c 5c 28 86 3b 79 f4 a9 3a
       -0.015397806 0.024192534 0.0040941667 0.0012966535

bnorm.weight f4 [20]
000000 14 09 9a 3f bf 15 9a 3f dd 1f 99 3f 0e 53 9b 3f
       1.203402 1.2037886 1.1962849 1.2134721
000010 db 5c 97 3f d6 0a 9a 3f af 5f 98 3f 2e f6 97 3f
       1.1825212 1.2034557 1.19042 1.1872003
000020 ed 73 99 3f c3 2e 9a 3f 7e 5d 97 3f 13 58 99 3f
       1.1988503 1.204552 1.1825407 1.1980003
000030 58 c6 99 3f 97 7e 98 3f 10 0f 9a 3f f6 da 9e 3f
       1.2013655 1.1913632 1.2035847 1.2410572
000040 1b 97 9c 3f 4d 4a 9f 3f 36 a4 9e 3f af e6 9b 3f
       1.2233614 1.244455 1.2393863 1.2179774

bnorm.bias f4 [20]
000000 08 ea d5 bc 45 5c dc 3b 3c d6 b5 3c c6 7d e3 bb
       -0.026112571 0.0067248666 0.022196881 -0.0069424836
000010 18 61 62 bd 0a f9 c1 3c fb 51 b4 3d a2 79 87 3d
       -0.055268377 0.023678321 0.08804699 0.066149965
000020 81 64 17 3d 84 fb ad 3c cc f0 2e 3d 4e 80 a2 39
       0.036961082 0.021238096 0.04271011 0.00030994642
000030 69 1f 15 3d fc 29 f9 bc fd c2 c8 bb 97 42 a4 bd
       0.03640691 -0.030415528 -0.00612676 -0.080205135
000040 5a 84 e3 bc a0 a8 03 3d 21 8e bd bd 61 64 a2 bd
       -0.027773071 0.032143235 -0.092556246 -0.07929302

bnorm.running_mean f4 [20]
000000 90 d0 ab bb 03 f8 84 bb d7 a2 a3 3b cf eb 03 39
       -0.0052433684 -0.0040578856 0.0049937773 0.00012580979
000010 5b 2a 8c 3b ca e9 2f bc af a5 2b 3b e6 31 14 ba
       0.00427751 -0.010736892 0.0026191284 -0.00056531874
000020 00 11 11 bc fa 32 ff bb 46 24 1e 3c c2 8d 05 39
       -0.008854151 -0.0077880593 0.009652203 0.00012736677
000030 a4 3d 9f 3c dc f9 98 bc c0 81 6d 3c 6d 48 ab 3b
       0.019438572 -0.01867383 0.014496267 0.0052271397
000040 49 ee 7f 3c e9 ec c9 3b e5 aa 82 3c b4 b0 63 bc
       0.015620776 0.006162275 0.01595063 -0.01389711

bnorm.running_var f4 [20]
000000 24 49 3c 41 b5 c7 a8 41 42 c3 6a 41 5a 93 fd 41
       11.767857 21.097513 14.67267 31.696949
000010 23 d5 52 41 49 69 0d 41 b1 c2 78 41 8d 59 60 41
       13.177035 8.838204 15.547532 14.021863
000020 50 0a 87 41 8f a1 77 41 c8 84 84 41 e5 b8 91 41
       16.880035 15.476943 16.564835 18.21528
000030 63 27 9b 41 64 40 56 41 20 88 49 41 bb a9 55 42
       19.394232 13.39072 12.595734 53.415752
000040 f9 25 76 41 9a 1a a4 41 b6 79 b5 41 9d e7 89 41
       15.384271 20.512989 22.68443 17.238092

conv_classifier.weight f4 [1, 20, 162, 1]
000000 c0 f8 0a bd d8 f5 ce bc 63 c2 59 bc 18 4d b4 bc
       -0.033928633 -0.025263712 -0.013290974 -0.022009417
000010 8e aa c8 3c 83 38 3a bd 43 3d 47 3c a5 c3 d1 bc
       0.02449539 -0.04546405 0.012160602 -0.025605986
000020 08 d3 c2 3c 51 38 ca bc 89 de 63 3d cb 99 a5 3b
       0.023782268 -0.024685057 0.055632148 0.005053734
000030 6e ec 1c 3d 30 d2 83 bc 6e 01 0b 3c 68 a1 01 3c
       0.038311414 -0.016091436 0.008484228 0.007912017
000040 d5 ee bc bb fc 79 9f 3c 70 80 15 3d a5 2c 04 3d
       -0.0057657757 0.019467346 0.03649944 0.03226914
000050 d4 4f 1d 3a d8 3c 8e bc e8 c3 af 3c 2b d7 8e 3d
       0.000600097 -0.017362997 0.02145572 0.06974634
000060 05 04 f8 bc c2 c4 2a 3d 25 8a 8a bb bb f2 82 3d
       -0.030275354 0.04169155 -0.004227894 0.063939534
000070 e3 cf 2f 3c 7a 7f fd 3c fa d5 0f 3d d8 93 88 3b
       0.010730716 0.030944575 0.035116173 0.004168015
000080 38 a5 8a 3b 80 ee 81 bc 5a 3b 8a 3c 9a 76 2d 3c
       0.0042311214 -0.015860796 0.016874004 0.010587359
000090 d7 b7 3d bc f0 10 38 bd a4 ea 5a 3a 75 26 41 3c
       -0.011579475 -0.044938028 0.0008351004 0.011788954
0000a0 16 7b b7 3c 96 0d 92 bc d3 f5 aa 3c 43 62 68 3d
       0.02239756 -0.017828744 0.020869171 0.056734335
0000b0 8d 58 86 bc ab 1b 27 3d 09 78 98 3d 54 40 34 bb
       -0.016399646 0.04079787 0.0744477 -0.0027504163
0000c0 4c 80 27 bc cf 64 0c bd 8e 12 03 bc 9e bd 2c bd
       -0.010223459 -0.034275826 -0.008000029 -0.04217302
0000d0 a2 4d 98 bc 30 34 1e 3d 5b 59 7a bb 7a 3b f2 3c
       -0.018591706 0.03862399 -0.0038200233 0.029569376
0000e0 a8 77 2e bc 15 58 2e bd 95 a8 da bb 63 39 0b bd
       -0.010648645 -0.04256447 -0.0066729286 -0.033990275
0000f0 3d 87 d7 bc ac f3 1b 3d a9 51 c7 3c 11 2a 4e 3d
       -0.026309604 0.03807418 0.02433093 0.050333086
000100 83 75 dc 39 37 3b 89 bd 44 9f 46 bc 97 b9 a8 bc
       0.00042049223 -0.067007475 -0.012122933 -0.020596309
000110 2a 62 18 3d 54 44 f4 bc 0b 03 80 3c a8 79 3a bd
       0.03720299 -0.029817738 0.015626451 -0.045526177
000120 10 84 4a 3d 19 7c 31 bb 95 06 a5 3c 56 69 4d 3d
       0.04944235 -0.0027082025 0.02014474 0.050149284
000130 18 33 b4 bc 2d be 02 bd 31 69 4d bc 7d 25 36 3d
       -0.02199702 -0.031919647 -0.012537287 0.044469345
000140 2d 1d 16 3a 05 86 ee 3c 4d 41 55 bc f1 bb 49 bc
       0.00057263934 0.02911664 -0.013016057 -0.012312875
000150 24 51 e6 3b cf 42 be 3b d1 2f 92 3c 09 1e 1a 3d
       0.0070287157 0.005806304 0.017845066 0.0376263
000160 db cb cb 3b 62 5e 61 bc d4 71 f3 bc 0b e7 14 bd
       0.00621937 -0.013755413 -0.029717363 -0.036353152
000170 3f 6b 0b bc 8b 07 38 3d e4 5a bb bb 69 3d 2b 3c
       -0.008509456 0.04492907 -0.005717622 0.010451653
000180 b4 00 70 bc aa b9 82 3c 88 60 37 3c 13 1f c2 3c
       -0.014648605 0.015957672 0.011192448 0.023696458
000190 7f 3c 8d bb f3 8c 51 3b 52 69 d0 bc e1 01 20 bd
       -0.00431019 0.0031974881 -0.025440846 -0.039064292
0001a0 6d 62 c9 bc 5d ab 03 bd 8d 70 90 3b 90 c2 9d 3b
       -0.024583066 -0.032145847 0.0044079483 0.0048144534
0001b0 ea fb 3f 3c f0 c9 54 3c 6e 1e e0 3c 57 cf d9 bb
       0.011717776 0.012987599 0.02735826 -0.0066470313
0001c0 e3 85 1d bd a5 ba b9 bc dc f0 3e bd e6 cb 34 3a
       -0.038457762 -0.022672007 -0.04661642 0.00068968383
0001d0 e1 3a 06 bc d7 ee bd bc 40 12 77 3c 35 f4 24 3b
       -0.008192749 -0.023185177 0.015080035 0.0025169973
0001e0 50 3b d3 bb db e3 73 bc b4 ca 46 bd 90 df 28 3c
       -0.0064462796 -0.014885868 -0.048533157 0.010307208
0001f0 70 67 a6 bb 6a 3c 28 bb fd 73 bf bc 47 e8 d9 3c
       -0.0050782487 -0.0025670775 -0.023370737 0.026600016
000200 34 72 91 bc 8b 07 0f 3d e8 6d 0c bd 65 fb a0 3c
       -0.017754652 0.034919303 -0.034284502 0.019651124
000210 5b 0f c6 3c bb 99 f2 bc fe 20 2f bd de 0c b8 bc
       0.024177244 -0.02961432 -0.042756073 -0.022467073
000220 ab 1d d9 bc 56 16 ce 3c 27 22 c9 3c 8f 88 16 bc
       -0.026503405 0.025157135 0.024552418 -0.009187832
000230 83 be d3 3c 4d c9 08 bd 7b b5 56 bd d5 af 93 bc
       0.025847679 -0.0333951 -0.052419167 -0.01802818
000240 4f f7 b9 bc 0b 31 d0 3c f0 ff 27 bd 21 6a 2e bc
       -0.022700934 0.02541401 -0.041015565 -0.01064542
000250 60 07 84 3a 36 7c 92 3c a8 5a 6e 3d 21 40 c0 bc
       0.0010072999 0.017881494 0.058191925 -0.023468079
000260 df ca 8b 3c 69 cf 28 3d 9b 99 3b bd d0 7f ee 3b
       0.01706451 0.041213427 -0.045800786 0.00727842
000270 e0 12 69 bc d2 3e 44 bb 03 d7 f1 bc bd d5 02 3d
       -0.014225692 -0.002994467 -0.02952147 0.031942118
000280 f1 11 1c bc 7a c5 2c 3d 41 4c 88 bc 3d 77 ee bc
       -0.009525762 0.042180516 -0.016637923 -0.029109592
000290 a0 46 31 bc 1b c7 16 3d e7 83 91 bc c5 cb 30 bd
       -0.010820061 0.036810976 -0.017763091 -0.04316308
0002a0 ef 21 72 3b 18 a8 c1 3b 4f ff 4b bb 07 9f 89 bc
       0.0036946496 0.005909931 -0.0031127518 -0.016799463
0002b0 35 ef 7e 3b 9a 90 89 3d 5e 4a 81 3d 2d 21 fd 3c
       0.0038899903 0.06717034 0.063130125 0.030899609
0002c0 cf 63 54 3d 9b d9 5c 3d 8a 4c 7c 3c 1b 1c ea 3c
       0.051852997 0.053918462 0.015399108 0.028577855
0002d0 d5 d1 f1 3c b5 c7 56 3c 16 c2 7b 3c 23 4e 93 3d
       0.029519001 0.013109137 0.015366098 0.07192638
0002e0 a8 ac ba bc 19 74 eb 3c 77 3a 87 3c 6e 75 2c 3d
       -0.022787407 0.028741883 0.01650737 0.042104177
0002f0 01 80 bd 3c 1c 88 9b bc e2 75 d0 bc 64 50 29 bb
       0.023132326 -0.0189858 -0.025446836 -0.002583527
000300 db 8e 8e 3c 77 76 75 3c 6c b0 93 bc 26 f8 12 3c
       0.017402103 0.0149818575 -0.01802846 0.008970296
000310 c2 db c9 3c b1 4c 42 3c 02 e8 b0 bb ca 0c fe 3c
       0.024640922 0.011859105 -0.0053987512 0.031011958
000320 56 38 2a 3b bd 77 03 bd 33 2c 81 3c 3e f6 48 bc
       0.002597352 -0.032096613 0.015768146 -0.01226574
000330 44 dc 99 3c e7 e3 c4 3c 24 b1 a0 3c c9 c2 7c bc
       0.018781789 0.024034454 0.019615717 -0.0154273
000340 6a 53 b8 3c 0d 09 06 3b 46 2f 52 bd 27 1c 11 bc
       0.022500712 0.0020452172 -0.051314615 -0.00885681
000350 5a 10 98 bc ed 71 a4 3c 47 da d1 bc 93 a3 34 bd
       -0.018562485 0.020073855 -0.025616778 -0.04410131
000360 29 4a a0 3c b6 43 cb bc 9f 54 c3 bb f7 ba 4f 3c
       0.019566612 -0.02481256 -0.0059610154 0.012678853
000370 0d be a9 39 6f 92 84 bd aa 74 2e bd 60 28 dd bc
       0.0003237579 -0.064732425 -0.04259173 -0.026996791
000380 3e 7c 53 bc e4 81 b8 3b 91 27 a4 bc a4 12 8a 3c
       -0.01290804 0.0056307185 -0.020038398 0.016854592
000390 a5 e2 56 3c fd 6f f0 bb 3e 2c 8c 3c 17 a7 db 3c
       0.01311556 -0.007337569 0.01711094 0.026813073
0003a0 e9 cc 9f 3b 6e 4d dc bb 4a e8 4a 3c cb 6e 0a bd
       0.004876722 -0.0067230975 0.012384484 -0.033797067
0003b0 3c a7 83 3c 0f 7d 97 bc 72 22 57 3d e8 dd 49 3c
       0.016070955 -0.01849225 0.052523084 0.012320973
0003c0 9f 14 5c 3b 57 ac 84 3c 16 b9 18 3d 7c 31 91 bc
       0.0033581627 0.01619546 0.037285887 -0.017723791
0003d0 28 7a b7 bc d2 a8 19 3d cc 57 1e bd 29 07 8d 3c
       -0.022397116 0.037514515 -0.03865795 0.017215328
0003e0 7b 2e fb 3c e1 45 47 3d 8b 39 5a bc 23 17 3e bd
       0.030661812 0.048650626 -0.013319383 -0.046408784
0003f0 94 fd e2 bc 3d 42 bf 3c f7 53 81 3c 52 39 af 3b
       -0.027708806 0.023347015 0.015787108 0.0053474093
