final_presentation/final_results/shallow/interval1/7000/2021-10-14_02-13-47/checkpoints/best_model_1_trial_24_validation_acc=0.9713.pt (torch, 512207 bytes, 6 tensors)

conv_time.weight f4 [20, 62, 100, 1]
0	0xbcc94382	-0.024568323
1	0xbcabdd27	-0.020979477
2	0xbc348f77	-0.011020533
3	0x3c238537	0.009980491
4	0x3c07e4cd	0.008294296
5	0xbce120e8	-0.027481511
6	0xbcbdb41c	-0.023157172
7	0xbc8e1fb4	-0.017349102
8	0xbc751ad7	-0.014960012
9	0xbc4031ca	-0.011730621
10	0x3ca99363	0.020700162
11	0xbc95aacb	-0.018269917
12	0x3c3ebe06	0.011641985
13	0x3c7a1d13	0.015265721
14	0x3c94a1fc	0.018143646
15	0xbd02b826	-0.0319139
16	0xbc74a355	-0.0149315195
17	0x3ca0029e	0.019532498
18	0x3aac3a9d	0.0013140027
19	0xbcaedfdd	-0.02134698
20	0xbcc450f5	-0.023964385
21	0xbcb59818	-0.02216725
22	0xbcb1a2c9	-0.021684067
23	0x3a21d07d	0.000617273
24	0xbcea749a	-0.028620053
25	0xbc286899	-0.010278844
26	0x3bc3c158	0.005973976
27	0xbca629a4	-0.020283528
28	0x3c770923	0.015077862
29	0x3a1a8c25	0.0005895517
30	0x3bf09783	0.0073422804
31	0x3c982628	0.018572882
32	0xbc3bc922	-0.011461528
33	0x3ba52b9a	0.005040598
34	0xbc19d475	-0.009389033
35	0x3b7b8a4b	0.003838199
36	0x3c3a6cdd	0.011378494
37	0x3b8d0817	0.004303943
38	0xbcf43cb5	-0.029814104
39	0x3bc92ee3	0.0061396225
40	0xbcbf8164	-0.023377128
41	0xbcbb692a	-0.022877295
42	0xbca703ee	-0.020387616
43	0xbcdb7eba	-0.026793826
44	0xbc3cd160	-0.011524528
45	0x3a9299aa	0.0011184711
46	0xbcd895f9	-0.0264387
47	0xba51e66e	-0.0008007054
48	0xbb9a495f	-0.0047084535
49	0xbd003031	-0.03129596
50	0xbceb24f4	-0.028704144
51	0xbd031d6c	-0.03201048
52	0xbcac0a54	-0.021001019
53	0xbc8a55c7	-0.016886605
54	0xbccc99c3	-0.024975663
55	0xbce7572a	-0.028239805
56	0xbca649d7	-0.020298881
57	0x3c446995	0.011988063
58	0x3aeb57b1	0.0017955211
59	0x3ca716a5	0.02039654
60	0x3b824173	0.0039750873
61	0x3a846f5b	0.0010103987
62	0x3c9839cb	0.018582245
63	0xbc5223af	-0.01282589
64	0xbb842c7a	-0.0040336223
65	0xbb4b111a	-0.0030985535
66	0x3c93c519	0.01803832
67	0xbb9ab4a7	-0.0047212425
68	0x3c1be888	0.009515889
69	0xbb06831f	-0.0020524932
70	0xbbd18e52	-0.0063951397
71	0xbbf900ac	-0.007598957
72	0x3c63bd7e	0.013900159
73	0x3c57bcfc	0.013167616
74	0xbba89ed8	-0.005145889
75	0xbcd7c313	-0.026338136
76	0xbc436ea2	-0.011928232
77	0xbc9c3f8a	-0.019073267
78	0x3c6c7ba5	0.014433776
79	0x3bd5a790	0.006520219
80	0x3c7e0dae	0.015506191
81	0xbbcc9b14	-0.0062440727
82	0x3c8bc41a	0.017061282
83	0xbba0130c	-0.004885083
84	0xbca9b977	-0.02071832
85	0x3b3b8db2	0.0028618393
86	0xbcd0219c	-0.025406651
87	0xbb219157	-0.002465328
88	0xbbd989a4	-0.0066387225
89	0x3c10c4df	0.008836
90	0x3c90ab81	0.017659904
91	0x3c485670	0.01222764
92	0xbcf62199	-0.030045317
93	0xbc874843	-0.01651395
94	0xbc7fd874	-0.015615571
95	0xbca83c91	-0.020536693
96	0xbb523f80	-0.0032081306
97	0xba0e8b0e	-0.0005437591
98	0x3c56f215	0.01311924
99	0xbd0fb236	-0.035082065
100	0x3bbb9f53	0.00572578
101	0xbc323b29	-0.010878363
102	0xbc45fa6e	-0.012083633
103	0x3c977115	0.018486539
104	0x3bd388e7	0.006455529
105	0xbbbdc9b1	-0.0057918658
106	0x3bf085af	0.007340155
107	0xbc168bea	-0.009188632
108	0xbc9e07fb	-0.019290915
109	0x3b97fea3	0.0046385094
110	0xbc44a5f4	-0.012002457
111	0xbcb12c30	-0.021627516
112	0x3bfff769	0.007811476
113	0xbcf5744b	-0.02996268
114	0xbc9b8247	-0.01898302
115	0xbcba29ac	-0.022724949
116	0xbcaed53d	-0.021341914
117	0xbcbe8755	-0.02325789
118	0x3c3f32b4	0.011669803
119	0xbc2062e3	-0.009789201
120	0x3c5e82e3	0.0135810105
121	0xbce58140	-0.028015733
122	0xbc9cdda1	-0.01914865
123	0xbd09c807	-0.033638027
124	0xbc1c6df8	-0.009547703
125	0xbbf26454	-0.007397214
126	0x3c7d37a7	0.015455163
127	0xbc8ff630	-0.017573446
128	0xbce182a7	-0.02752812
129	0xbb8c8f1a	-0.00428952
130	0xbc4de13c	-0.012565907
131	0xbc896327	-0.016770912
132	0x3c90bf92	0.017669473
133	0x3c5ba5af	0.013406201
134	0x3ca27728	0.019832209
135	0xbca8f052	-0.020622406
136	0x3c888dc9	0.01666917
137	0x3a674de8	0.00088235596
138	0xbcc8ec80	-0.024526834
139	0x3c8fa80a	0.017536182
140	0xbcc06ebf	-0.023490308
141	0x3c95cde2	0.01828665
142	0x3c1157ef	0.008871063
143	0x3ca928d4	0.020649351
144	0xbc8ee817	-0.017444653
145	0xb8d9eb67	-0.000103912134
146	0xbcf46148	-0.029831544
147	0xbd02f3fc	-0.031970963
148	0x3ca4e753	0.020129835
149	0xbc221a26	-0.00989393
150	0x3ca55b16	0.020185035
151	0xbc8af5c1	-0.016962888
152	0x3c16fb3f	0.009215175
153	0xbcc3044b	-0.023805758
154	0x3c83141c	0.0160008
155	0xbc892bb2	-0.016744468
156	0xbcd6f934	-0.026241876
157	0xbbd316ff	-0.0064419503
158	0x3c217b14	0.009856004
159	0x3bbeed1f	0.005826607
160	0xbceb298a	-0.02870633
161	0xbc9ab876	-0.018886786
162	0xbc86e6b4	-0.01646743
163	0xbce54c64	-0.027990527
164	0x3c94bd32	0.018156622
165	0xbcd04f0f	-0.025428323
166	0xbb207cd0	-0.0024488457
167	0xbc048bb9	-0.008089953
168	0xbc3d20f9	-0.011543506
169	0xbacf247d	-0.0015803721
170	0xbcba0897	-0.022709174
171	0x3b8097e4	0.003924357
172	0xbc0e96f4	-0.008702982
173	0xbd02aefd	-0.031905163
174	0xbc088f6e	-0.008334978
175	0x3b61ee2a	0.0034474232
176	0xbbfc960a	-0.0077083157
177	0x3c919581	0.017771484
178	0x3c99604d	0.018722678
179	0xbca795db	-0.020457199
180	0x3b69f7b2	0.0035700616
181	0x3bf0afda	0.007345182
182	0xbba6dd9f	-0.0050923373
183	0xbc825dc7	-0.015913857
184	0xbceaa42a	-0.028642733
185	0xbb9cf325	-0.0047897273
186	0xbce3c114	-0.027802028
187	0xbc390be4	-0.011294339
188	0xbcc76dc8	-0.02434434
189	0xbcfca26d	-0.03083917
190	0x3beede51	0.007289686
191	0xbcb359fe	-0.021893498
192	0xbcb00857	-0.021488352
193	0x3be6183e	0.007021933
194	0xbb833acf	-0.0040048133
195	0x3c706aa2	0.014673861
196	0xbcd298af	-0.02570757
197	0x3bbdefbd	0.0057964013
198	0xbcd0c3a9	-0.025483923
199	0x3b24e09c	0.0025158292
200	0xbbab4c51	-0.0052276035
201	0x3c4ab12b	0.012371342
202	0x3c06d123	0.008228573
203	0x3c1e5685	0.009664183
204	0xbb9ecd71	-0.004846268
205	0x3c29120f	0.010319247
206	0xbc19f480	-0.009396672
207	0x3babaa35	0.005238796
208	0xbcc73fea	-0.024322469
209	0xbbbae6d6	-0.0057037873
210	0xbb902dc9	-0.0043999893
211	0x3bcba15b	0.0062143034
212	0xbb10371e	-0.0022005509
213	0xbbd7c1fb	-0.0065844036
214	0x3cb3a17e	0.021927591
215	0xbb89b2f2	-0.00420224
216	0x3bd7625c	0.0065730046
217	0x3b17e52f	0.0023177376
218	0x3c985013	0.01859287
219	0x3af5d0cd	0.0018754244
220	0x3c40f646	0.011777466
221	0x3c120913	0.008913296
222	0x3caa8870	0.020817012
223	0xbcdad104	-0.026710995
224	0xbccfd2c8	-0.025369063
225	0xbc6ef08f	-0.014583721
226	0x3c40646a	0.011742691
227	0x3909ab28	0.00013129099
228	0xbc36375f	-0.0111216
229	0x3c004948	0.007829972
230	0x3b650b63	0.0034949414
231	0xbcf4e29e	-0.029893216
232	0xbc43b21e	-0.011944322
233	0xbcd0f102	-0.025505546
234	0xbb2f105e	-0.0026712636
235	0x3cc96772	0.02458546
236	0x3cc6eb11	0.02428201
237	0xbc702fa2	-0.014659794
238	0xbaeb2c65	-0.0017942308
239	0xbc2f9066	-0.01071558
240	0x3b77221d	0.0037709542
241	0xbcc3409d	-0.023834521
242	0xbaaece29	-0.0013336587
243	0xbbedbd01	-0.007255197
244	0xbcb1dcb3	-0.021711683
245	0xbbd87c00	-0.006606579
246	0x3c790157	0.015198073
247	0xbcd3480e	-0.025791194
248	0xbc187ff0	-0.009307846
249	0xbc61d2a1	-0.013783128
250	0x3a4a928b	0.0007727525
251	0x3c45e877	0.01207935
252	0x3c7d8a5c	0.015474882
253	0xbc754af8	-0.014971487
254	0x3cd180c8	0.025574103
255	0xbb85f3a9	-0.0040878844

bnorm.weight f4 [20]
0	0x3fa64760	1.2990532
1	0x3fa209ab	1.26592
2	0x3f98211a	1.1885102
3	0x3fa266d6	1.2687633
4	0x3fa3cace	1.2796266
5	0x3faa0915	1.3284022
6	0x3fadefeb	1.3588842
7	0x3fa3e900	1.2805481
8	0x3fa84056	1.3144634
9	0x3fa5c936	1.295203
10	0x3fa45afb	1.2840265
11	0x3f993618	1.1969633
12	0x3fa5b61b	1.2946199
13	0x3fa6a626	1.3019454
14	0x3fa65ab0	1.2996426
15	0x3faedac6	1.3660514
16	0x3fa3ffd5	1.2812449
17	0x3fa4449e	1.283344
18	0x3f99ddd9	1.2020828
19	0x3fab3a29	1.3377124

bnorm.bias f4 [20]
0	0xbe851e04	-0.25999463
1	0xbe2a09f2	-0.16605356
2	0xbf023107	-0.5085606
3	0x3e0a6a51	0.13517119
4	0x3d5ed41a	0.054401495
5	0x3db26045	0.08709768
6	0x3e372c00	0.17887878
7	0x3ead34ea	0.33829433
8	0x3c0f00d5	0.008728226
9	0x3d62ce92	0.055372782
10	0xbde9b41a	-0.11411305
11	0x3f17f4fc	0.5935819
12	0xbd7c7d71	-0.061643068
13	0x3df0e334	0.117620856
14	0xba10df70	-0.0005526459
15	0xbc99b583	-0.01876331
16	0x3e5d38fd	0.2160377
17	0xbdfb89b5	-0.12282125
18	0x3f34004c	0.70312953
19	0xbe0feabe	-0.14054391

bnorm.running_mean f4 [20]
0	0x3c1a74ef	0.009427293
1	0x3b3a8f44	0.002846674
2	0xbafe65d2	-0.0019409007
3	0x3bae2e45	0.0053155744
4	0x3b88f222	0.004179255
5	0xbb9fe566	-0.0048796413
6	0xbb315508	-0.002705874
7	0x3b2c8865	0.0026326415
8	0xbb8e0085	-0.004333558
9	0xbbd86693	-0.0066040247
10	0xbb85f602	-0.0040881643
11	0xbb67b38c	-0.003535482
12	0xbc098038	-0.008392386
13	0x3b8dcf52	0.004327693
14	0x3bc92cf0	0.00613939
15	0xbc64d9b8	-0.013967924
16	0x3c45d0be	0.012073694
17	0xbb9bbd56	-0.004752795
18	0xbcabb588	-0.020960584
19	0xbbe30750	-0.006928362

bnorm.running_var f4 [20]
0	0x41d63cc8	26.779678
1	0x4172c4f5	15.173085
2	0x41e362da	28.423267
3	0x4187e500	16.986816
4	0x4169d530	14.614548
5	0x41c4bcf9	24.592272
6	0x4194a8c7	18.58241
7	0x41a82477	21.017805
8	0x419fbe1a	19.967823
9	0x41a275f3	20.307592
10	0x417e1086	15.879034
11	0x41b967fb	23.175772
12	0x41936acd	18.427149
13	0x41bb9287	23.446547
14	0x415a4e2c	13.644085
15	0x418705cd	16.877832
16	0x418ad5c7	17.354383
17	0x4189a905	17.20753
18	0x422ba70b	42.913128
19	0x41d7da0b	26.981466

conv_classifier.weight f4 [1, 20, 163, 1]
0	0x3b4ea7f4	0.0031533213
1	0xbab1eff5	-0.0013575541
2	0x3ced4402	0.028963093
3	0xbcbe7e71	-0.023253651
4	0xbbf03dff	-0.0073316093
5	0xb96ead9e	-0.00022762126
6	0xbce3d109	-0.027809637
7	0xbceb7741	-0.028743388
8	0xbc91e843	-0.017810946
9	0xbd27b256	-0.04094156
10	0x3c13acca	0.009013364
11	0x3c1afbbd	0.009459433
12	0xbd5b63c8	-0.053561956
13	0xbdcc3a23	-0.09972026
14	0xbc9731e6	-0.01845641
15	0xbbd2a5b0	-0.006428443
16	0xbd8b4735	-0.06800691
17	0xbd8693a2	-0.065711275
18	0xbcc041b2	-0.023468826
19	0xbd12e9c8	-0.035867482
20	0xbde5e0ce	-0.11224519
21	0xbcf9aced	-0.030477965
22	0x3cf878de	0.030331071
23	0x3d05c3f5	0.032657582
24	0xbc47dc25	-0.012198483
25	0xba462b8e	-0.0007559591
26	0xba86bda0	-0.0010279901
27	0x3bdb6009	0.006694798
28	0x3c80cc62	0.015722457
29	0xbcca4dbc	-0.02469527
30	0x3d6da8b3	0.058022212
31	0x3cd81fd4	0.026382364
32	0x3cc38693	0.02386788
33	0x3c9cacae	0.019125309
34	0x3b1d1c65	0.0023973223
35	0xbd00bd03	-0.031430256
36	0xbd1ee734	-0.03879471
37	0xbd92ff4c	-0.071776
38	0xbc3ec70d	-0.011644137
39	0xbc683e32	-0.014174985
40	0x3c9970b9	0.018730508
41	0x3d82f2fa	0.06394
42	0x3d018d5d	0.031628955
43	0xbd8631ae	-0.065524444
44	0x3cc54d17	0.02408461
45	0xba839a69	-0.0010040525
46	0xbd615865	-0.05501594
47	0xbcd8477f	-0.02640128
48	0xbccf1837	-0.025280101
49	0xbd0b1419	-0.033954713
50	0x3d0ccdce	0.03437596
51	0xbcfb9de0	-0.03071493
52	0xbcd01d7e	-0.025404688
53	0xbc3ffcaa	-0.011717955
54	0xbc74b578	-0.014935844
55	0xbbd5f865	-0.006529855
56	0xbcb9f835	-0.022701362
57	0x3c2f6192	0.010704415
58	0xbdc11ab8	-0.09428924
59	0xbd9be49f	-0.076119654
60	0x3cfc917a	0.030831087
61	0x3c6ce1f4	0.014458168
62	0xbb937482	-0.004499973
63	0xbd2bfdb4	-0.041989997
64	0xbc92019e	-0.017823037
65	0xbce9dda5	-0.028548071
66	0x3bd05e36	0.006358887
67	0x3d7018da	0.05861745
68	0xb9426af6	-0.00018541128
69	0x3b18e530	0.0023329966
70	0x3c8df633	0.017329311
71	0xbbb89bad	-0.0056337924
72	0xbc1dfb53	-0.00964244
73	0x3d3dbba0	0.04632151
74	0x3d479514	0.048726156
75	0x3d94ff9f	0.07275318
76	0x3ddd46a9	0.10804493
77	0x3d6d533f	0.057940718
78	0x3d6ccbae	0.05781143
79	0x383ae207	4.455636e-05
80	0xbd8b1c86	-0.0679255
81	0xbaea2fa7	-0.0017866985
82	0xbc3f0f18	-0.0116613135
83	0xbd4a621d	-0.049409974
84	0xbcfdfb94	-0.03100375
85	0xbc98d840	-0.018657804
86	0xbd009d17	-0.031399813
87	0xbd2d0134	-0.042237476
88	0xbb719767	-0.0036863924
89	0x3c643572	0.013928758
90	0xbd866934	-0.06563035
91	0xbc81bddc	-0.015837602
92	0xbb3a4630	-0.0028423183
93	0xb9cfeb5e	-0.0003965748
94	0x3d09409a	0.033508874
95	0x3d63819b	0.055543523
96	0x3b9e1338	0.0048240684
97	0xbb8eb6f5	-0.0043553063
98	0x3cc0ffc2	0.023559455
99	0x3c405bb0	0.01174061
100	0xbc91d6de	-0.017802652
101	0xbc9dcff3	-0.019264197
102	0xbd1bca8b	-0.038034957
103	0xba9c64a3	-0.0011931848
104	0xbb2590df	-0.0025263352
105	0x3a394b32	0.0007068395
106	0xbc1e6720	-0.009668142
107	0xbcad8660	-0.021182239
108	0xbd2c9889	-0.042137656
109	0xbc0520ba	-0.008125478
110	0xbcd54073	-0.026031708
111	0xbc90dccf	-0.017683415
112	0x3d391650	0.045187294
113	0x3c25db09	0.010123023
114	0x3d9b3079	0.07577605
115	0x3b8db622	0.0043246904
116	0xbbccdf3e	-0.0062521985
117	0x3db69fcd	0.08917198
118	0x3d4860c4	0.048920408
119	0x3dcae522	0.09906985
120	0x3d277c32	0.040889926
121	0x3b386647	0.0028137134
122	0xbb8bc8c5	-0.004265877
123	0x3d325941	0.04354215
124	0x3d48278e	0.048865847
125	0x3c9447b2	0.018100593
126	0x3d3e9015	0.046524126
127	0x3d1e776e	0.038688116
128	0xbc0ae6a8	-0.008477844
129	0xbd087115	-0.03331097
130	0x3d93f1b1	0.07223833
131	0x3dcd8d7a	0.1003675
132	0xbd0644eb	-0.03278057
133	0xbc84340e	-0.016138103
134	0x3d707f2c	0.05871503
135	0x3c46629f	0.012108474
136	0xbbf7c3ff	-0.0075612064
137	0x3c814d68	0.01578398
138	0x3d2f9903	0.042870533
139	0x3c6bf14d	0.014400792
140	0x3d209f47	0.0392144
141	0x3b7cef75	0.0038594876
142	0x3d251467	0.04030266
143	0x3db25d0d	0.08709154
144	0x3bfdbf6a	0.0077437656
145	0xbc02eca8	-0.007990994
146	0x3d5e676a	0.054297842
147	0xbcd90c3f	-0.026495097
148	0xbbf2c03f	-0.0074081714
149	0xbc5b7b63	-0.013396117
150	0x3cafc182	0.021454576
151	0x3d5a3b63	0.05327929
152	0x3b3e0f9c	0.0029001003
153	0x3d634cc3	0.055493128
154	0x3d51fcbf	0.051266428
155	0x3d8bd20a	0.06827171
156	0x3d67b343	0.05656744
157	0xbc046f84	-0.008083228
158	0x3c140172	0.009033548
159	0x3cdc2b4d	0.026876116
160	0x3cc5203a	0.024063218
161	0x3d3db79f	0.046317693
162	0x3d60a550	0.054845154
163	0xbaeee99f	-0.0018227583
164	0xbca84818	-0.02054219
165	0xbd978ef4	-0.07400313
166	0xbd457b5d	-0.04821335
167	0xbc96858b	-0.018374225
168	0xbc82a405	-0.015947351
169	0xbd66e775	-0.05637308
170	0xbde43931	-0.11143721
171	0xbdb7d49d	-0.089761
172	0xbd079b96	-0.033107363
173	0xbd81477b	-0.06312462
174	0xbcd567e9	-0.026050525
175	0xbd80d779	-0.06291098
176	0xbd845584	-0.06461623
177	0xbd4b58e6	-0.049645327
178	0xbd2400b8	-0.040039748
179	0xbd97487c	-0.07386872
180	0x3cd3c30f	0.025849847
181	0x3b28fd8e	0.0025785896
182	0x3cbab8eb	0.022793254
183	0x3d135833	0.035972785
184	0x3c81d0ec	0.015846692
185	0xbc5c032a	-0.013428489
186	0x3c9336b8	0.017970428
187	0xbcace27a	-0.021104086
188	0xbd4d4db9	-0.05012295
189	0x3c9ed5e0	0.019389093
190	0xbd374555	-0.044743855
191	0xb91662a7	-0.00014341866
192	0x3cb40388	0.02197434
193	0x3d30710d	0.043076564
194	0x3c900aa5	0.0175832
195	0x3cb9dda8	0.022688702
196	0xbb964f2c	-0.0045870747
197	0x3b4fc73d	0.0031704449
198	0x3b588b91	0.0033042172
199	0xbb2c6a97	-0.002630865
200	0x3d4c7e75	0.049925286
201	0x3bbe93be	0.005815952
202	0x3b8e666b	0.0043457053
203	0x3d112cfc	0.03544329
204	0xbd2076b5	-0.039175708
205	0xbc628e12	-0.0138278175
206	0xbca61dfa	-0.020277966
207	0x3d14e491	0.03635079
208	0xbcc2d856	-0.023784798
209	0x3d39aa9b	0.045328718
210	0xbca61bd5	-0.020276943
211	0xbd9f392c	-0.077745765
212	0xbc3fef9b	-0.011714841
213	0x3c9fe6cc	0.019519232
214	0x3d39496b	0.045236032
215	0x3c8905bb	0.016726365
216	0xbc5792a2	-0.013157519
217	0xbcb656f8	-0.022258267
218	0xbd0c5006	-0.034256004
219	0x3d6c2c9e	0.057659738
220	0xbcb1f2dd	-0.021722252
221	0xbc105ad0	-0.008810714
222	0xbd1179f1	-0.035516683
223	0xbd0ac2d7	-0.03387722
224	0xbca3e997	-0.020008845
225	0x3b81ba89	0.0039590043
226	0x3ca815d7	0.020518227
227	0x3afe1766	0.0019385635
228	0x3c6fa601	0.014626981
229	0xbcb1a21e	-0.021683749
230	0xbc48e3a8	-0.012261309
231	0x3cd9d72c	0.02659186
232	0x3d4943b9	0.04913685
233	0x3de7d570	0.11320007
234	0x3c9f9e90	0.019484788
235	0xbd2032e1	-0.039111022
236	0x3d04335c	0.032275543
237	0x3dc97f78	0.09838766
238	0x3d263f50	0.040587723
239	0x3d58f434	0.052967265
240	0x3cead8a3	0.028667754
241	0x3d018bb7	0.031627383
242	0xbd55ba9e	-0.052179925
243	0xbd4a2ab6	-0.04935714
244	0xbc5138e5	-0.012769912
245	0x3db58c47	0.088646464
246	0x3d6f3a54	0.058405235
247	0xbb7a4fbe	-0.0038194503
248	0x398d953b	0.000270048
249	0x3cbc0d82	0.02295566
250	0xbc7b73d9	-0.015347444
251	0x3c0559d5	0.008139093
252	0xbcb97490	-0.02263859
253	0x3d1009ca	0.035165586
254	0xbc03dcc3	-0.008048239
255	0xbb2952cc	-0.0025836704
