final_presentation/final_results/shallow/interval1/7000/2021-10-14_02-13-47/checkpoints/best_model_1_trial_21_validation_acc=0.9614.pt (torch, 458319 bytes, 6 tensors)

conv_time.weight f4 [20, 62, 90, 1]
000000 ea 73 84 bc 93 35 8c bc f7 e0 8d 3b 78 86 f5 bb
       -0.016168553 -0.01711539 0.0043297964 -0.0074928366
000010 fd 51 fc 3b c9 8d 04 bd 0a 66 12 bd 64 54 0d bd
       0.0077002035 -0.03236178 -0.035741843 -0.03450431
000020 ed 29 31 bc e6 79 3d bb f3 2f 1d bc ea 5a 07 bd
       -0.010813219 -0.0028911768 -0.0095939515 -0.033045687
000030 89 36 01 bd 32 5f 8a bc 7d 13 cc 3b 9d 1f fc b5
       -0.03154615 -0.016891096 0.006227909 -1.8784664e-06
000040 30 ca 71 bb cf 0f f6 3b f1 fe 0b bc 86 63 0b bd
       -0.0036894195 0.0075092087 -0.0085446695 -0.03403046
000050 17 ce c8 bb 21 72 fd bc d8 5c a3 bc 66 0d c5 bc
       -0.0061280834 -0.03093821 -0.019941732 -0.02405424
000060 30 4f ad 3b ad 33 12 bd 9b a4 07 bd 16 9c 8f 3b
       0.005288981 -0.035693813 -0.033115964 0.0043826206
000070 22 15 89 3b b8 aa 98 bc 38 c5 03 bd 73 8d a5 bc
       0.0041834274 -0.018636093 -0.032170504 -0.02020905
000080 6f 60 0a bd ed d8 8d 3c f5 83 03 3c 57 51 01 bd
       -0.033783372 0.017315352 0.0080270665 -0.031571712
000090 1f c4 bd bb c0 51 87 bb c2 4b b1 3b d6 46 b0 bc
       -0.0057912017 -0.0041296184 0.0054106424 -0.021518152
0000a0 8a 60 c7 bc 54 8c c4 3b 2d 3d 28 bc ef 3d 17 bd
       -0.024338026 0.0059981737 -0.010268492 -0.0369243
0000b0 22 db 9c bc 21 44 84 39 00 fe 2a bd 9c b8 18 bd
       -0.01914746 0.00025227762 -0.04174614 -0.037285432
0000c0 28 1c a5 ba a4 1c fa bc 59 06 0e bc 4a 99 14 bd
       -0.0012596892 -0.030531235 -0.008668506 -0.036279
0000d0 95 c0 d4 bc 5f 14 c3 bc 36 ba 00 3b cc 8f 0f bb
       -0.025970737 -0.023813425 0.001964224 -0.0021905778
0000e0 3e be ae bb 74 9a 1b bd 0e bf 92 bc de be e3 bc
       -0.005332737 -0.037989095 -0.017913368 -0.027800974
0000f0 62 54 01 bd 47 98 54 bc d4 54 c7 bc b8 56 5e 3b
       -0.031574614 -0.012975759 -0.024332441 0.00339262
000100 24 0b fe bb 3f e3 f9 bc cd f9 35 bc 9d d3 16 bd
       -0.007752793 -0.030503867 -0.01110692 -0.036822904
000110 7a 41 4a 3c 89 77 0b bc 2c 2d 78 b9 ec 43 55 bc
       0.012344712 -0.008512386 -0.00023667951 -0.013016682
000120 43 5d 4f bc df f8 d1 bc 4d 8a 09 bc 25 f5 1c bd
       -0.012656513 -0.025631366 -0.00839479 -0.038319726
000130 24 5e c5 3b cd ff 67 bc e1 43 0d bd 40 cc 89 bc
       0.0060231853 -0.014160109 -0.034488562 -0.016821027
000140 c6 05 fd bc d9 10 1d bd 7c 98 15 bd b2 4d 03 bd
       -0.030886542 -0.038346145 -0.036522374 -0.032056518
000150 58 86 bc bc 52 9c 24 bc 15 07 e7 bc 3d 26 bf bc
       -0.023013279 -0.010047035 -0.02820162 -0.023333663
000160 ae 52 8f 3b d5 28 84 bc 0a 68 c4 bc bb 7e 0a bd
       0.00437387 -0.016132751 -0.023975391 -0.033812266
000170 36 63 b2 bc fe a8 90 bb 8f 2f 22 bc a4 ce ed 3b
       -0.021775823 -0.0044146767 -0.009899034 0.0072572995
000180 8d d5 f0 39 51 34 77 3c 3e 1f a0 bc a8 e8 7b bb
       0.00045935475 0.015088157 -0.019546147 -0.0038438234
000190 ef 46 95 bc c7 83 1e bc 03 d7 59 bc 49 3f ea bb
       -0.0182223 -0.009674973 -0.013295892 -0.0071486575
0001a0 c3 56 72 3c 76 ae 91 3c 57 32 e6 bc 41 a5 be bb
       0.014791193 0.017783385 -0.028100176 -0.0058180396
0001b0 7e 46 91 3c 5d 3e e5 3b 9c 82 3d bc a0 d9 b9 3b
       0.017733809 0.0069959597 -0.011566784 0.005671695
0001c0 61 41 a4 bc 47 e6 f4 bc 11 b0 3b bb be 3d 38 3b
       -0.020050706 -0.029894961 -0.002863888 0.0028112973
0001d0 74 c6 60 3b 02 37 00 3c 87 e5 94 bc 40 11 12 bd
       0.0034297975 0.007825615 -0.018175853 -0.035660982
0001e0 46 38 b8 bc b5 62 12 3c 0f 45 78 3c 8b 4c 07 bd
       -0.02248777 0.008934666 0.015153184 -0.03303198
0001f0 43 bc 9a 3c 31 09 ed bc a3 bb 6d bb b8 35 f5 bc
       0.018888598 -0.028935047 -0.003627517 -0.029932842
000200 5f c8 1c 3c 72 15 0f bd aa c4 93 3b b5 d5 2c bb
       0.009569257 -0.03493256 0.004509528 -0.0026372497
000210 c5 e5 22 3c 62 fe 15 bd 20 ad a1 bb ad 61 be bc
       0.009942477 -0.03661955 -0.004933968 -0.023239935
000220 94 d5 3a bc 3c 0f 09 bc f6 3b 76 3c be 49 50 3c
       -0.01140346 -0.008365449 0.015028944 0.012712894
000230 ef 96 81 bc 54 11 10 3c 4b 4e f1 bc 0d b0 c7 bc
       -0.015819041 0.008793194 -0.029456278 -0.02437594
000240 af f3 9a 3c 0f a7 2f bc df cd 83 bc a3 15 11 bc
       0.018915026 -0.010720982 -0.016089378 -0.008855256
000250 49 fb 94 3c 9a aa 0b bd ed 8e 0f bd 50 22 10 3a
       0.018186228 -0.034098245 -0.035048414 0.0005498277
000260 c2 c2 dd 3b fe ea 83 bc b0 9d 37 3c ea 1e 08 bd
       0.0067676017 -0.016103264 0.011207029 -0.033232607
000270 77 88 82 bb 40 7e 72 3c e2 43 81 bc 67 4f 1d 3b
       -0.003983553 0.014800608 -0.01577944 0.0024003626
000280 10 83 08 bd 6c 13 b0 bc da b7 d7 bb 43 8e 01 3c
       -0.033328116 -0.021493636 -0.006583196 0.007907453
000290 0f 38 9a 3c 73 29 ff bb a8 53 72 bc e8 51 af bc
       0.018825559 -0.0077869236 -0.014790453 -0.02140136
0002a0 b7 97 f1 3b 7c c9 2f bc ef 35 bf bc 7c 7d 88 bc
       0.007372822 -0.01072919 -0.023341147 -0.016661398
0002b0 01 fc ea bc 46 b4 e2 3b 0c 61 95 bc e4 c6 5b 3c
       -0.028684618 0.006918463 -0.018234752 0.013414118
0002c0 f4 0b 1b bd 85 3c bc bc 76 75 1e bc ed 6d 30 3c
       -0.037853196 -0.022978077 -0.00967156 0.010768396
0002d0 cc 28 94 3c ac 86 10 3c ca 02 7d bb 14 3c 9b 3c
       0.01808586 0.008821171 -0.0038606399 0.018949546
0002e0 03 9f 2a bc b6 7a 08 bc 2c 32 96 3c e0 84 d9 3c
       -0.010413888 -0.008330038 0.01833447 0.026552618
0002f0 e2 4a 80 3b 3a 22 cd b9 84 a4 dc bc a3 d7 89 3c
       0.0039151767 -0.00039126148 -0.026933916 0.016826456
000300 5b 53 27 3c f2 31 bd 3b ff 77 99 3c ad 0b 80 bc
       0.010212745 0.005773776 0.018733976 -0.015630567
000310 f9 d2 6f bc 7c 2b d0 3c d4 38 05 3c 37 23 ce 3c
       -0.014637702 0.02541136 0.008131225 0.025163276
000320 76 28 86 3c 2c e4 66 3c 8f 5b 75 3c 31 07 1a 3c
       0.016376715 0.014092486 0.014975443 0.009401129
000330 23 33 b1 bc a3 20 56 3c 96 fc fb bb a8 9e a1 3c
       -0.02163083 0.013069305 -0.0076900227 0.019728974
000340 07 1b 93 3c 1d 45 4c bc ec f0 4a bc 9b b8 84 bc
       0.017957224 -0.01246765 -0.012386542 -0.016201308
000350 d6 e7 dc 3b 9f c0 fb bb 70 15 c4 bc 8a da 2b bc
       0.006741504 -0.0076828743 -0.023936003 -0.0104891155
000360 ee e5 57 3c c9 4c aa bc fb a5 63 bb d5 c4 ba bb
       0.013177378 -0.020788567 -0.0034736383 -0.0056997337
000370 de f1 73 bc 6e 91 17 bc 3b 34 3d bc 15 0d a7 39
       -0.014889209 -0.009250982 -0.011548097 0.0003186247
000380 f4 f0 42 3b 0c cf 65 3c 4f 0e 51 3b f1 92 30 3c
       0.002974567 0.014026415 0.0031899398 0.010777221
000390 b8 df 51 3c 27 59 8b bc ea cb 89 3c 07 2e df 3c
       0.012809686 -0.017010285 0.016820867 0.027243627
0003a0 89 73 ae bb f8 f1 8a 3c 3f 04 97 bc 53 9c c6 3c
       -0.0053238315 0.016961083 -0.018434642 0.024244463
0003b0 54 38 2b 3a 90 8d d8 bc ab 6a a8 3c cd c1 12 bc
       0.0006531526 -0.02643469 0.020558676 -0.0089573385
0003c0 33 d0 d4 ba 90 ad ae 3a b4 3f 87 bc 58 d6 ab 3c
       -0.0016236365 0.0013326872 -0.016509868 0.02097623
0003d0 07 f0 b1 bb e8 aa 0b bc e6 ee a5 bc 88 5f 74 b9
       -0.005430225 -0.008524634 -0.020255517 -0.00023305241
0003e0 40 07 34 bb 0c 74 06 bd 8f be 58 3c 4a 1c 3c ba
       -0.0027470142 -0.032825515 0.013229026 -0.0007175846
0003f0 c1 e2 15 bb d2 0c 15 3b 58 fc 5e 3c c1 e2 30 3b
       -0.0022870752 0.0022743237 0.013609968 0.0026990625

bnorm.weight f4 [20]
000000 f4 e4 b5 3f b7 54 ae 3f 03 c6 ad 3f 68 f4 b1 3f
       1.4210496 1.3619603 1.3576053 1.3902712
000010 e7 04 a9 3f f0 c1 a7 3f 28 94 b0 3f b6 c3 ae 3f
       1.3204621 1.310606 1.3795214 1.3653476
000020 54 61 b5 3f 5e 4a ab 3f 7c d1 b5 3f 31 27 99 3f
       1.4170327 1.338207 1.4204555 1.1965085
000030 84 5f a9 3f be 55 ae 3f dd c1 b1 3f b1 14 b5 3f
       1.3232274 1.3619916 1.3887287 1.414694
000040 6e 39 9c 3f 6b 46 b0 3f f6 94 ad 3f 47 f2 ae 3f
       1.2205026 1.377149 1.3561084 1.3667687

bnorm.bias f4 [20]
000000 2a c8 23 be a0 db 0a bf dd 7a b2 3c fd 3f c7 3d
       -0.15994325 -0.5424137 0.021787101 0.09729002
000010 45 22 a8 3e 4c 53 e2 3e 21 3f af 3d 2c 64 15 be
       0.32838646 0.44204175 0.08556963 -0.14588994
000020 da a9 02 be a2 c7 b0 3e 6a 5e 75 3c 9a 86 3f 3f
       -0.12760106 0.34527308 0.014976123 0.7481476
000030 f9 a6 c0 be 34 5b 43 3e c9 c3 00 3e db 18 c1 bd
       -0.3762739 0.1907776 0.12574686 -0.09428569
000040 3d 55 53 3f c8 f3 71 be 7d 59 98 3e f2 90 ab 3d
       0.8255194 -0.23628151 0.29755774 0.083772555

bnorm.running_mean f4 [20]
000000 27 bf 8e bc 2d b6 13 3c 8b 08 8d bb 2e 6c cd 3c
       -0.017425133 0.009015602 -0.004303997 0.025075998
000010 14 44 9c bb 3c 77 86 3c 42 cb 0e 3d 76 0a 86 3c
       -0.0047688577 0.016414277 0.03486181 0.01636241
000020 93 97 b1 ba 72 a0 43 bc 08 d2 b5 3c c9 65 ad 3c
       -0.0013549201 -0.011940109 0.022194877 0.021166699
000030 b8 11 46 bc 1d d3 9f 3b 35 09 03 bd 9a 3e 9e 3c
       -0.012089185 0.0048774616 -0.031991202 0.01931696
000040 c2 cc a4 bc bb a2 9b bc f0 f7 ef 3b 93 ff e4 bb
       -0.020117167 -0.018998494 0.0073232576 -0.0069884746

bnorm.running_var f4 [20]
000000 ae 84 88 42 8b 44 b8 42 64 b0 2d 42 ad 22 9d 42
       68.25914 92.13387 43.422256 78.567726
000010 5d 7a 49 42 4d ea c8 42 fe 52 49 42 fc aa 3b 42
       50.369495 100.45762 50.331047 46.916977
000020 7f 5f 52 42 d3 41 56 42 69 0e 7f 42 b4 3e 85 42
       52.593258 53.56428 63.764072 66.62247
000030 2e 34 30 42 1f 23 21 42 ed 0e 56 42 b8 96 b4 42
       44.050957 40.284298 53.514576 90.29437
000040 b8 96 b8 42 56 41 79 42 32 e8 83 42 56 11 83 42
       92.29437 62.313805 65.95351 65.53386

conv_classifier.weight f4 [1, 20, 109, 1]
000000 cc 5f f6 bc d0 be 38 3b 94 9a 95 bb 50 c4 c1 bd
       -0.030074976 0.0028189905 -0.0045655463 -0.09461272
000010 f3 35 3c bd b7 09 fc 3d ee 94 29 3e fa ea 09 3d
       -0.045949887 0.123065405 0.16560718 0.033671357
000020 b4 54 2d bd ff 78 c3 3d 22 da cb 3d 86 bb 58 3d
       -0.042317107 0.095445625 0.09953715 0.05291321
000030 c6 4f a3 bd 77 d5 3d 3c 1b 14 4a 3e 2e 6a e6 3d
       -0.079742 0.0115865385 0.19734232 0.11250721
000040 4d 11 e2 bc 2c be 10 3e d7 c3 b2 bc a0 8c 9b 3c
       -0.02759614 0.14135045 -0.0218219 0.018987954
000050 34 2f aa bd 33 d4 8b bd b4 4a 0f 3e 16 75 f5 3d
       -0.083097845 -0.06827583 0.1399334 0.11985223
000060 17 66 f5 bc ed 45 a5 bd 5d e5 d5 bc e0 65 cc 3d
       -0.029955907 -0.08069978 -0.026110345 0.099803686
000070 c3 32 86 3c 70 8f 48 bd 8b 4e ae ba 37 d0 e2 bc
       0.016381627 -0.048964918 -0.0013298554 -0.027687175
000080 43 f3 73 3b bf 6b 72 bd 41 00 2f 3d 3a c3 0b 3d
       0.0037223853 -0.059184786 0.04272485 0.03412173
000090 a7 17 04 bd d2 de 32 be c0 25 36 bd 7d aa 70 bc
       -0.03224912 -0.17467812 -0.044469595 -0.014689085
0000a0 62 a4 d3 3d e7 c9 3e bc 52 cb 17 be cd e1 cb 3c
       0.10334088 -0.011644817 -0.14823654 0.024887944
0000b0 3a b4 b9 3c 55 87 dd 3d be 37 72 3c fb 14 3f be
       0.022668947 0.10816828 0.014783798 -0.18660347
0000c0 ee 64 7f 3c c7 3f ed 3d 08 91 8b bc 4f f5 e8 bb
       0.015588028 0.1158443 -0.01703693 -0.007109321
0000d0 b6 43 f8 3c 2a 53 2d be d9 6c 97 3c f1 b9 13 be
       0.030305725 -0.16926256 0.01848452 -0.144264
0000e0 15 2c 92 bd d0 71 14 bd 33 2d 30 bb 15 4b 4b 3d
       -0.07137314 -0.036241353 -0.002688241 0.04963215
0000f0 c1 ac 8c bb e8 5c 96 bd a1 3c cc 3d 0e 49 0f 3e
       -0.004293055 -0.07341939 0.099725015 0.13992712
000100 14 a0 ac 3d 9b b9 01 be 74 e2 ad 3d 48 89 9a bd
       0.0842897 -0.12668459 0.08490458 -0.075457156
000110 1b 8a dd bd d6 12 cd bd 1a 3e 95 bc 51 56 97 3d
       -0.10817357 -0.10013358 -0.018218089 0.073895104
000120 f2 cd 77 3c f5 64 08 be 8f 05 11 3e 30 5c 08 3d
       0.015124785 -0.13319762 0.14162277 0.03329104
000130 b0 b5 84 bc 5e b7 5c bd 21 db 6c 3d 40 70 0d bd
       -0.016199917 -0.05388581 0.057826165 -0.034530878
000140 34 73 52 3d b4 45 84 3d 31 56 74 bd 87 1f 64 bc
       0.051379398 0.06458607 -0.05965251 -0.013923532
000150 33 f3 0f bc c3 74 15 bd 92 c5 65 bd 16 f1 59 bc
       -0.008786011 -0.036488306 -0.05609662 -0.013302108
000160 b3 d5 9f 3c 52 b6 b9 3c ec 0f 5f 3d bd 35 27 3d
       0.01951108 0.022669945 0.054458544 0.040822733
000170 f7 fe 2a bc 58 c2 00 3d a0 c2 51 bd 69 08 23 3d
       -0.010436765 0.03143534 -0.051211 0.039802942
000180 29 4f 84 bd 76 e5 28 3d f7 22 a9 3d 56 94 5b bd
       -0.06460411 0.041234456 0.08258622 -0.05360826
000190 1c 9f f6 bc 0c fc c0 3d 55 41 f8 3c e5 37 00 bd
       -0.030105166 0.09423074 0.03030459 -0.031303305
0001a0 5a 23 0c be ba ba b5 bd 4b 6a 1e 3d 42 70 1e 3c
       -0.1368536 -0.08873506 0.038675588 0.009670319
0001b0 99 03 42 3d 2b 2d d0 3d ff 9b c0 bb 7a 41 e3 3d
       0.047366712 0.10164865 -0.005877971 0.11096473
0001c0 48 96 d1 bd d8 90 b9 3c aa 8c a0 bd 12 12 77 3c
       -0.10233742 0.022652075 -0.078393295 0.015079992
0001d0 b6 56 30 3d aa 41 1b be 06 16 d0 bd ac c1 ac bc
       0.043051444 -0.15161768 -0.10160451 -0.021088444
0001e0 24 ce c7 3d f3 5b f3 bd 3e d8 24 bd 15 4e fc bc
       0.09756115 -0.11882772 -0.040245287 -0.030798951
0001f0 05 09 4e bd 9a b1 f7 bc 2e 66 a8 3b 49 ca 40 bd
       -0.05030157 -0.030236054 0.005139134 -0.047067914
000200 00 4f 73 3d cf fe a9 bd c2 8a 43 bc 39 a0 21 bb
       0.059401512 -0.08300554 -0.011934938 -0.002466215
000210 97 82 14 be 9c 49 f6 3b 21 b5 82 3a ca 9f 94 3d
       -0.14502941 0.007516099 0.0009972194 0.0725704
000220 f8 1e bb 3d b6 7e 49 3c 1d 72 96 3c a2 75 a2 bd
       0.09136766 0.012298277 0.01836496 -0.07932593
000230 4f c7 b4 3c bf 3e 9a bd b2 fc f0 3d 42 b7 1e 3d
       0.022067694 -0.07531499 0.11766948 0.038748987
000240 28 f8 d3 3d 21 70 e8 3d 0e 99 2e 3e 68 ff 32 3d
       0.103500664 0.11349512 0.17050573 0.043700606
000250 c0 3c fa bd e0 15 64 3d 42 99 59 3e 59 6d 03 bd
       -0.122186184 0.055684924 0.2124987 -0.032086704
000260 ec 13 33 bc ed 80 2f be a7 29 ac bc db 67 08 3d
       -0.010930043 -0.17139025 -0.021015955 0.03330217
000270 84 2b 42 3e fe 38 9a 3e 9e 9d 32 3e 17 27 4d 3d
       0.18961912 0.30121607 0.17442939 0.050086107
000280 16 c2 a9 3d b8 7a 5e bd 10 73 33 3d 2e 8f f1 3d
       0.08288972 -0.054316252 0.043810904 0.117948875
000290 1d 00 a1 3d 92 8b e9 bd 1a de 02 bd 67 f6 76 3d
       0.0786135 -0.11403574 -0.031950094 0.06029358
0002a0 83 ba e6 3d 82 9c 23 bd 50 99 a5 bd 00 a9 b6 3d
       0.11266043 -0.03994418 -0.08085883 0.08918953
0002b0 d2 ab 60 3d e5 21 1b bd b2 0f 98 3c 78 46 a1 bc
       0.05485136 -0.03787412 0.018562172 -0.019686922
0002c0 de d4 8e 3c 93 9a ae 3b 56 36 dc 3c 9b 51 92 3d
       0.017435487 0.0053284853 0.026881378 0.07144471
0002d0 6b 09 ca 3a 17 10 6a bd b2 50 16 3e 49 ab 75 bd
       0.0015414184 -0.05714425 0.1467922 -0.059977803
0002e0 20 49 1d 3e d3 d1 06 3e 33 88 31 3d 0c 1b a9 bd
       0.15359926 0.13165979 0.04334278 -0.08257112
0002f0 ec 49 56 3e 3a d7 b2 3d c8 7a ca 3d 49 d0 a4 3d
       0.20926636 0.087324575 0.098867 0.0804754
000300 b8 2f 17 bc 96 2b 91 bd 5a d8 5c 3d df 7b 9e bd
       -0.009227686 -0.070883915 0.053917266 -0.0773847
000310 c6 2a 48 3d 0b c1 da bc 1c 2b 31 3c e7 2a 00 3d
       0.048868917 -0.026703378 0.010813501 0.031290915
000320 47 68 50 3d 36 94 52 bd 03 81 66 3d 13 c5 5b 3e
       0.050880697 -0.051410876 0.05627538 0.21461897
000330 95 b1 7f 3d ea 65 36 3d c9 7c 94 3d 32 47 a1 bd
       0.062425215 0.044530787 0.072503634 -0.078749076
000340 a5 44 5d bd 35 e9 42 bd 6d f8 2d 3d 6e 0e 25 3e
       -0.054020543 -0.047585685 0.042473245 0.16118786
000350 b8 9c f3 3c 9a da b6 3d f7 d7 dd bd e6 4a 05 3e
       0.029737815 0.08928414 -0.10832208 0.13016853
000360 61 bb 5b 3d a9 fc ad 3c 87 b3 f4 3d aa 2b 63 3d
       0.053645495 0.021238642 0.119483046 0.055461563
000370 8f d9 1f 3b 1e e3 a3 bd c7 28 1d 3d db 44 f5 3d
       0.002439115 -0.080023035 0.038368966 0.11976024
000380 6d f0 bd 3d e9 b2 b2 38 f9 09 a3 3d 31 59 2a 3e
       0.09274373 8.521026e-05 0.079608865 0.16635586
000390 71 f7 90 bd c2 a8 a0 bd 41 b7 6f 3e cd 97 76 bd
       -0.07078446 -0.07844688 0.2340975 -0.060203362
0003a0 66 93 c6 3d af 76 0b 3c 93 66 25 3d b2 1f 31 bd
       0.09696083 0.008512183 0.040381026 -0.043243118
0003b0 3d b9 b3 3d 48 51 8c 3d 60 c5 db 3d 76 4c f1 3d
       0.08775566 0.06851441 0.10731006 0.11782162
0003c0 48 d8 de bc 86 32 08 3e 32 c1 64 3d ee 6f c3 3c
       -0.02720274 0.13300523 0.055848308 0.023857083
0003d0 20 6c 54 3d ac a2 8b 3d f6 48 07 3e 66 fe 53 bd
       0.05186093 0.068181366 0.13211426 -0.051756285
0003e0 de fa a4 3d 88 75 ad 3d d4 e0 20 3e 53 94 a4 3d
       0.080556616 0.08469683 0.15710765 0.08036103
0003f0 18 d4 a3 bd d5 ea 25 be bc 48 1d 3d 03 e6 b6 3d
       -0.07999438 -0.16202863 0.038399443 0.0893059
