final_presentation/final_results/shallow/interval1/7000/2021-10-14_02-13-47/checkpoints/best_model_1_trial_62_validation_acc=0.7725.pt (torch, 692367 bytes, 6 tensors)

conv_time.weight f4 [30, 62, 90, 1]
0.015711715 0.02093249 -0.017864896 0.018036513 0.004437122 0.021491557 -0.010001999 -0.014748206
-0.008508476 -0.025228761 0.009071138 -0.005798721 -0.018123297 0.018391684 -0.005890507 0.025111357
0.0089332275 0.004118466 -0.01889816 0.018519938 8.48767e-05 0.017816484 -0.0017166665 0.0034157073
0.02481688 0.011896487 -0.016439049 -0.0035072921 -0.0013687793 -0.007427152 0.0045438395 -0.008593205
0.02426998 0.026005328 -0.012731595 0.02293713 0.012095128 -0.013114767 -0.0010069847 0.01644065
-0.011792171 -0.01641773 -0.0010794275 -0.0041005127 -0.021863164 -0.017436204 0.009351322 0.018613126
0.002106257 0.014754608 0.02525737 -0.021522978 0.02083876 0.015815975 0.01594424 0.014529189
0.019878734 -0.001869688 0.017426746 -0.009988559 0.01246722 -0.013048841 -0.0001363268 0.00050750125
0.019634653 -0.01665079 -0.021887554 0.0197389 -0.01933382 -0.014057561 -0.019738857 -0.0008483821
0.010496038 -0.018605018 -0.019637778 -0.009178251 -0.02680708 -0.004076294 -0.009512178 -0.0072147623
0.0052411985 0.0022616456 0.024082657 0.014064786 0.014007696 0.021583885 0.0064185704 0.0035379187
0.015192219 0.01953052 0.008613335 -0.021729277 0.006607265 -0.005339249 0.013560241 -0.013001738
0.005375106 0.02329245 -0.015439305 -0.020643571 -0.01975607 0.0015500746 0.004345823 -0.013564151
0.0031951652 -0.0033616575 0.017032446 -0.02369846 0.025484418 0.015294917 -0.011105377 -0.013938299
-0.009996871 -0.011283417 0.02539641 -0.0025773675 -0.011074657 -0.02054702 0.006823138 0.00789462
-0.0029417179 0.016766371 -0.0014034414 0.0108763985 -0.0014847774 0.01757668 -0.001807826 0.0053248713
0.021597233 0.009553344 -0.015497217 0.025114873 -0.0069826087 -0.02120214 0.025193198 -0.01250811
-0.025674073 0.025606336 0.004832598 -0.021467986 -0.0021901815 -0.012706246 0.016984763 0.015502904
0.0038403047 -0.022982541 0.025428042 0.0057108663 -0.02626632 -0.018650517 0.014370276 0.025471704
-0.009412414 -0.026102258 -0.021538245 -0.026510539 -0.014478098 0.02455446 0.023891408 0.0123962965
0.0147747155 -0.002982243 0.010169054 -0.011433585 -0.008920704 0.001819174 -0.0015581736 0.002528025
-0.02357775 0.014989863 0.0023814032 0.019693501 -0.0010253013 0.0123641305 -0.016236417 -0.001046502
-0.0011641308 0.018034004 -0.0154109 -0.012154181 0.009144797 -0.02471455 -0.025554579 -0.022439834
0.020882223 0.025359597 0.011195806 -0.016017452 -0.024090696 0.0043295254 -0.013502289 -0.026871817
-0.0251425 0.021558085 0.00793399 0.0031274965 0.02432547 -0.015746359 -0.023610126 -0.025217822
0.01558742 -0.00015784615 -0.007356128 0.024296869 -0.008437132 0.02373742 0.0008743205 0.02501351
-0.024993371 -0.02136352 0.010556367 0.004103601 -0.0125769125 0.0014263487 -0.013018222 0.0164094
-0.0071127284 -0.016260467 -8.0776255e-05 0.009803735 -0.021891208 -0.014480663 -0.01652061 -0.013745645
-0.023059215 0.020163307 -0.014896851 -0.008881383 0.023103107 -0.009008123 0.023330558 -0.027376283
-0.026037877 -0.00047389962 0.025861789 -0.013005622 0.02556319 0.006381648 -0.018439353 -0.009824342
0.01698858 0.005566646 0.024116013 0.02103397 0.022710456 -0.0027937728 -0.020725312 -0.024686245
0.008001125 -0.023873404 0.018009333 0.017152255 -0.0014648333 -0.01615266 0.011775834 -0.018882755
00000000: dbb5 803c 9d7a ab3c 6759 92bc 4fc1 933c
00000010: 4765 913b 100f b03c 6ddf 23bc 76a2 71bc
00000020: 2367 0bbc 8cac cebc 1c9f 143c 3303 bebb
00000030: 4f77 94bc 28aa 963c 2705 c1bb 55b6 cd3c
00000040: ac5c 123c 32f4 863b 50d0 9abc 20b7 973c
00000050: d5ff b138 e0f3 913c c501 e1ba 0fda 5f3b
00000060: c54c cb3c 7ce9 423c 2fab 86bc 99da 65bb
00000070: 9d68 b3ba 775f f3bb 7de4 943b 84ca 0cbc
00000080: d6d1 c63c 2009 d53c 2e98 50bc a6e6 bb3c
00000090: a52a 463c 52df 56bc cdfc 83ba 8bae 863c
000000a0: f333 41bc 7a7e 86bc 947b 8dba 985d 86bb
000000b0: 611a b3bc 5fd6 8ebc 4a36 193c 8e7a 983c
000000c0: 2109 0a3b 50bd 713c 8be8 ce3c f550 b0bc
000000d0: 0cb6 aa3c 8190 813c 7f9d 823c d60b 6e3c
000000e0: bad8 a23c 5210 f5ba 89c2 8e3c 0ea7 23bc
000000f0: 5043 4c3c ceca 55bc f2f2 0eb9 d509 053a
00000100: dad8 a03c 3d67 88bc 874d b3bc 79b3 a13c
00000110: f661 9ebc af51 66bc 62b3 a1bc f565 5eba
00000120: 93f7 2b3c 8d69 98bc 68df a0bc 6060 16bc
00000130: 859a dbbc 6f92 85bb f7d8 1bbc d069 ecbb
00000140: 5cbe ab3b 1e38 143b fe48 c53c fd6f 663c
00000150: 8980 653c b0d0 b03c df52 d23b 6ddc 673b
00000160: c9e8 783c 78fe 9f3c f21e 0d3c 9901 b2bc
00000170: c281 d83b def4 aebb c62b 5e3c 3e05 55bc
00000180: a821 b03b cfcf be3c 24f5 7cbc b51c a9bc
00000190: 7bd7 a1bc df2b cb3a 6867 8e3b 2c3c 5ebc
000001a0: fa65 513b 414f 5cbb a187 8b3c 4623 c2bc
000001b0: b3c4 d03c 8897 7a3c 54f3 35bc 775d 64bc
000001c0: ebc9 23bc 15de 38bc 220c d03c 0de9 28bb
000001d0: 7a72 35bc 3952 a8bc a194 df3b 7058 013c
000001e0: d6c9 40bb a159 893c aef3 b7ba ec32 323c
000001f0: dd9c c2ba f8fc 8f3c 93f4 ecba 427c ae3b
00000200: aeec b03c a185 1c3c 0ae8 7dbc b5bd cd3c
00000210: 5ece e4bb 1cb0 adbc f761 ce3c d1ee 4cbc
00000220: 6f52 d2bc 61c4 d13c c55a 9e3b a1dd afbc
00000230: 2689 0fbb dc2d 50bc a123 8b3c e4ff 7d3c
00000240: 9fad 7b3b e245 bcbc 784e d03c 3822 bb3b
00000250: 772c d7bc f8c8 98bc 4e71 6b3c 09aa d03c
00000260: 8736 1abc 67d4 d5bc f970 b0bc a12c d9bc
00000270: 8b35 6dbc 6f26 c93c eab7 c33c d619 4b3c
00000280: a611 723c bc71 43bb 1b9c 263c ee53 3bbc
00000290: 2528 12bc 5a71 ee3a a13b ccba 39ad 253b
000002a0: 2026 c1bc 0b98 753c 5111 1c3b 4454 a13c
000002b0: 6763 86ba ec92 4a3c 3c02 85bc c82a 89ba
000002c0: bf95 98ba 0cbc 933c 007e 7cbc 5422 47bc
000002d0: 0fd4 153c 2b76 cabc d657 d1bc bed3 b7bc
000002e0: 3211 ab3c eebe cf3c 9d6e 373c 0837 83bc
000002f0: da59 c5bc b1de 8d3b b438 5dbc 4922 dcbc
00000300: a5f7 cdbc 959a b03c 91fd 013c aff6 4c3b
00000310: 3546 c73c 82fe 80bc 066a c1bc 9b95 cebc
00000320: 6162 7f3c 8183 25b9 ad0b f1bb 3a0a c73c
00000330: e63b 0abc fa74 c23c a832 653a 22e9 cc3c
00000340: e6be ccbc 8c02 afbc 9df4 2c3c 8077 863b
00000350: 650f 4ebc 52f4 ba3a 614a 55bc 026d 863c
00000360: e411 e9bb ac34 85bc 6c66 a9b8 d89f 203c
00000370: 3155 b3bc 4e40 6dbc 3b56 87bc 6a35 61bc
00000380: aee6 bcbc 852d a53c ec11 74bc 3883 11bc
00000390: ba42 bd3c ce96 13bc ba1f bf3c 3a44 e0bc
000003a0: 634d d5bc bb75 f8b9 1adc d33c 8815 55bc
000003b0: e569 d13c 251d d13b 200e 97bc 47f6 20bc
000003c0: a22b 8b3c 6968 b63b f28e c53c 6f4f ac3c
000003d0: 470b ba3c bb17 37bb 21c8 a9bc cf3a cabc
000003e0: 2717 033c 2892 c3bc 4f88 933c e382 8c3c
000003f0: a6ff bfba 9552 84bc 6def 403c 02b0 9abc

bnorm.weight f4 [30]
1.0109602 1.0121031 1.0119526 1.0102034 1.0083641 1.0096556 1.0083729 1.0132576
1.0115079 1.011568 1.011296 1.0101651 1.0084107 1.0086554 1.0119196 1.0080756
1.011084 1.0093906 1.0108856 1.011159 1.0067567 1.0101826 1.0124197 1.0146507
1.0098889 1.0066761 1.0113486 1.0124861 1.0050677 1.0090343
00000000: 2567 813f 988c 813f aa87 813f 584e 813f
00000010: 1312 813f 653c 813f 5d12 813f 6db2 813f
00000020: 1779 813f 0f7b 813f 2672 813f 174d 813f
00000030: 9a13 813f 9f1b 813f 9586 813f 9f08 813f
00000040: 336b 813f b633 813f b364 813f a86d 813f
00000050: 67dd 803f aa4d 813f f896 813f 13e0 813f
00000060: 0a44 813f c3da 803f df73 813f 2599 813f
00000070: 0fa6 803f 0928 813f

bnorm.bias f4 [30]
0.018891223 0.016820747 0.0015740533 0.0048781317 -0.0137134455 0.009827039 0.0025089912 0.0009626067
-0.036820628 0.004551915 -0.018494558 0.0075798873 -0.006913808 -0.0025115416 -0.02661262 -0.0029294176
-0.03792769 -0.008161494 -0.012721174 -0.014117431 0.012835542 0.03037905 0.00060166174 0.010218359
-0.005614554 0.005278541 0.0007475578 0.006576133 0.075679295 -0.0056960634
00000000: c4c1 9a3c aacb 893c 7750 ce3a bcd8 9f3b
00000010: 5cae 60bc 9701 213c e36d 243b 7157 7c3a
00000020: 3ad1 16bd 3b28 953b e681 97bc b460 f83b
00000030: 3a8d e2bb ad98 24bb b602 dabc 79fb 3fbb
00000040: 115a 1bbd c9b7 05bc 796c 50bc cc4c 67bc
00000050: 2a4c 523c 7cdd f83c d6b8 1d3a e76a 273c
00000060: 4bfa b7bb 9cf7 ac3b c1f7 433a 9a7c d73b
00000070: bffd 9a3d 0ba6 babb

bnorm.running_mean f4 [30]
0.0009337813 -0.0003028657 -1.2888198e-05 -0.0015910248 0.0028554597 -0.0011910747 0.0062616123 0.0022365206
0.002244216 0.0059356806 -0.006068131 -0.0017378625 -0.0045117512 -0.00064444443 0.0061701685 0.00393133
-0.0018640385 -0.0018294511 0.0031876517 -0.0036510911 -0.0014375148 0.0012784704 0.0033973234 0.0040425756
0.0017879297 0.0038424227 -0.0023106206 -0.003333038 -0.0053851116 -0.00051127817
00000000: 01c9 743a f2c9 9eb9 643a 58b7 ef89 d0ba
00000010: aa22 3b3b d61d 9cba 362e cd3b 9792 123b
00000020: b213 133b 1980 c23b 2cd7 c6bb fdc8 e3ba
00000030: 50d7 93bb efef 28ba 202f ca3b 63d2 803b
00000040: c152 f4ba 31ca efba ece7 503b 2547 6fbb
00000050: fe6a bcba 5992 a73a a1a5 5e3b 9577 843b
00000060: f758 ea3a 28d1 7b3b c86d 17bb 196f 5abb
00000070: 9775 b0bb 4c07 06ba

bnorm.running_var f4 [30]
1.5950568 3.6624055 3.0665133 1.2339346 2.1667976 2.9962466 2.765703 4.0052447
2.255931 2.5375571 3.0183985 1.4214407 1.7256638 1.1181419 2.3946269 1.8967935
3.0383682 2.253048 1.7166445 3.4462144 1.6451362 1.7469716 1.941912 2.4345422
2.2809575 1.9651941 2.454275 2.302455 3.6771805 1.1830488
00000000: d22a cc3f da64 6a40 c141 4440 92f1 9d3f
00000010: d0ac 0a40 81c2 3f40 4701 3140 f72a 8040
00000020: 2c61 1040 5667 2240 712d 4140 c5f1 b53f
00000030: 8de2 dc3f 461f 8f3f 9141 1940 21ca f23f
00000040: a074 4240 f031 1040 02bb db3f c78e 5c40
00000050: d393 d23f c49c df3f 9390 f83f 8acf 1b40
00000060: 35fb 1140 7b8b fb3f d712 1d40 6c5b 1340
00000070: ed56 6b40 256e 973f

conv_classifier.weight f4 [1, 30, 163, 1]
0.019990232 0.027188074 -0.029842153 0.014922353 -8.567047e-05 -0.017179633 -0.009745267 0.0062084994
-0.032111976 0.0100698555 -0.012429514 0.0017876504 0.009238456 -0.026676547 -0.029865846 -0.04263925
0.012778162 -0.00839763 -0.009702466 -0.021241596 0.015716847 -0.030633096 0.0008881736 0.029583007
0.02295595 -0.024444213 -0.020145996 0.026895778 -0.020497903 0.017377146 -0.011633446 -0.02395193
-0.00028089914 0.0069159595 0.001815587 -0.003857264 0.017824102 0.012932828 -0.024956547 0.00038572922
0.012381164 -0.015224321 0.01947916 0.013120885 0.021871593 -0.02874431 -0.00918231 -0.02220144
0.005004312 0.020254068 -0.030246735 0.0033073984 -0.033234555 -0.036109254 -0.002492756 -0.004427705
-0.019602142 -0.006309887 -0.01975683 -0.014409405 0.00067075476 0.010633536 0.02238969 0.02247997
0.011310843 0.00669994 0.028909283 0.024283586 -0.015119241 0.025574261 0.015622886 0.015998878
0.02453185 -0.029787922 -0.030207153 -0.017133296 0.02863476 0.008628443 0.003092411 -0.02417847
0.0032567526 0.021966724 0.0052608387 -0.00078940904 0.02794941 -0.019236114 -0.0012135485 -0.032488298
-0.037115593 0.006776506 0.0050602215 0.00083571405 -0.027838629 -0.017113218 0.0043892046 -0.017605754
0.015698994 0.0150363995 0.009088182 0.019407822 0.011745666 -0.003398581 -0.018746784 0.00037866633
0.017511895 0.016002163 0.008346916 -0.021878833 0.035661716 -0.014805966 0.03716734 -0.017375648
-0.011530414 0.0053511327 -0.022237044 0.028991323 -0.017897217 0.013797069 -0.029624227 0.023653492
0.017709699 0.015603544 -6.256663e-05 -0.01315525 -0.01432147 0.007342242 -0.0020255682 0.0030091915
-0.010465271 -0.021556314 -0.0014884013 0.0112469215 0.029837584 -0.018580161 0.0003344871 -0.002094324
-0.016456151 -0.0013319063 0.0009035324 0.027174277 -0.015332203 -0.005235418 0.012097852 -0.027524497
0.022705885 0.032231998 0.015160843 0.014007084 -0.00886227 0.007125502 0.012897557 -0.027008226
0.0032115725 0.030409273 -0.017932743 -0.0056005954 0.0074759615 -0.027889995 0.03276583 -0.016547358
0.020411726 0.0045470586 0.008409346 -0.010072001 0.02217207 3.4609404e-06 -0.018059017 0.0078595225
-0.02534628 -0.03944488 0.016999496 0.007813365 -0.017949924 0.041673254 0.03147734 -0.011787007
0.012506637 0.04144102 0.01747351 0.025692144 0.05562456 -0.014445386 0.016224045 0.036003828
0.030109104 -0.009451954 0.011203394 0.017506598 0.025829706 0.025329268 0.016294803 -0.0003884749
0.025596775 0.011559885 -0.018353095 -0.022231165 0.020253884 0.0064860852 0.020306818 -0.022961866
-0.020422708 0.019911887 -0.018456059 -0.012105858 0.0041535106 -0.009813924 -0.02822074 0.007085034
0.018825967 -0.0013354846 -0.028108079 0.008485934 0.021200875 0.022750424 -0.033623867 -0.017712897
-0.018834151 -0.032304928 0.02475806 0.015410329 -0.02137867 -0.008834723 0.015314648 -0.0070934063
0.019319834 -0.016378878 0.0028547624 0.032314487 -0.0027977824 0.02356946 0.021443157 -0.008469585
0.008653168 0.0046002525 0.009754225 -0.021112088 0.003984539 0.0006360079 0.023979735 -0.005740608
0.0024615726 -0.014729265 0.009318367 -0.01791139 0.0089683095 -0.0091309445 0.0048002335 -0.014927645
0.0068416814 0.0018083337 -0.007433529 0.039688077 -0.027364932 0.016598761 -0.009227397 0.02132595
00000000: 8ec2 a33c 86b9 de3c 8877 f4bc e37c 743c
00000010: fca9 b3b8 4dbc 8cbc 9daa 1fbc ab70 cb3b
00000020: d987 03bd 09fc 243c 29a5 4bbc 984f ea3a
00000030: e55c 173c c688 dabc 38a9 f4bc 7fa6 2ebd
00000040: 7f5b 513c 3796 09bc 18f7 1ebc db02 aebc
00000050: 9ec0 803c 42f2 fabc 52d4 683a 1058 f23c
00000060: 1e0e bc3c 3b3f c8bc 3709 a5bc 8954 dc3c
00000070: 38eb a7bc 845a 8e3c 369a 3ebc d736 c4bc
00000080: a545 93b9 469f e23b fef8 ed3a 27ca 7cbb
00000090: da03 923c 36e4 533c ac71 ccbc b33b ca39
000000a0: 5eda 4a3c 6e6f 79bc c292 9f3c fbf8 563c
000000b0: 0e2c b33c 3079 ebbc 6671 16bc cbdf b5bc
000000c0: 36fb a33b dceb a53c 00c8 f7bc f0c0 583b
000000d0: f520 08bd 4ce7 13bd 815d 23bb 4816 91bb
000000e0: ac94 a0bc 2bc3 cebb 13d9 a1bc 6d15 6cbc
000000f0: 97d5 2f3a 4838 2e3c 956a b73c ea27 b83c
00000100: 1d51 393c 2c8b db3b 29d3 ec3c 5fee c63c
00000110: b1b6 77bc 1d81 d13c 22f7 7f3c 1410 833c
00000120: 05f7 c83c cd05 f4bc fe74 f7bc 205b 8cbc
00000130: 7293 ea3c 505e 0d3c 0caa 4a3b ed11 c6bc
00000140: 3e6f 553b 8ff3 b33c 1d63 ac3b 58f0 4eba
00000150: 29f6 e43c 0e95 9dbc ee0f 9fba 7312 05bd
00000160: 8506 18bd 740d de3b 37d0 a53b d213 5b3a
00000170: d60d e4bc 0531 8cbc 51d3 8f3b f139 90bc
00000180: 2d9b 803c 3b5b 763c 99e6 143c 27fd 9e3c
00000190: e570 403c baba 5ebb db92 99bc bc87 c639
000001a0: 1b75 8f3c f816 833c 81c1 083c 3d3b b3bc
000001b0: 0512 123d b994 72bc c83c 183d 6057 8ebc
000001c0: 10ea 3cbc 8e58 af3b 762a b6bc 367f ed3c
000001d0: 2f9d 92bc 1a0d 623c 82ae f2bc f8c4 c13c
000001e0: ee13 913c 02a6 7f3c 3436 83b8 1e89 57bc
000001f0: 99a4 6abc 3197 f03b 65bf 04bb db35 453b
00000200: 8776 2bbc de96 b0bc 7616 c3ba 0245 383c
00000210: f36d f43c 6c35 98bc 195e af39 ed40 09bb
00000220: 0dcf 86bc 5c93 aeba 08db 6c3a 979c de3c
00000230: ec33 7bbc df8d abbb 1236 463c 0e7b e1bc
00000240: b101 ba3c b305 043d 2f65 783c f87d 653c
00000250: 0e33 11bc 0b7d e93b 4650 533c 5b40 ddbc
00000260: 3f79 523b de1c f93c b0e7 92bc 3385 b7bb
00000270: e9f8 f43b 8f79 e4bc 7735 063d 538e 87bc
00000280: 7e36 a73c 7eff 943b 5bc7 093c 0905 25bc
00000290: 33a2 b53c 8142 6836 81f0 93bc 3ac5 003c
000002a0: 00a3 cfbc f490 21bd 8742 8b3c a103 003c
000002b0: b80b 93bc 93b1 2a3d 62ee 003d 4a1e 41bc
000002c0: a3e8 4c3c 0fbe 293d 9b24 8f3c 5578 d23c
000002d0: 94d6 633d 57ac 6cbc 4ae8 843c c078 133d
000002e0: 5ea7 f63c 5edc 1abc 718e 373c ff69 8f3c
000002f0: d298 d33c 537f cf3c ae7c 853c 38ac cbb9
00000300: 54b0 d13c ac65 3d3c 3b59 96bc 221e b6bc
00000310: 79eb a53c 3a89 d43b 7c5a a63c 861a bcbc
00000320: 864d a7bc 411e a33c 2931 97bc a657 46bc
00000330: 2c1a 883b 95ca 20bc 2e2f e7bc 9329 e83b
00000340: ea38 9a3c 6d0b afba ea42 e6bc 9608 0b3c
00000350: 75ad ad3c 195f ba3c 2eb9 09bd a31a 91bc
00000360: 144a 9abc 2c52 04bd 6ad1 ca3c 9b7b 7c3c
00000370: 5222 afbc 84bf 10bc 4aea 7a3c ce6f e8bb
00000380: a144 9e3c ff2c 86bc f716 3b3b 325c 043d
00000390: 005b 37bb bd14 c13c 8fa9 af3c 04c4 0abc
000003a0: 04c6 0d3c b7bd 963b 2fd0 1f3c 42f3 acbc
000003b0: bc90 823b c5b9 263a 2671 c43c b61b bcbb
000003c0: 5652 213b 0453 71bc 10ac 183c e8ba 92bc
000003d0: d1ef 123c f599 15bc 474b 9d3b 1593 74bc
000003e0: 2f30 e03b 9c05 ed3a f694 f3bb f78f 223d
000003f0: 6c2c e0bc 20fa 873c 822e 17bc c2b3 ae3c
