final_presentation/final_results/shallow/interval1/7000/2021-10-14_02-13-47/checkpoints/best_model_1_trial_14_validation_acc=0.9614.pt (torch, 611471 bytes, 6 tensors)

conv_time.weight f4 [30, 62, 80, 1]
0	0xbbab5204	-0.005228283
1	0xbc4684a4	-0.012116585
2	0xbc505387	-0.012715227
3	0x3cd1d8eb	0.02561613
4	0x3bcc7921	0.0062400256
5	0xbaf3b005	-0.0018591887
6	0x3ce6df28	0.028182581
7	0xbc93f252	-0.018059883
8	0x3ca2a136	0.019852262
9	0x3c74c64f	0.014939859
10	0x3ca06644	0.019580014
11	0xbca76573	-0.020434117
12	0x3c45b709	0.012067565
13	0x3c29f19f	0.010372548
14	0x3c445cb8	0.0119849965
15	0xbc5bea7b	-0.013422604
16	0xbc2fd791	-0.010732547
17	0x3cb1e56e	0.021715846
18	0x3c987b12	0.018613372
19	0xbccec03a	-0.025238145
20	0xbb8c32a2	-0.004278497
21	0xbc034980	-0.008013129
22	0x397bf647	0.00024028971
23	0xbcbc2afa	-0.022969712
24	0xba07e0f4	-0.0005183362
25	0xbc94b97b	-0.01815485
26	0xbb250010	-0.002517704
27	0xbcbaaa4b	-0.02278628
28	0x3cac8943	0.021061545
29	0xbcbc46ef	-0.022983043
30	0x3c89bbb6	0.01681314
31	0xbc8231f5	-0.015892962
32	0xbace8c51	-0.001575837
33	0x3b67ef08	0.0035390276
34	0xbc8d814a	-0.017273564
35	0x3bcf596b	0.006327798
36	0x3cbc42ab	0.022981009
37	0x3cbe7edf	0.023253856
38	0x3b602c71	0.0034206177
39	0xbc83cd7b	-0.016089192
40	0x3c198025	0.009368931
41	0xbbc9ae9b	-0.006154848
42	0xbaac2cc0	-0.0013135895
43	0x3be553b5	0.006998504
44	0xbb7c92d3	-0.0038539662
45	0xbccd6bc0	-0.025075793
46	0xbc8a2f53	-0.01686827
47	0xbb8ff66d	-0.00439339
48	0xbcdbf15f	-0.026848493
49	0xbcb4e397	-0.02208118
50	0xba83a163	-0.0010042604
51	0x3c20ae40	0.009807169
52	0xbc7dcbdd	-0.015490499
53	0xbc141d94	-0.009040255
54	0xbbdc7497	-0.006727766
55	0xbd293b14	-0.041316107
56	0xbc6f2646	-0.014596527
57	0xbc55e7a9	-0.01305572
58	0xbd1f106c	-0.03883402
59	0xbd1842d2	-0.0371731
60	0xbcd97a3b	-0.026547542
61	0x3c255cae	0.010092897
62	0xbc71688e	-0.0147344
63	0xbd0cc6b0	-0.03436917
64	0xbb9c2eeb	-0.0047663352
65	0xbd363a61	-0.04448927
66	0x3bb49c2e	0.005511782
67	0xbd28e5a7	-0.04123464
68	0xbcc461b1	-0.023972364
69	0xbd2c7cf7	-0.042111363
70	0x3bc4e0da	0.0060082497
71	0xbd0db404	-0.034595504
72	0xbb681193	-0.0035410866
73	0xbc4a6e04	-0.012355331
74	0xbc60561b	-0.013692404
75	0xbc24bcd8	-0.0100547895
76	0xbd04232f	-0.032260116
77	0x3b04920e	0.0020228657
78	0xbd3e351e	-0.046437375
79	0xbbacb753	-0.0052708774
80	0x3cd25279	0.025674092
81	0xbc01a46a	-0.0079127345
82	0x3cdc42a2	0.026887242
83	0x3c4e73dc	0.012600865
84	0x3c68c603	0.014207366
85	0x3b722691	0.0036949257
86	0x3c83da69	0.016095357
87	0x3bda676b	0.0066651604
88	0x3cca4118	0.024689242
89	0x3c84835c	0.016175918
90	0x3b67753d	0.0035317682
91	0x3cceb79f	0.025234042
92	0xbce96107	-0.028488649
93	0xbbbb0c6f	-0.0057082693
94	0xbc007e06	-0.007842546
95	0x3c877211	0.016533883
96	0x3b72d5c0	0.0037053674
97	0xbcc10c1c	-0.023565345
98	0xbcaa1c63	-0.020765489
99	0xbcf62986	-0.030049097
100	0xbc9e2ac4	-0.019307502
101	0xbade176d	-0.0016944237
102	0xbc1c3bba	-0.009535724
103	0xbcb72165	-0.022354791
104	0xbc995e33	-0.018721676
105	0x3cb7c2bc	0.022431724
106	0xbbf6a4ce	-0.0075269705
107	0x3b8a08c5	0.004212471
108	0x3bee5e56	0.0072744293
109	0x3c86b817	0.016445203
110	0x3ca6e0ca	0.02037086
111	0xbcd1a52d	-0.025591457
112	0x3cd34a6a	0.02579232
113	0x3a7bbc32	0.00096029334
114	0xbac281de	-0.0014839729
115	0xbcde2a94	-0.027119912
116	0x3c6835d8	0.014172994
117	0x3a7b8fde	0.0009596328
118	0xba81ff7d	-0.000991806
119	0xbcea585d	-0.028606588
120	0x3b9316a8	0.004488785
121	0x3bbf0a24	0.0058300663
122	0xbb19b91f	-0.0023456288
123	0xbcca8046	-0.024719369
124	0xbd0f79a9	-0.035028134
125	0xbd09547a	-0.03352783
126	0x3c821283	0.015877968
127	0x3b1dd16a	0.002408112
128	0xbccddd37	-0.025129898
129	0xbd1ab698	-0.03777179
130	0xbcbba2ff	-0.022904871
131	0xbd00cf0a	-0.031447448
132	0xbcd4180d	-0.025890375
133	0xbc0a5f5d	-0.008445588
134	0xbc84946d	-0.016184056
135	0xbc192ebc	-0.009349521
136	0x3c07c2e2	0.00828621
137	0xbc843555	-0.016138712
138	0xbcf87a97	-0.030331893
139	0x3b68de48	0.003553288
140	0xbca1c42c	-0.019746862
141	0xbcbe5a33	-0.02323637
142	0xbc805bce	-0.015668776
143	0xbd0624d1	-0.032749955
144	0x3b537172	0.0032263664
145	0xbd24ede4	-0.040265933
146	0xbd25054b	-0.04028825
147	0xbc083688	-0.0083137825
148	0xbc8b79f2	-0.017025921
149	0xba34c0eb	-0.0006895202
150	0xbca49a7f	-0.0200932
151	0xbce7231e	-0.028214987
152	0x3c6535e8	0.013989903
153	0xbd2849f1	-0.04108614
154	0xb9f197bb	-0.0004608015
155	0xbb7716d7	-0.0037702823
156	0xbd10ffae	-0.035400085
157	0xbcb3726b	-0.021905145
158	0xbd1f5077	-0.038895097
159	0xbcea3ae6	-0.028592538
160	0x3d21f545	0.039540548
161	0x39c22e5a	0.00037037098
162	0xbbe4a725	-0.006977933
163	0xbc8acb0e	-0.016942527
164	0xbc2c3db6	-0.01051276
165	0x3c9419b9	0.018078672
166	0x3d1cb6a3	0.038260113
167	0x3cfa41c4	0.030548938
168	0x3c835390	0.016031057
169	0x3b5238ca	0.0032077306
170	0x3cd8e709	0.026477354
171	0x3c49d7a5	0.01231948
172	0xba18c22b	-0.0005827273
173	0x3aa83454	0.0012832978
174	0xbac33dda	-0.0014895753
175	0x3c9c5f6f	0.019088475
176	0xbcd760aa	-0.02629121
177	0x3cc2645c	0.023729496
178	0x3c25f14c	0.01012833
179	0x3b7bb70b	0.0038408663
180	0xbc826015	-0.015914956
181	0x3c966e40	0.018363118
182	0x3cc97287	0.024590744
183	0xbcb8e20c	-0.022568725
184	0xbc9e15ae	-0.019297447
185	0xbcb61469	-0.02222653
186	0xbcc4d7d1	-0.02402869
187	0xb9fa89a2	-0.0004778626
188	0x3cb1fe13	0.021727597
189	0x3cc3a51a	0.023882437
190	0xbc6a959c	-0.014317896
191	0x3ad7bf40	0.0016460195
192	0xbc17db16	-0.009268543
193	0xbca47b7a	-0.02007841
194	0xbbfd045e	-0.007721468
195	0x3cb82783	0.022479778
196	0xbc4b96d3	-0.012426096
197	0x3ca9576f	0.020671574
198	0x3b844edf	0.0040377225
199	0xbd033451	-0.032032315
200	0xbc7cb71e	-0.015424518
201	0x3c49bffb	0.012313838
202	0xbc44657f	-0.011987089
203	0xbcd5ea24	-0.026112624
204	0xbd2a7289	-0.041613135
205	0xbd0476fc	-0.032340035
206	0xbc95bc7a	-0.01827835
207	0xbca7dd68	-0.020491317
208	0xbce29dd8	-0.027663156
209	0xbd00a1d6	-0.03140434
210	0xbd049d87	-0.032376792
211	0x3be99ec4	0.007129522
212	0xbcb2f278	-0.021844134
213	0xbc71810d	-0.014740241
214	0x3b3f505d	0.0029192187
215	0xbd248d1d	-0.04017364
216	0xbd2d5e11	-0.042326037
217	0xbd0a4003	-0.033752453
218	0xbcab7f7b	-0.02093481
219	0xbc5fbb65	-0.013655518
220	0xbd047c9f	-0.03234541
221	0x3bf5a1a3	0.0074960752
222	0x3c90efad	0.017692411
223	0xbc4912f1	-0.012272582
224	0xbbd19d57	-0.00639693
225	0xbc1ca081	-0.0095597515
226	0xbcb66e04	-0.022269256
227	0xbcedc7ce	-0.029025938
228	0xbcd0e10c	-0.025497936
229	0x3ae481d1	0.0017433708
230	0xbc800957	-0.015629454
231	0xbd0e630c	-0.034762427
232	0xbb048d93	-0.0020225986
233	0x3c0ee0f6	0.008720627
234	0x3c2b6adf	0.010462492
235	0xbcd28983	-0.025700336
236	0xbc558f2a	-0.013034621
237	0xbc85259f	-0.01625329
238	0xbc35c949	-0.011095353
239	0xbc634353	-0.013871032
240	0x3c4ab43d	0.012372074
241	0x3c66db60	0.014090389
242	0x3bc7853f	0.006088882
243	0x3bd7d8fc	0.006587146
244	0xbc0687e7	-0.008211113
245	0xbb015567	-0.0019734742
246	0x3bc6e803	0.0060701384
247	0x3c70e60a	0.014703283
248	0xbc039bb7	-0.008032731
249	0xbc48164a	-0.012212345
250	0xbc49172e	-0.012273593
251	0xbc225b60	-0.009909481
252	0x3c527368	0.012844898
253	0xbcb2e002	-0.02183533
254	0x372e8837	1.0402923e-05
255	0x3c90b04b	0.017662188

bnorm.weight f4 [30]
0	0x3fbcd4aa	1.47524
1	0x3fc3911d	1.527866
2	0x3f8a6ef2	1.0815108
3	0x3fbcc4ed	1.4747597
4	0x3fb4ce08	1.4125376
5	0x3fa5c617	1.2951077
6	0x3fbd4b48	1.4788599
7	0x3fb78d72	1.4340041
8	0x3fb1e50d	1.3898026
9	0x3fb9719b	1.4487795
10	0x3fb9f28e	1.4527147
11	0x3fae824e	1.3633516
12	0x3faddf56	1.3583782
13	0x3fb63ca8	1.4237261
14	0x3fc2358d	1.5172592
15	0x3fbb4550	1.4630527
16	0x3fa161d4	1.260798
17	0x3fc0935e	1.5044973
18	0x3fb601d7	1.4219311
19	0x3fb4ed84	1.4134984
20	0x3fa97e0a	1.3241589
21	0x3fb71b17	1.4305142
22	0x3faf7c8d	1.3709885
23	0x3fb72969	1.4309512
24	0x3fb7335b	1.4312547
25	0x3fbc6577	1.4718465
26	0x3fc779dc	1.5584064
27	0x3fbe44d5	1.4864756
28	0x3fb9b765	1.4509093
29	0x3fba43f2	1.4551985

bnorm.bias f4 [30]
0	0xbae3716f	-0.0017352531
1	0x3f02f5ce	0.5115632
2	0xbf62c8c2	-0.8858758
3	0xbbd5fc1b	-0.0065302975
4	0x3efecb41	0.49764445
5	0x3f80f17d	1.0073696
6	0xbee9f33a	-0.4569338
7	0xbea2825f	-0.3174009
8	0x3d113499	0.03545055
9	0xbd37ae83	-0.04484416
10	0xbea72b6e	-0.32650322
11	0xbeadea7c	-0.3396796
12	0xbd96a4c4	-0.07355645
13	0xbe74de54	-0.23912936
14	0xbeabf93d	-0.3358859
15	0xbee29c9f	-0.44260117
16	0x3f794e91	0.9738551
17	0xbdab89cb	-0.08375891
18	0xbcbdff32	-0.023192976
19	0xbeae1298	-0.3399856
20	0x3f27ca84	0.6554339
21	0xbea5963b	-0.3234118
22	0x3e9be32d	0.3044676
23	0x3eec8801	0.46197513
24	0xbf0710b9	-0.5275989
25	0xbede0c31	-0.43368676
26	0xbe4a7268	-0.19770205
27	0x3d8cf121	0.06881929
28	0x3e622449	0.22084154
29	0x3d812b21	0.06307054

bnorm.running_mean f4 [30]
0	0xbd7ce47b	-0.061741333
1	0x3d1b3182	0.03788901
2	0x3c53d3d9	0.012928926
3	0x3c6f8fdd	0.014621702
4	0xbce51139	-0.027962314
5	0xbbcb9b8e	-0.006213612
6	0xbd24758f	-0.040151175
7	0x3dac9a11	0.08427823
8	0xbafc47d8	-0.0019247485
9	0x3d30cc64	0.043163672
10	0x3c8d51fb	0.017251005
11	0xbbcc389b	-0.006232334
12	0xbd0b345c	-0.03398548
13	0x3ca381cc	0.019959353
14	0x3d19ceec	0.03755085
15	0xbc21a5ef	-0.009866222
16	0xba87df5c	-0.0010366249
17	0xbc69a60c	-0.01426078
18	0xbc353ca0	-0.011061817
19	0x3d09dfbd	0.03366064
20	0xbaa5cb5f	-0.001264911
21	0x3d175ace	0.036951832
22	0xbd23c861	-0.039986018
23	0x3d2e5d50	0.04256946
24	0xbd812eb4	-0.06307736
25	0x3c96ba85	0.018399486
26	0xbc72d831	-0.014822052
27	0x3d94ca86	0.07265191
28	0xbba58070	-0.0050507113
29	0xbc2793e3	-0.01022813

bnorm.running_var f4 [30]
0	0x42e9fa53	116.988914
1	0x43a45270	328.64404
2	0x43079af0	135.60522
3	0x43234875	163.28304
4	0x43603824	224.2193
5	0x439e65f1	316.79642
6	0x43237b35	163.48128
7	0x42c68e87	99.27837
8	0x43190e5d	153.0561
9	0x430207c6	130.03036
10	0x432dc219	173.7582
11	0x42d6ec47	107.46148
12	0x428f416b	71.62777
13	0x42c9d989	100.92487
14	0x431d00e6	157.00351
15	0x435ef4cc	222.95624
16	0x4384c8e1	265.56937
17	0x432e3a57	174.22789
18	0x42f119b9	120.55024
19	0x4338d13e	184.81735
20	0x433b7ee3	187.49565
21	0x430843c1	136.26466
22	0x42a7c8e9	83.8924
23	0x435268c6	210.40927
24	0x43023703	130.21489
25	0x4304acda	132.6752
26	0x435c39e1	220.22609
27	0x431dbaf8	157.73035
28	0x43830532	262.0406
29	0x4300ac6b	128.67351

conv_classifier.weight f4 [1, 30, 109, 1]
0	0x3cd2f81f	0.025753079
1	0x3d91577c	0.070967644
2	0xbe0a765c	-0.13521713
3	0x3d02fc04	0.031978622
4	0x3b8d253a	0.0043074163
5	0xbde66f59	-0.11251707
6	0xbd464e40	-0.04841447
7	0x3c24238b	0.01001824
8	0xbdb5aa16	-0.08870332
9	0xbd14a302	-0.03628827
10	0xbdb2066d	-0.08692632
11	0xbe1f9fed	-0.1558835
12	0x3d2b863c	0.041876063
13	0xbcc63b41	-0.024198176
14	0x3dd20b8d	0.102561094
15	0x3e2a8046	0.16650495
16	0x3e3161b1	0.17322423
17	0xbd22bc93	-0.03973062
18	0x3d3ed489	0.046589408
19	0xbd1c2655	-0.038122494
20	0x3dcd87f0	0.10035694
21	0x3da5221f	0.08063149
22	0xbd3eae95	-0.046553213
23	0x3d19d717	0.03755864
24	0x3d725762	0.059165366
25	0x3da96497	0.08271139
26	0xbe17961b	-0.14803354
27	0x3d17931e	0.037005536
28	0xbcb40504	-0.021975048
29	0xbda6cd03	-0.08144572
30	0xbc3a31fb	-0.011364455
31	0xbd610093	-0.05493219
32	0x3d66d6fd	0.056357373
33	0x3b898da4	0.004197793
34	0x3dc3c1e0	0.09558463
35	0x3c981f91	0.01856974
36	0x3d8f1b60	0.06987643
37	0x3c0fcc3d	0.008776722
38	0xbd8eeee0	-0.069791555
39	0x3d922cde	0.07137464
40	0x3d60e8bc	0.054909453
41	0xbe43ac06	-0.1910859
42	0x3e74460b	0.23854844
43	0xbe1b9769	-0.15194477
44	0x3be0fac8	0.006865833
45	0xbdb5afdf	-0.088714354
46	0x3d354659	0.044256542
47	0x3cd7bce0	0.02633518
48	0x3e011a4a	0.12607685
49	0xbd99d5ba	-0.07511468
50	0x3dfaecac	0.12252173
51	0xbd6d4600	-0.057928085
52	0x3d0afbfe	0.033931725
53	0x3cac07c3	0.020999795
54	0xbdc818d0	-0.097703576
55	0xbdd245a8	-0.10267192
56	0x3c4f13a8	0.012638964
57	0xbccd27b2	-0.025043342
58	0xbe84cebe	-0.25938982
59	0x3d251a1c	0.040308103
60	0xbbd4165e	-0.006472393
61	0x3e2fe9b1	0.1717899
62	0x3ba50232	0.005035662
63	0x3c05335f	0.008129924
64	0xbb445fab	-0.002996425
65	0xbc01ec92	-0.007929938
66	0xbcff5d3b	-0.031172385
67	0xbcd87e9e	-0.026427563
68	0xbd4141cd	-0.047181893
69	0xbdde054b	-0.10840853
70	0xbe056460	-0.13026571
71	0xbdf2889b	-0.11842462
72	0xbc68d316	-0.014210483
73	0x3b8d7b38	0.0043176673
74	0x3ccd5d68	0.025068954
75	0x3d2aff34	0.041747287
76	0x3d59c00b	0.053161662
77	0x3e018c2a	0.12651125
78	0x3d266110	0.04061991
79	0x3d366110	0.04452616
80	0xbc3168da	-0.010828221
81	0x3d2e9ca9	0.04262987
82	0x3d3911c7	0.04518297
83	0xbe7aa499	-0.24476852
84	0xbd4a8dcd	-0.049451638
85	0xbd729dc5	-0.059232492
86	0x3da068f5	0.07832519
87	0x3d2ee0b6	0.04269477
88	0xbc6cf4d2	-0.014462667
89	0x3d435a57	0.047693577
90	0x3da26a6b	0.07930454
91	0xbdc1665f	-0.09443354
92	0xbd58496e	-0.052804403
93	0x3dc6a299	0.09698982
94	0xbcf1c0da	-0.029510904
95	0xbc57a974	-0.013162959
96	0xbd8e93b0	-0.06961763
97	0x3b0729f3	0.002062437
98	0xbcd0cb18	-0.025487468
99	0xbe0ba392	-0.13636616
100	0xbdd0b9db	-0.10191699
101	0x3c5465f3	0.01296376
102	0x3dc629f1	0.096759684
103	0x3d5ddeee	0.05416768
104	0xbd7a7e60	-0.061155677
105	0xbd70f33d	-0.05882572
106	0x3d1c7d8f	0.03820568
107	0xbcfabbf8	-0.030607209
108	0xbd3e0236	-0.046388827
109	0x3d22a81b	0.0397111
110	0xbaebdbdb	-0.0017994599
111	0xbc9b54d4	-0.018961348
112	0x3e0a69c8	0.13516915
113	0xbda58cad	-0.080834724
114	0xbd98591c	-0.07438871
115	0xbd3a5fce	-0.045501523
116	0xbdd80992	-0.105487004
117	0xbe3dac32	-0.18522719
118	0xbe437408	-0.19087231
119	0xbc702bbb	-0.014658864
120	0xbdbcc123	-0.092165254
121	0xbe0fa913	-0.1402934
122	0x3d58201c	0.052764997
123	0xbca0a219	-0.019608544
124	0xbd4056d3	-0.046957802
125	0xbd497a55	-0.04918893
126	0x3d159323	0.036517274
127	0xbd140625	-0.036138672
128	0x3d263dcc	0.040586278
129	0x3b45f3fc	0.003020524
130	0x3cefd155	0.029274622
131	0xbd7f27b0	-0.06229371
132	0xbd775e6e	-0.06039279
133	0x3c7a01b5	0.015259196
134	0x3dcb0616	0.0991327
135	0xbd49c1c3	-0.04925705
136	0x3dc0f074	0.09420863
137	0x3d253262	0.040331252
138	0xbc2a05e8	-0.010377385
139	0xbe0d8319	-0.13819541
140	0xbe1a84c9	-0.15089716
141	0xbd8542b4	-0.06506863
142	0x3e293715	0.16524918
143	0xbd75de04	-0.060026184
144	0xbd404d46	-0.046948694
145	0x3d894a2c	0.067036
146	0x3cf24a1f	0.02957636
147	0xbe1e3681	-0.15450479
148	0xbd76205d	-0.060089458
149	0x3d7ca56c	0.061681196
150	0x3e214f0d	0.15752812
151	0x3cfa3770	0.030544013
152	0xbc469ce6	-0.012122368
153	0xba9d1487	-0.0011984267
154	0xbe045d51	-0.12926222
155	0xbd8bef62	-0.06832768
156	0x3e4fbfb6	0.20287976
157	0x3dac1336	0.08402102
158	0x3e64d463	0.22346644
159	0x3d672bd4	0.056438282
160	0x3c9f28a3	0.019428557
161	0xbcb91bc6	-0.022596251
162	0x3de7fb8f	0.11327278
163	0xbd169e3e	-0.036772005
164	0x3d605cc7	0.05477598
165	0x3d7bdab2	0.06148786
166	0xbce97a87	-0.028500808
167	0x3c210061	0.0098267505
168	0x3d39b663	0.045339953
169	0xbd9be8f1	-0.076127894
170	0x3d66b257	0.056322422
171	0x3da9c87e	0.08290194
172	0x3d7243d8	0.059146732
173	0xbaddd63b	-0.0016924808
174	0x3d59d7ad	0.0531842
175	0x3d793680	0.06084299
176	0xbdd4a7df	-0.10383581
177	0xbd18c9c7	-0.037301805
178	0x3cdec0d9	0.027191566
179	0x3dad18ca	0.08451994
180	0x3c7c1342	0.015385451
181	0x3e18e2ab	0.14930217
182	0x3dbb9af8	0.09160417
183	0x3cd1e6e2	0.025622789
184	0x3e01d340	0.12678242
185	0x3d701a61	0.058618907
186	0xbccae28e	-0.024766233
187	0x3da438f7	0.08018678
188	0x3bdc0eeb	0.0067156455
189	0x3d4cc5b2	0.049993224
190	0x3d653430	0.055957973
191	0x3cb8233f	0.022477744
192	0x3db3d250	0.08780348
193	0x3dcdb164	0.100436
194	0xbc8ee862	-0.017444793
195	0x3dc5e816	0.096634075
196	0x3dba5700	0.09098625
197	0xbc9e6050	-0.019333035
198	0xbcc0f71e	-0.023555335
199	0x3b4b7a1f	0.0031048132
200	0x3d182cd3	0.037152123
201	0x3dd7ec43	0.1054311
202	0x3d585ccb	0.05282287
203	0x3df3a98f	0.11897575
204	0x3d1c1800	0.038108826
205	0x3de0e3cb	0.10980948
206	0x3dda7e39	0.10668606
207	0xbd5d3564	-0.054005995
208	0x3e3bc857	0.18338142
209	0x3ddd58a7	0.10807925
210	0x3db9a80c	0.090652555
211	0x3da3c77c	0.07997033
212	0xbe21704c	-0.15765494
213	0x3d61e797	0.055152502
214	0xbdc85119	-0.09781093
215	0xbca189bb	-0.019718995
216	0x3cd9bc3a	0.026579011
217	0xbc269a43	-0.010168615
218	0xbe1e5c93	-0.15465002
219	0xbde905ff	-0.11378097
220	0xbdaec8f9	-0.08534426
221	0xbe0967e1	-0.13418533
222	0xbd6b92b1	-0.057512943
223	0x3e169b7f	0.14707755
224	0x3eb20b4c	0.34774244
225	0x3e7675ac	0.24068326
226	0x3e7ec33d	0.24879165
227	0x3e58c90a	0.2117044
228	0x3de76fb8	0.113006055
229	0x3d3fc692	0.04682023
230	0x3cfec390	0.03109911
231	0x3d9d1a36	0.07671015
232	0x3e098ff5	0.13433821
233	0xbd0720fc	-0.03299044
234	0x3d7a1cc9	0.061062608
235	0xbd03ac86	-0.032146953
236	0xbda33a72	-0.07970132
237	0x3d70e173	0.058808755
238	0xbdb60369	-0.08887369
239	0x3d1d5cf0	0.03841871
240	0x3b37a8d4	0.0028024213
241	0xbdca9add	-0.09892819
242	0x3d67a1c2	0.05655075
243	0x3bebd96a	0.0071975486
244	0x3d738b46	0.059458993
245	0x3d2a4cb5	0.04157706
246	0xbd83c7e5	-0.06434611
247	0x3dcc095c	0.09962723
248	0xbd131a9b	-0.035914045
249	0x3d8e678c	0.06953344
250	0xbd059ff5	-0.03262325
251	0x3d42123d	0.047380675
252	0xbd3568c5	-0.04428937
253	0x3d223428	0.03960052
254	0x3be87dbb	0.0070950664
255	0x3c4fd180	0.012684226
