final_presentation/final_results/shallow/interval1/7000/2021-10-14_02-13-47/checkpoints/best_model_1_trial_10_validation_acc=0.9723.pt (torch, 458319 bytes, 6 tensors)

conv_time.weight f4 [20, 62, 90, 1]
00000000: c3c9 27bc 72ac debc 8a66 103c e5ae 19bd
00000010: 9964 143c 7b4c 66bc 55f6 31bc b920 dcba
00000020: 5c9f 7139 d270 09bb fe51 96ba dd45 ca3b
00000030: 36ca 8bb9 7748 88bc 9366 4e3a c1d2 eb3b
00000040: 41d8 a3bc d730 96bc 3491 a9ba 4c49 cabc
00000050: b355 fabc 2f3b bcb8 6bcd fbbc fdd0 c93b
00000060: 962a 203b db55 82bc 8be3 c5bc ba83 34bc
00000070: 391d afbb f43d 0dbd 9a44 7dbc 8a67 3bbb
00000080: f15a 11bd 56e4 593c d4db 98bc 2ce9 b4bc
00000090: 1383 62bc a1c0 e5bc b5c1 c5bc 21dc 933b
000000a0: bb3a d0bc 74bb d1bc d106 8fbc 7d24 be39
000000b0: b512 833c 35e7 b4bc 44bf ddbb fd93 9dbc
000000c0: 0d30 253b 5ebf fc3b 9937 8cbc 0dad 5c3b
000000d0: 7a6d 083c 0bde df3b fefc 933c d408 bebc
000000e0: 695b 0bbd 8a31 5b3c 1d3d 91bc 9569 7dbc
000000f0: 8890 1c3c e70a bdbc 4644 b3bc 33df 21bd
00000100: 9e6b 7fbc 4867 6239 0149 03bd 3a64 83bb
00000110: 355e 00bd 379a d6bb a84e adbc 134e eabc
00000120: 94f1 96bb a10b f03b acfa 103c cfa4 81bb
00000130: cde8 47bc 4678 cabc b1cb 9f3c 2ad3 623b
00000140: 5184 8fbc 6457 c0bc 8d3f 88bc 19a8 973c
00000150: 30cc 3f3c 0b95 ccba 9aa1 a33c 6842 09bc
00000160: bb68 3aba 404f 6d3c 5e5f 8bba 18e0 c8bc
00000170: 075d 85bc 85c9 06bd ebd0 9b3a 6032 35bc
00000180: bf61 763b faa0 dfbc 477f 623c f0cf 69bc
00000190: b3d6 47bc 4ec0 25bd a457 403b c508 533c
000001a0: 95a0 22bd d0cc d5bc 96d9 0c3c 9e40 17bb
000001b0: cf2a b2bc 0172 623b 64c5 38bc 9a66 06bc
000001c0: cde3 aabc 7292 29bc c88c 16bd cd5b 18bd
000001d0: f4b7 05bc 3a6a d83b 86ab ddbc 98c0 223a
000001e0: c508 32bb 9ef4 06bd b6a4 c239 4f19 06bd
000001f0: 312d 17bd 326a 01bd 9cb8 0dbc 5e3a 58bc
00000200: d484 16bd 01b1 a9bb cbab e5bc 9b5b 0fbd
00000210: 65ef 1d3c f99a e2bc 56de cebc 3530 11bd
00000220: f097 9738 3b17 40bc 899d 4a3b 959d b53b
00000230: d2ab bdbb 346f 6b3c db8c 6ebb 4576 24bc
00000240: b2ee ddbc 3ca8 25bc 11c5 f73a 8174 1bbd
00000250: d16a 5cbc 0221 dcbc 00d4 04bd fb26 52bb
00000260: 279a 263c ad73 5dbc a13e fabc a6c5 2abc
00000270: f4d7 12bd 48e3 1cbd da68 613a 3274 f53b
00000280: c4ee 9ebc 5c8e 16bd 4e52 523b 266c 7abb
00000290: 237b e2bc 70b8 b7ba 86c7 593b 26bf 1b3c
000002a0: 30a1 a3bc bde4 833b cab0 b63b 1c70 95bb
000002b0: ab25 323c 4c9d bdbc 7b6b 12bd 3ad9 f8bc
000002c0: 5b2a 70bb 43e2 b0bc 0376 d2bc ef33 b43b
000002d0: 8f1b 3ebc fbdc f53c e8a0 98bc 83cb 9a3c
000002e0: 43ca 85bb 3955 65bb 3355 ea3c 1ad4 db3c
000002f0: 6a73 8d3c b0eb bc3c 77ad d5bb 74ef 0e3b
00000300: c427 863c 158b 1c3b d100 f73c 1ae6 983b
00000310: deae a6bc 80e7 be3b c5db 6fba 51c9 fb39
00000320: bb02 67bc d506 bd3c 1de3 abbc 53a8 ea3b
00000330: c78c e13c 97d4 8c3c cd3f 5b3c f1b9 483c
00000340: 94a2 b9bc 9966 98bb 5338 88bc c515 f53b
00000350: 8ee0 80ba 30c9 7fbc db9a 443c 116c 053d
00000360: 2fc3 18bc 81de dcbb b93f 943c d35d d63c
00000370: b44e 073d 82ba 993b 2219 c1bc eee8 8aba
00000380: 5a0b a3bb da3e c5bc a7c6 983c 7389 083b
00000390: c39a 533c 480f 95bc 43df ff3c 0bd4 013d
000003a0: 177c 9b3c 59d4 813c 10fc 22ba 4aec 63bc
000003b0: 8216 9cbc fca8 99bc 491c c2bc 4419 ce3b
000003c0: ab68 f93b e756 7a3c 982e ad3c 0f3b 3a3c
000003d0: d25a 76bc d9e4 b13c 1abe 363c c70e ab3b
000003e0: 574e 65bc 8bb5 453c 565d 9d3b b32c dbbc
000003f0: 147b 9ebc 9426 00bc e450 a2bc 55c5 b4bc
-0.010240975 -0.027181838 0.00881351 -0.037520308 0.0090571875 -0.01405632 -0.010861953 -0.001679442
0.00023042917 -0.0020971787 -0.0011468527 0.006172879 -0.00026662805 -0.016636116 0.0007873561 0.0071967547
-0.020000579 -0.018333836 -0.0012936951 -0.024693154 -0.030558443 -8.9755624e-05 -0.0307376 0.0061589465
0.0024439446 -0.01591008 -0.024156353 -0.011017734 -0.00534406 -0.03448291 -0.01545825 -0.002859565
-0.03548712 0.013299068 -0.01865951 -0.022083841 -0.013825196 -0.028045954 -0.024140218 0.0045123254
-0.02541863 -0.02560208 -0.017459305 0.0003626681 0.016000131 -0.022082904 -0.0067671854 -0.019235605
0.0025205642 0.0077132424 -0.017116355 0.0033672482 0.0083268825 0.0068318895 0.018064972 -0.023197569
-0.034022722 0.01337851 -0.017729336 -0.015467067 0.009555943 -0.023076488 -0.021883141 -0.0395195
-0.015589623 0.00021591515 -0.032052044 -0.0040097507 -0.031339843 -0.0065491456 -0.02115567 -0.028601682
-0.004606435 0.007325605 0.008848827 -0.0039564143 -0.0122015 -0.024715554 0.019506307 0.0034610727
-0.017519148 -0.023479171 -0.016631866 0.018512772 0.011706397 -0.0015608383 0.019974519 -0.008377649
-0.0007110943 0.014484227 -0.001063328 -0.024520919 -0.01627971 -0.032907028 0.0011887824 -0.011059374
0.0037594882 -0.02729844 0.013824291 -0.014270768 -0.012197184 -0.0404666 0.0029349113 0.012880509
-0.039703924 -0.026098639 0.008596798 -0.0023079286 -0.021748928 0.0034552815 -0.01127753 -0.008203173
-0.020860577 -0.010349857 -0.036755353 -0.037196923 -0.008161534 0.00660446 -0.027059328 0.0006208508
-0.0027165872 -0.03294813 0.00037125283 -0.03273898 -0.036908332 -0.031595416 -0.008649971 -0.01319751
-0.03674777 -0.005178571 -0.028036019 -0.03499947 0.009639596 -0.027661787 -0.025252502 -0.035446364
7.228542e-05 -0.011724289 0.0030916652 0.005542467 -0.005788305 0.014369775 -0.0036399874 -0.010037963
-0.027091358 -0.010110911 0.0018903335 -0.037952904 -0.013453201 -0.026871208 -0.03242874 -0.0032066691
0.010168589 -0.013516349 -0.030547442 -0.0104231 -0.03585048 -0.03830269 0.0008598693 0.007490658
-0.019400962 -0.03675686 0.0032092514 -0.0038211434 -0.027646607 -0.0014016759 0.0033230498 0.009506023
-0.019974321 0.0040250705 0.005575274 -0.0045604836 0.010873239 -0.023146294 -0.035747033 -0.03037702
-0.003664634 -0.021592265 -0.025691038 0.005499355 -0.01160325 0.030012598 -0.018631414 0.01889587
-0.0040829494 -0.0034993424 0.02860508 0.026834536 0.017266948 0.023061603 -0.0065209228 0.0021810206
0.016376384 0.002388661 0.030151756 0.004666102 -0.020347055 0.005825937 -0.00091498747 0.00048024443
-0.014099772 0.023074547 -0.02098232 0.007161179 0.027532948 0.017191214 0.0133819105 0.012251363
-0.022660531 -0.0046509025 -0.01662842 0.007479402 -0.0009832548 -0.015611932 0.011999811 0.032573763
-0.009323879 -0.0067403917 0.018096792 0.026167786 0.03303404 0.004691423 -0.023571555 -0.0010597983
-0.0049757184 -0.024077822 0.018649412 0.002083388 0.012915316 -0.018195763 0.03123439 0.03169636
0.01898007 0.015848326 -0.000621737 -0.013911316 -0.019053701 -0.018757336 -0.023695128 0.006289633
0.0076113543 0.015279508 0.021140382 0.01136662 -0.015036302 0.021715568 0.011153722 0.0052202675
-0.013995728 0.012067209 0.0048023863 -0.026754713 -0.019345798 -0.007821698 -0.019813962 -0.022066751

bnorm.weight f4 [20]
00000000: a0f4 a53f bf94 ab3f cf3d b43f 503c b03f
00000010: 2b10 b33f 3fd1 b93f e4d4 aa3f 4702 b33f
00000020: 2a52 a83f f9e1 ac3f 0ccc a73f df99 b03f
00000030: c78a b13f 0649 ab3f ed08 b13f dd0f ac3f
00000040: 7165 aa3f b146 ab3f c6ff ae3f bdee 933f
1.2965279 1.3404769 1.4081362 1.3768406 1.3989309 1.4516982 1.3346219 1.398507
1.3150074 1.3506461 1.3109145 1.3796958 1.3870476 1.338166 1.3830849 1.3442341
1.3312207 1.3380948 1.3671806 1.1557232

bnorm.bias f4 [20]
00000000: 3756 23bf 03ec 7fbd c352 82bd 5cf2 87be
00000010: e5ab 10be 0443 ecbe 326e 0a3f f557 78be
00000020: 69fe 18bd a554 39be fd0e 88be 15e5 8f3d
00000030: cd1b e53d 3689 a63d da33 d3be 4ad4 dcbd
00000040: 21da e1ba 9702 a8be 5a73 b6be 4782 483f
-0.6380343 -0.062480938 -0.06363442 -0.26552093 -0.14128073 -0.4614488 0.54074395 -0.24252303
-0.037352 -0.18098696 -0.26573935 0.07026116 0.11186943 0.0813164 -0.41250497 -0.107826784
-0.0017231145 -0.32814476 -0.3563488 0.7832379

bnorm.running_mean f4 [20]
00000000: c26f 563c 3097 90bc 695d 92bb 4a8f 62ba
00000010: 7219 08bc ce71 6a3c 226e 9cbc f9fe 123c
00000020: 892f 283c 1e06 83bc e54e 153b a525 183c
00000030: f435 03bc 355b 313a d916 d1bb 06b7 82bc
00000040: 30ae ca3c a0c8 bbbb fe41 4a3c c7a9 0fbc
0.013088169 -0.017650217 -0.0044667018 -0.00086425676 -0.008306848 0.01430936 -0.019095484 0.008971923
0.0102652395 -0.015994128 0.002278262 0.009286319 -0.008008469 0.0006765605 -0.0063808975 -0.015956413
0.024741262 -0.0057307035 0.012344835 -0.008768505

bnorm.running_var f4 [20]
00000000: 3e07 c542 2c1a 4c42 d020 2242 1993 6642
00000010: a4cf 6e42 7550 e742 575f 9842 8926 8142
00000020: ac93 3a42 063e 4a42 bf70 2342 c077 2042
00000030: eeca 5d42 8de7 1e42 7960 6e42 7bbc 8442
00000040: e194 3942 66af 1e42 c17a 7e42 ecf5 4a42
98.514145 51.02556 40.532043 57.64365 59.702774 115.65714 76.18621 64.575264
46.64421 50.56057 40.860104 40.116943 55.448174 39.726124 59.59421 66.368126
46.39539 39.671288 63.619877 50.740158

conv_classifier.weight f4 [1, 20, 109, 1]
00000000: 0608 1cbe 2dc8 e5bd ee5f 15be 51c3 b2bc
00000010: 7547 5bbd 86a5 973d 3f74 433d 65a4 363d
00000020: 82c8 41bc 8a5e 043c 6627 b53d 2d5f 07bd
00000030: 17c9 9f3c 40c0 b73d aa6f d63d c9b3 493d
00000040: e028 fd3d b658 033e 7282 f63c 636d 7b3d
00000050: a30e 4b3d b3b9 d03d ec47 ce3d c5e2 6d3d
00000060: 5837 6d3d 70c2 74bc 21c2 48bc 736f a4ba
00000070: 34d6 393c adbe e2bc 5c37 9f3d 1022 543e
00000080: 1466 913d 209f 64bd 181c a63c 2862 09bd
00000090: 21bf 89bd 17cb a3bd 5a6f 0e3d 5556 14bd
000000a0: f0d6 46bb c254 8b3d 8007 55bd 3c89 0ebc
000000b0: 7c91 a7bc f564 243e 291b 663c e7fa 17be
000000c0: e632 0cbd f356 bc3d 1f37 8bbd d91e 1c3e
000000d0: 27cd 3b3d bf03 5c3b 2618 cf39 7769 06bd
000000e0: c45b 883d c6bf 8dbd 3cb1 0cbe 76d5 d8bc
000000f0: 5e36 8e3d 86e9 37bd f82f 25bd d2f7 79bd
00000100: 2ce5 813d 024a 05be fb91 46bd b5f5 19be
00000110: d003 4c3d 52d3 43bd 06b5 b3bd f3b0 68bc
00000120: 5488 2d3d aa33 a0bd 07b7 95bc ccb9 42bc
00000130: df0c b7bc d241 f4bb 1078 8abd 17a2 c9bd
00000140: 74b5 14bc 35f9 e53c ee9e fabd 7660 a3bc
00000150: 141a 163d dd43 47be 517c 3b3d 59bb cabc
00000160: 0472 913d ecff 86bb 9b8c 49bd 0fdc 80bc
00000170: 9131 1b3b a56a 053e e1cd 92bd c49a 9f3c
00000180: 3aec 0fbe 5100 80bd 1b6c fabd f737 01be
00000190: 1ead 273d 358b d43c 0a9c cebd 000e eebd
000001a0: 907b 1bbe 233d 94bd 2897 2abd 8c8e 5f3d
000001b0: 19bb 0cbe d861 043e 9a4c 0bbd 8a95 023d
000001c0: 2044 98bd a646 ba3a be26 0f3d c9f4 913c
000001d0: b760 af3c 413e ffbc bc73 b63b 2eb8 4dbe
000001e0: 090f 373a 3e6f 5b3b 90f1 3cbd 2821 a03c
000001f0: e7f3 603c 6dc4 0b3d 914c 083e f6bd 653d
00000200: 516e 563e d588 163d ca5b e13c 5fbb 9e3d
00000210: a572 1eb9 b643 023d 3bf1 193b 43a4 b43d
00000220: aa0a 2abe 0f81 efbc 599b 46bd 8183 2b3e
00000230: 0f49 86bd c3ba 0dbe 596e 51bd 6a88 c23d
00000240: 2a10 693d 42ee c73c 2de9 573d 9d1e 9a3d
00000250: 68da 5dbd d3d0 5d3c a628 723e bb6a bd3b
00000260: a4a5 043e ecd7 b43d 72d8 683c 8caa 62be
00000270: 323c 103c c1fa 9abc a8d5 0d3e 3e45 313d
00000280: dbdb 573d f034 50bd edaa ecbd 7327 5abd
00000290: d4df b13c 51e1 0d3c 2fc2 88bc 1810 5e3d
000002a0: df3f 4abc 3f6e 9bbd 165c b2bd ce27 95bd
000002b0: a2bf 713b 27c9 fabd ade1 933b 8074 903d
000002c0: fd60 85bd 702e 763c dab8 e23d c4c2 98bd
000002d0: 81ef 20be b110 52bd a0df a2bd e27d 1c3e
000002e0: 6253 3abd 3ab6 31bd 239e 56be 6f0d a4bd
000002f0: 29d4 9d3d a59d 873b b0d8 fabd e7a6 5f3d
00000300: d0b0 bc3d 7e06 0ebd 47df cebd 086d 53bd
00000310: 0181 eb3d acf5 f739 52a6 613b 09bc b3bd
00000320: 16da c1bc c699 1ebd 1022 693d 1d13 803d
00000330: 385a f0bc d09a a3bc 6ea8 903c 8396 15be
00000340: 3d96 1abc f2e6 893b ffac 62bc 856e a0bd
00000350: d723 253d bcaa a3bc dcdf 823d 045e 753d
00000360: 8a5f 72bd adcb 49bd 25b8 a0bd 8e50 683d
00000370: bae4 1abe 012f 6f3c 70d8 c7bc 693c 053e
00000380: 724b cd3d 6248 fd3b cbb2 cd3d ce0b b23d
00000390: ff48 873c 55d2 b3bd 331c 51bc b445 8cbd
000003a0: 279f c8bc 3990 97bc 1c58 0f3d 09a7 e13d
000003b0: 6ece d2bc eb57 4d3c f0f5 e6bc f0cc adbd
000003c0: 4ec1 5c3d 14c7 093d b9be e3bc e6c6 dd3d
000003d0: 2136 50bd 82c3 2fbd 3ec6 163d 1775 473e
000003e0: d11e 4bbd c87c b0bd 7482 923d 9cda bd3d
000003f0: b6b5 afbd c034 1abd 377a 21bd bb42 a0bb
-0.15237436 -0.11219821 -0.14587376 -0.02182165 -0.053534944 0.07404618 0.047718283 0.044590373
-0.01182759 0.0080791805 0.08845405 -0.03304975 0.019505067 0.08972216 0.10470517 0.049243722
0.12361312 0.1282681 0.030091498 0.061383616 0.049574506 0.10191669 0.10072312 0.058077592
0.057914108 -0.014938936 -0.012253315 -0.0012545421 0.011342574 -0.027678812 0.07774231 0.20716119
0.07099548 -0.055815816 0.020277068 -0.033540875 -0.06725908 -0.07997721 0.034774162 -0.036215145
-0.0030340515 0.06803276 -0.052009106 -0.008699711 -0.020455115 0.16054137 0.014044561 -0.14841805
-0.034228228 0.09196272 -0.06797623 0.15246142 0.045849945 0.0033571569 0.0003950011 -0.032815423
0.06658128 -0.069213435 -0.13739485 -0.026468974 0.069439635 -0.04490044 -0.04032895 -0.061027355
0.06342539 -0.13016513 -0.04847906 -0.15035136 0.049808323 -0.047808953 -0.08774762 -0.014202344
0.04236634 -0.07822354 -0.01827575 -0.011885118 -0.022345005 -0.0074541355 -0.06761181 -0.09845369
-0.009076465 0.028072933 -0.12237345 -0.019943457 0.036645964 -0.19459482 0.045772854 -0.024747537
0.07101825 -0.0041198637 -0.049206357 -0.015729932 0.0023680667 0.13028963 -0.071681745 0.019482978
-0.14054957 -0.0625006 -0.12227651 -0.12619005 0.04093658 0.025945285 -0.10088356 -0.11623764
-0.15183854 -0.072382234 -0.04164806 0.054579303 -0.13743247 0.1292795 -0.0340086 0.031880893
-0.07434869 0.0014211729 0.034949057 0.017816918 0.021408422 -0.031157615 0.005567996 -0.2008979
0.00069831364 0.0033483054 -0.04612881 0.01954706 0.013730026 0.034122873 0.13310458 0.056089364
0.2094052 0.036751587 0.027509589 0.07750582 -0.00015110763 0.031802855 0.0023489732 0.08820393
-0.1660563 -0.029236345 -0.048487995 0.16749384 -0.065569036 -0.13840775 -0.051130626 0.09498675
0.05690018 0.024405602 0.052712608 0.0752537 -0.054163367 0.013538557 0.23648319 0.0057805455
0.12953812 0.08830246 0.014211761 -0.22135371 0.008803414 -0.018918397 0.13851035 0.043278925
0.052699905 -0.050831735 -0.11556039 -0.053260278 0.021713175 0.008659677 -0.016694156 0.054214567
-0.01234433 -0.07589387 -0.0870897 -0.07282983 0.0036887904 -0.12245398 0.0045129866 0.070534706
-0.0651264 0.01502572 0.11070414 -0.074590236 -0.15716363 -0.05128545 -0.07952809 0.15282395
-0.045489676 -0.043386675 -0.20958762 -0.08010375 0.07706482 0.0041386657 -0.12248361 0.05460253
0.09213412 -0.03467416 -0.101011805 -0.051617652 0.11499215 0.0004729455 0.003443141 -0.08776099
-0.023663562 -0.03872087 0.05691725 0.062536456 -0.029339895 -0.019971281 0.017658439 -0.14608197
-0.009435234 0.004208439 -0.013835191 -0.0783358 0.040317383 -0.019978873 0.06390354 0.059904113
-0.059173144 -0.049266506 -0.07847623 0.056717448 -0.15126315 0.014598609 -0.024395198 0.13011326
0.10024156 0.007729576 0.10043868 0.08693658 0.0165143 -0.08780352 -0.012763071 -0.06849232
-0.024489952 -0.018501388 0.034996137 0.110181876 -0.025733199 0.012533168 -0.028193444 -0.08486354
0.053895287 0.03363712 -0.027800905 0.108289525 -0.05083287 -0.04291106 0.036810152 0.1947826
-0.049589936 -0.0861755 0.07153788 0.09270212 -0.085795805 -0.037647963 -0.039423194 -0.0048907674
