final_presentation/final_results/shallow/interval1/7000/2021-10-14_02-13-47/checkpoints/best_model_1_trial_87_validation_acc=0.9159.pt (torch, 458319 bytes, 6 tensors)

conv_time.weight f4 [20, 62, 90, 1]
000000 df 9b a7 bc 6b 23 ba bc cd 02 92 bb 54 9c a4 3c
       -0.020460067 -0.022721967 -0.0044559003 0.020094074
000010 a6 54 ba bc 13 b0 87 bc 1a 30 de bc 8d 56 bb 3c
       -0.022745442 -0.01656345 -0.027122546 0.022868419
000020 ac b0 b1 bb df a3 06 bd 0a 6b d3 bb c5 67 86 3c
       -0.0054226723 -0.032871123 -0.006451969 0.016406903
000030 b3 15 5d 3c 2b 57 03 3c 8a 72 03 bd 92 14 03 bd
       0.013493943 0.008016388 -0.032091655 -0.03200204
000040 b7 61 9d bb be fc b9 3c 1d d3 8f 3c ad f5 c1 ba
       -0.0048029083 0.022703525 0.017556721 -0.0014797949
000050 99 d7 ce b9 fc 08 70 bc c1 a9 78 bc 12 a5 78 bc
       -0.00039452015 -0.01465058 -0.015177191 -0.015176075
000060 1e 26 b5 3c 26 4a dd bc ed 1b 22 bc 6a a4 f2 b8
       0.022112902 -0.027012896 -0.009894353 -0.00011570084
000070 15 eb 35 3c e6 67 75 bc e5 e9 a5 bc 12 ad 12 3b
       0.011103411 -0.014978385 -0.020253131 0.002238099
000080 9d 75 2f bc 67 db d9 3c b3 fc b0 3c 24 12 6b bb
       -0.010709194 0.026593877 0.021604871 -0.0035868967
000090 23 4e 5d bc 75 4f a9 3c 79 f4 f2 3b 61 fe ff 3a
       -0.013507399 0.02066777 0.0074143973 0.0019530767
0000a0 b4 f8 5d 3c 3f 1a fb bb ae 0e 97 bc 6d 7e a3 3b
       0.013548065 -0.007663041 -0.018439617 0.0049894364
0000b0 44 f4 0f 3a 5c b5 97 ba 9f b5 09 3d c1 8a ba 3c
       0.00054914155 -0.0011574435 0.033620473 0.022771241
0000c0 63 e1 b7 3c b2 0e b7 3c ee 63 b6 3c c5 05 ba 3c
       0.02244634 0.022345874 0.022264447 0.02270783
0000d0 75 23 90 3c 46 e0 cf 3b 2b 0b a0 bc 31 8c cf 3c
       0.017595032 0.006343874 -0.019536575 0.025335403
0000e0 fb 79 02 3d c6 bb f2 39 f0 47 00 bc b9 75 2f bb
       0.03185461 0.0004629774 -0.007829651 -0.002677305
0000f0 bd 93 76 3c e4 21 a4 bb 78 d5 ff bb f5 31 ab bc
       0.015049872 -0.005008923 -0.00780743 -0.020897845
000100 e9 da 94 3a c9 19 90 3c 81 7e 89 3c 1f 20 71 3c
       0.0011356744 0.01759042 0.016783955 0.014717131
000110 f1 67 b5 3c 01 cb 87 bc 31 e2 df 3c 6a d9 0d bc
       0.02214429 -0.016576292 0.027329536 -0.008657793
000120 b4 24 05 3c 0a 04 6e bb 91 26 a2 3c 48 5c 65 bc
       0.0081264265 -0.0036318325 0.01979378 -0.013999052
000130 81 09 92 3c 2f ab 98 bc dc 2f bc 3c 48 ad 5d 3c
       0.017826797 -0.018636314 0.02297204 0.013530083
000140 ec 59 b1 bb 06 e7 8d 3b 57 82 1b 3b a6 b9 0b 3d
       -0.005412331 0.0043305187 0.0023728812 0.034112595
000150 c0 77 2e bc b6 70 1c 3d ec a7 e1 3c bb ad 02 3d
       -0.010648668 0.038193427 0.027545892 0.031903964
000160 04 cd cf 3c 1c 92 77 3c b6 d2 9b 3c 16 48 19 3b
       0.025366314 0.015110519 0.019021373 0.0023388914
000170 ec 6e ac bc 81 fd b8 bc a7 a4 da bc a7 d4 fa bc
       -0.021048985 -0.022581818 -0.02668984 -0.030618979
000180 08 b1 a9 ba 13 a2 a3 bc 5c c7 51 3b f6 60 04 3c
       -0.0012946436 -0.019974744 0.0032009697 0.008079758
000190 77 ea 80 3c fa 63 b0 bb dc 9c 80 3c 9b 0e 78 3c
       0.015736802 -0.005383012 0.015699796 0.015140201
0001a0 1b 57 51 bc 2f ba 07 bd 54 63 37 3c f3 33 6c bc
       -0.012777115 -0.033136543 0.011193115 -0.0144166825
0001b0 11 d8 e6 3b 01 d5 b8 bc 7f dc 8e 3c 66 ee da bc
       0.0070448 -0.022562506 0.017439125 -0.026725005
0001c0 f8 40 3b bc 67 d2 34 3b 95 32 85 3c 53 35 bf 3c
       -0.011429064 0.002759123 0.016259471 0.023340857
0001d0 b3 3c d0 bc 74 02 f3 3b 98 bb d8 bc 12 13 03 3b
       -0.025419569 0.007416064 -0.02645664 0.002000038
0001e0 2b ee e1 3c 52 fb 98 bc 89 f1 cc 3c 6a 38 85 3c
       0.027579388 -0.018674526 0.025017517 0.016262252
0001f0 03 53 07 3d be 8e 13 bc 8a 65 aa bc fc d3 aa 3c
       0.03303815 -0.0090062 -0.02080037 0.020853035
000200 7e da 34 3b ba bc 56 ba 29 9d 0c 3d 1f 4d ad bc
       0.0027596052 -0.00081915746 0.034329567 -0.021154938
000210 e5 60 d9 3c 34 27 bc 3c 5b 5c bc 3c 38 1a 58 bc
       0.02653546 0.022967912 0.022993257 -0.013189845
000220 ef dd a7 bc 8c 6a b4 bb 70 af 9e bc 04 43 ab bc
       -0.020491568 -0.0055058654 -0.019370764 -0.020905979
000230 23 22 6b bc 24 4c 00 3d 64 a4 94 3c a3 a5 a0 bc
       -0.014351401 0.031322613 0.018144794 -0.019610232
000240 ea 19 89 3c e3 d9 de bb 55 6c 99 bc b5 9e a8 bc
       0.01673599 -0.0068008765 -0.018728415 -0.02058349
000250 58 3a c4 bb df 6f 8e bc c9 69 27 bc 04 79 3e bc
       -0.0059884004 -0.017387329 -0.010218092 -0.011625532
000260 f4 05 3e 3c f3 90 2d bc 61 6e ae bc 8c 47 ad 3c
       0.011598099 -0.010593641 -0.021292867 0.02115228
000270 17 e5 cc 3c 66 5f 91 3c 5f 3d 81 3c 72 a0 a8 3a
       0.025011582 0.017745685 0.015776334 0.0012865199
000280 1c 4b 65 3b 5e fc c1 3c 9b 2d 84 3a 30 a9 cd bb
       0.0034987396 0.023679908 0.0010084392 -0.0062762722
000290 86 c7 08 3d 25 26 42 3c 44 4b 34 bc c9 4f 20 3c
       0.033393405 0.011849915 -0.011004273 0.009784647
0002a0 5b 98 39 3c 50 2c cc 3b 01 14 13 3d 53 5a 12 3b
       0.011327828 0.0062308684 0.03590775 0.002233167
0002b0 10 af 0a bc d2 74 11 3c 01 af ef 3b 4b a5 b3 3b
       -0.00846459 0.00887795 0.0073145633 0.005482351
0002c0 fb 25 bd 3b 6f 2e 5c bc af d8 83 bc 1e 5e 01 bc
       0.00577235 -0.013438805 -0.016094534 -0.007895974
0002d0 83 c9 bc ba d4 62 d5 bc 5c 40 ba bc 51 36 14 bc
       -0.0014403317 -0.026048101 -0.022735767 -0.009046153
0002e0 d1 58 ab bc 52 ad 2d 3c 56 49 5f 3c 9e f8 8a bc
       -0.020916374 0.010600405 0.0136283245 -0.016964253
0002f0 08 33 0b 3c 24 d9 c4 b6 09 d1 e6 bb 71 e9 b0 bc
       0.0084960535 -5.8665337e-06 -0.007043962 -0.021595689
000300 72 86 46 3c be 75 0d bd f6 10 e7 bc 2b 86 18 3c
       0.012117015 -0.034536116 -0.02820633 0.009309332
000310 55 71 74 3b fa 9d f5 bc dc 44 5f bc ba a2 1d 3c
       0.0037298996 -0.029982556 -0.013627257 0.009621317
000320 13 4a 40 3c 5b 16 f4 bc 74 aa d6 bc 09 0e 06 3c
       0.011736411 -0.029795816 -0.026204325 0.008182057
000330 84 44 0a bd 2e cc b5 bb 45 ab 53 3c 7c 8d 06 3c
       -0.033756748 -0.0055480218 0.012919252 0.008212443
000340 eb 06 db bc 56 be fb 3b 48 60 75 bc 2a 59 45 3c
       -0.026736697 0.007682602 -0.0149765685 0.012045184
000350 24 32 7e 3c 72 2d d9 bc d0 a9 08 39 3d c6 63 3c
       0.015514884 -0.026510928 0.00013033231 0.013902244
000360 a3 99 d6 bb 2e 78 8e bb b1 8d 90 3b e4 7d a2 bc
       -0.0065490766 -0.0043478226 0.004411422 -0.01983542
000370 8a 67 ec 3c 43 3f 44 3b 95 70 f3 3a 38 c1 dc 39
       0.028857965 0.0029944933 0.0018572981 0.0004210563
000380 d3 9c 94 3c d3 23 e3 bc 41 c8 ac bc 0f cc b8 bc
       0.018141186 -0.027727043 -0.021091582 -0.02255824
000390 40 4d a9 3c d1 da f3 bb 56 04 c4 bc cb ae ce 3c
       0.020666718 -0.0074418564 -0.023927849 0.025229832
0003a0 7e b5 21 bc de 9e 9e bc 30 16 f7 bb dc 1b 21 3c
       -0.009869931 -0.019362863 -0.0075404868 0.009833302
0003b0 59 8c 93 bc 61 c2 a4 bc 91 5d a4 3b 84 42 a4 bc
       -0.018011259 -0.020112218 0.005016037 -0.020051248
0003c0 c9 09 9a bc 26 38 86 3c 3c d9 44 3c b6 ab c4 3c
       -0.018803494 0.016384196 0.012014683 0.02400766
0003d0 ed bd f3 bb 89 ed cc 3b 27 1b 33 3c cc 53 2a bc
       -0.0074384124 0.0062539023 0.010931767 -0.010395955
0003e0 ef 12 07 3a 46 04 2c 3c 94 6b 17 bc 81 56 93 3c
       0.00051526626 0.010499066 -0.009241957 0.017985584
0003f0 67 68 cd 3a e9 33 c4 bc 0a eb 1d 3c 37 94 db bc
       0.0015671373 -0.023950534 0.009638557 -0.026804073

bnorm.weight f4 [20]
000000 df 2a ad 3f 52 9c af 3f 14 ae 89 3f 0e 14 af 3f
       1.3528708 1.371958 1.075625 1.3677995
000010 1b 5d b2 3f dc 2f a8 3f 73 4c ae 3f 69 a8 a4 3f
       1.3934664 1.3139606 1.361708 1.2863895
000020 76 e1 ae 3f 05 83 af 3f 1e 7c ab 3f a9 90 b7 3f
       1.3662555 1.3711859 1.3397253 1.4341022
000030 40 d5 ae 3f 8b 46 ae 3f b9 05 ab 3f a5 8b aa 3f
       1.3658829 1.3615278 1.3361121 1.3323866
000040 3b 53 ae 3f d1 fa b2 3f 2c 56 ad 3f 10 28 ae 3f
       1.361915 1.3982793 1.3541923 1.3605976

bnorm.bias f4 [20]
000000 59 1b 77 be 36 74 30 be 5d dc 73 3f af e6 fd bd
       -0.24131526 -0.17231831 0.9525812 -0.12397515
000010 50 84 69 3e 5f 6d ad be 77 97 7f be 2c 80 55 3e
       0.2280438 -0.33872506 -0.24960123 0.20849675
000020 33 99 a5 3c b5 f2 3a 3e 47 99 03 be c1 b3 8f bc
       0.020214653 0.18256648 -0.1285144 -0.017541768
000030 56 7a 2b 3e fa 90 89 be b9 95 50 3e 37 10 8d 3e
       0.16745886 -0.2686842 0.20369615 0.27551433
000040 d4 90 8e bc 9c b0 23 3e 64 26 f0 bd ba e5 e0 3e
       -0.017403044 0.1598534 -0.117260724 0.43925267

bnorm.running_mean f4 [20]
000000 de a3 98 3b e2 7e 8c bb 27 b9 fb bb 4f 9f 24 bc
       0.0046582064 -0.0042875865 -0.007681984 -0.010047748
000010 da ef 37 bb f0 d8 f1 3b a1 a5 53 bc 4d b8 9c 3c
       -0.0028066547 0.0073805973 -0.012917907 0.01913085
000020 65 82 ae bc 0b f3 b5 bc 54 ec f7 39 14 14 ab bc
       -0.021302411 -0.022210618 0.0004728759 -0.020883597
000030 72 98 bf 3b e3 eb 31 3c a0 eb 22 3c ef 3b 9b bb
       0.0058470303 0.010859462 0.009943873 -0.0047373693
000040 2f e3 b3 bb b1 49 1e bc 4c 90 32 3c 39 1b 34 bc
       -0.005489729 -0.009661124 0.010898661 -0.0109928185

bnorm.running_var f4 [20]
000000 db dc 2a 42 03 6b d0 42 e3 98 35 43 53 1d 20 42
       42.71568 104.20901 181.59721 40.028637
000010 0b 29 8d 42 e2 7a 92 42 4e d5 e5 42 58 f3 60 42
       70.58016 73.240005 114.91661 56.23764
000020 12 47 98 42 b2 05 9f 42 8c 47 41 42 49 9e 8c 42
       76.13881 79.51112 48.31987 70.30915
000030 f1 1e 74 42 73 09 5e 42 c2 13 64 42 80 61 a0 42
       61.030216 55.509228 57.019295 80.19043
000040 38 b1 57 42 30 b4 92 42 a0 bf 84 42 2b 6c af 42
       53.923065 73.35193 66.37427 87.711266

conv_classifier.weight f4 [1, 20, 109, 1]
000000 0c b4 1d 3c 00 04 8f 3d 0c 85 b6 3d dd c5 c9 bb
       0.009625446 0.06983185 0.089120954 -0.0061576203
000010 25 b4 7e bc a0 4f 85 3d 84 56 e3 ba da 53 af 3c
       -0.0155458795 0.06509328 -0.0017344509 0.021402288
000020 1b 9e 06 3c 72 ad a5 bc e9 7a a9 bd 07 2b b4 3c
       0.008216406 -0.020224307 -0.082753964 0.021993173
000030 67 9f 1c bd 82 a5 2a 3b aa c6 6c ba c1 76 aa 3c
       -0.038237955 0.0026038592 -0.0009032289 0.02080858
000040 4a 48 e2 3c e7 85 c3 3c 4d eb 73 bd e2 b2 da bc
       0.02762236 0.02386756 -0.059550572 -0.026696626
000050 d4 da 9b 3c cc 5a 6b bd 40 82 b8 3c 2e a3 2e bd
       0.019025244 -0.057459638 0.022523046 -0.04263609
000060 96 78 7b bd 50 b8 3c bc ce d9 ae bb 7b 6b 04 bd
       -0.061394297 -0.011518553 -0.005336023 -0.032329064
000070 ca cb d7 bc ff 74 28 3d 49 d6 23 bd 2a 5c e4 3b
       -0.026342291 0.0411272 -0.03999928 0.0069689946
000080 49 64 49 bd 2d df c0 3c ed 7b 11 3d c1 4f 0c 3a
       -0.049167905 0.023543919 0.035518575 0.00053524604
000090 95 96 00 bd 3b 74 65 bc 89 4a 60 bc 9f 6b 82 bc
       -0.031393606 -0.014004762 -0.013689646 -0.015920458
0000a0 cf 0a d1 3c bc 6b 2e 3d 3c b3 c4 38 4c 5b 8c bd
       0.02551785 0.042583212 9.379393e-05 -0.06853351
0000b0 77 98 3d 3c 82 6f 16 bd 41 01 18 bd 47 a6 29 3d
       0.011571995 -0.036727436 -0.03711057 0.04141834
0000c0 6b dc 9a 3d a5 c7 b6 3c 50 53 88 bd ea b6 5c 3d
       0.07561573 0.022311995 -0.066565156 0.053885378
0000d0 b2 ab 39 3c d3 a3 98 3c c2 77 cd 3c b7 8d bd 3b
       0.011332439 0.018632805 0.025081519 0.005784716
0000e0 52 e8 a2 bb 6c 8b ee ba a0 e8 19 bd c2 a4 07 bd
       -0.0049715424 -0.001819951 -0.037575364 -0.03311611
0000f0 9b 94 89 3c 8a 31 44 3d 65 22 14 bb 2f 8c c5 bd
       0.016794493 0.047898807 -0.0022603509 -0.096458785
000100 fc e4 96 3a 72 f0 14 3d a2 6f e6 3b 56 9b bf 3c
       0.0011512334 0.03636212 0.0070323506 0.0233895
000110 2b 0b ae 3a 3f 4d 72 bc 9d 99 c8 3c 65 b0 5c bc
       0.0013278475 -0.014788925 0.024487311 -0.01346979
000120 0d d8 e1 3c 30 c8 9e bc 65 60 d9 bc 3a a4 11 bd
       0.027568841 -0.019382566 -0.026535222 -0.03555701
000130 74 c0 08 3d 01 35 27 3c bf 6f a9 3d 8c 25 ad bc
       0.033386663 0.010205508 0.08273267 -0.021136068
000140 a8 bf 5b bd cf 70 88 3c 68 3a 40 3d 98 dc 17 bd
       -0.053649575 0.016655354 0.0469307 -0.03707561
000150 a2 60 4c 3d 1e da 95 bb 32 88 91 bb a2 7f 68 bd
       0.049896844 -0.0045731207 -0.0044412846 -0.056762345
000160 10 f9 60 3d 8c 9f fa 3c ec 7e 74 bc dc 32 6b bd
       0.054925025 0.030593656 -0.014922839 -0.05742155
000170 84 9d 78 bc 07 c2 8c 3c 72 13 9b 3c 2f 21 80 bd
       -0.015174273 0.017182363 0.01893017 -0.06256329
000180 b9 ed f6 3c 75 e5 2a bd 34 58 cf bb 08 f0 4e 3d
       0.030142652 -0.041722734 -0.0063276533 0.05052188
000190 ae cc a5 ba a6 ad a5 3b b6 15 4f 3d 9d 04 23 bd
       -0.00126495 0.005056101 0.050557815 -0.03979932
0001a0 8e 9e 97 3b f1 de 2a 3d b6 20 aa 3d 87 f8 54 3d
       0.0046270555 0.04171652 0.0830702 0.051994827
0001b0 e4 79 8d bc 72 da 06 3d d6 39 01 bd f6 73 e2 bc
       -0.017270036 0.03292317 -0.031549297 -0.027643185
0001c0 5b 75 a1 bd 07 69 db 3c 9d 5a 05 3e 1b dc 7d 3d
       -0.07883712 0.02678348 0.13022847 0.061977487
0001d0 38 5d c3 3c 90 e2 c7 3d 51 f4 21 bd ea ef 6d 3d
       0.023848161 0.0976001 -0.03953964 0.058090128
0001e0 5c 3d b5 3c d0 11 45 3d 99 d4 75 3a ff da 04 3c
       0.022123985 0.04811269 0.0009377688 0.008108853
0001f0 4b a8 90 3c 73 2a f9 3a c8 40 ee 3c d1 12 5d bd
       0.017658373 0.0019009843 0.029083624 -0.053973023
000200 93 a3 13 3d 34 2e 98 bb 40 35 bb bd f5 26 72 bd
       0.03604467 -0.0046441797 -0.09141016 -0.059119184
000210 ef 64 ae bd d7 d2 48 bd 99 46 5c bc 50 94 83 3b
       -0.08515345 -0.049029198 -0.013444566 0.004015483
000220 85 ae 7a 3d a0 b7 03 3d d1 4a 8f bc 2d a1 72 bd
       0.06120159 0.03215754 -0.01749173 -0.05923574
000230 ca e1 68 ba 5d 7d 85 3c a0 6f 0a bc bb 5a f2 bd
       -0.0008883743 0.01629513 -0.008449465 -0.11833712
000240 8f 54 45 bd b8 75 c2 bc 23 e9 92 3d 18 8d 26 bd
       -0.048176344 -0.023737773 0.071733736 -0.0406619
000250 3b f4 0d 3d ce e4 70 bc a8 32 44 3d 54 24 79 bd
       0.034656744 -0.014702989 0.047899872 -0.06082566
000260 b1 a6 89 bd a1 c1 25 bd da c7 d2 bc 99 72 d0 3d
       -0.06721247 -0.040467862 -0.025730062 0.10178108
000270 0f 25 95 3c 03 b5 4a bd b2 00 b4 bd e6 e6 ef bc
       0.018206147 -0.049489032 -0.08789195 -0.029284906
000280 47 f2 86 3d 61 8f 8f 3c 28 c6 6d bb 8c 70 75 3d
       0.065891795 0.017524423 -0.003628144 0.059921786
000290 99 fc d8 3d 50 e4 bc bb e7 93 84 3d 4f 7a 7d 3d
       0.10595054 -0.0057645217 0.06473523 0.06188422
0002a0 fd 7f 80 3c 22 3a c4 3d 6a 0c 68 ba 1b 22 d2 bc
       0.01568603 0.095814005 -0.00088519475 -0.025651028
0002b0 42 9e 35 bd 4a 28 fb 3c d0 c3 0f 3c 7d 75 cd bc
       -0.04434038 0.03065886 0.008774713 -0.025080437
0002c0 f5 16 af 3b 68 bf 34 bd 6d 50 9c bc 57 9a 8c 3b
       0.005343313 -0.04412785 -0.019081319 0.0042908597
0002d0 27 58 5e bd 18 4b f5 3c 8f 25 05 3d f3 f2 1f bd
       -0.054283287 0.029943034 0.03250652 -0.039050054
0002e0 88 a8 88 bc c3 46 ca bc 48 6b 5a 3d 23 ce d9 bc
       -0.016681924 -0.024691945 0.053324968 -0.026587551
0002f0 fc aa 6f 3a 8f c7 77 3d 33 75 73 3d a0 16 6d bc
       0.0009142605 0.06049305 0.05943794 -0.014470726
000300 b1 15 ef 3b ac c6 ad 3d 33 4f 5b 3d b3 24 00 3c
       0.007296287 0.08485159 0.053542327 0.00782125
000310 03 b1 9b 3d 2a 22 d6 bc 35 0b a2 3b aa 5f 24 bc
       0.07602122 -0.026139338 0.0049451836 -0.010032574
000320 30 17 3e 3d 67 75 9f bd af 79 77 3d 50 6c f1 ba
       0.046408832 -0.077860646 0.06041878 -0.001841912
000330 58 67 a9 3b 83 85 3b 3d c2 1f 51 3d 57 4e 9f 3d
       0.0051697902 0.045781624 0.051055677 0.07778614
000340 51 d2 93 3d a0 b8 68 ba e3 67 1e 3d 42 66 ab 3c
       0.07217849 -0.0008877609 0.038673293 0.020922784
000350 dd cf 08 3c e6 75 71 3c 9a 2d 04 bc fd 34 11 bb
       0.00835034 0.014737582 -0.008067513 -0.0022156828
000360 cc 8f 26 bd 1c 47 1e 3d 0e f7 bf 3d 21 7d 21 3e
       -0.04066448 0.038642034 0.09373294 0.15770389
000370 6c c8 49 3d 33 63 ea bc d7 9b 44 bd 88 0e 1d bd
       0.049263403 -0.028611755 -0.048000183 -0.038343936
000380 8d 86 8a bd d0 3a 05 be 56 77 23 be 24 24 61 bd
       -0.06763945 -0.13010716 -0.15963492 -0.054966107
000390 c7 61 db bd ef 6b ae bc ea f9 0e bd 83 d6 d4 bc
       -0.10712009 -0.021291701 -0.034906305 -0.025981193
0003a0 f3 c4 ce bd d8 cd 54 bd b9 ed 00 bc 02 b9 2e bc
       -0.10096159 -0.05195412 -0.0078691775 -0.0106642265
0003b0 9c be 4a bd c7 87 6b bc ab cd 35 bd e2 da 81 3b
       -0.049498186 -0.014375634 -0.044385593 0.0039628604
0003c0 6e 6f d0 bc d0 86 96 3b 8f fa 5d 3d fb de 2b 3d
       -0.025443759 0.0045937076 0.05419403 0.041960698
0003d0 f7 35 d3 bc 56 b1 6e bc e5 cf 0f 3c 3a dc 24 bd
       -0.025782568 -0.014568647 0.008777593 -0.040249087
0003e0 83 f0 d0 bc 31 5f 42 bd 97 e7 c4 39 33 70 fc 3d
       -0.02550531 -0.047454063 0.0003755658 0.12326088
0003f0 a9 37 5c 3c 68 90 91 3c b2 37 6f bc 01 78 f1 39
       0.013441005 0.017769054 -0.014600681 0.00046056512
