final_presentation/final_results/shallow/interval1/7000/2021-10-14_02-13-47/checkpoints/best_model_1_trial_83_validation_acc=0.7112.pt (torch, 760143 bytes, 6 tensors)

conv_time.weight f4 [30, 62, 100, 1]
00000000: 523b d53c d26d 373c af40 363c 0b02 aa3c
00000010: 3c74 b03c d644 b6bc 956d 9c3c 5c98 363c
00000020: ae20 9bbb 978e dc3c f9a0 473c 8d2a dc3c
00000030: 2245 0a3c 8c0b 63bc 36d5 033c fee2 843c
00000040: cfc8 bf3c 8961 a43c 9183 113c 2613 9b3c
00000050: fc1a 563c 53e8 d33c ac52 9abc 8e19 1bbc
00000060: 5d04 473c 93ce f7bb 7cdc f73b 7dad a7bc
00000070: 77f3 b23b 220e 96bb 4f07 01bc 51fc f0bb
00000080: 99dc d03c d78c 833c 829d 913c d361 c43c
00000090: 9e93 3abc f208 4cbc c248 9dbb ba2c 51bc
000000a0: d46b e1bb 9518 863c 0f53 45bb dc86 0e3c
000000b0: 058f 973a f1ea a8bc 6568 87bb a11b 003c
000000c0: 98a0 80bc 70a0 98bc a460 e2bb ab19 62bb
000000d0: 7a18 9a3c 94ff cfbb 81c3 a23c 44d3 d7bb
000000e0: 8590 4fbc 8ac2 ee3b 4a3c a9bc 5552 48bc
000000f0: b863 02bc c294 8ab9 f9f6 a3bc 1b18 4ebc
00000100: 8549 903b 88c0 d7bc 68bf 153b 13f1 853c
00000110: b030 983c e8e1 b23c 1cce 9cbc 80bd ca3b
00000120: c541 923c 91e1 c5bc cf86 83bc 5238 7fbc
00000130: ba29 89bb 914c c83c de5e 813a 40ef 3f3a
00000140: 6884 5f3c aa10 42bc 999f 7cbc 2a6f 6abb
00000150: 5148 663c 6be1 f33b d29b 04bc 3345 0b3c
00000160: 4ba2 a13c 928c 883c 12d1 203c 8030 a33a
00000170: 3b95 a9bc 695f 333c c02a 963b 471c 7a3c
00000180: 1531 1f3c 9cdf 91bc 32c7 1dbc 5d5c fa3a
00000190: 7513 6f3c 7d78 8ebc a795 8a3c e667 2e3b
000001a0: eb40 723c d399 74bc 73fa 143c 4e2d 7ebb
000001b0: bbf0 b23c ead5 e43c fc84 883c 2d5e 35bb
000001c0: 2d2c 9d3c 52cb 6fbc 4cf0 a03b f702 f43c
000001d0: 5231 ea3c d9e0 943b 91e3 623b cef2 7fbc
000001e0: 3bf2 6d3c 583a 873b 066b d43c e41d be3c
000001f0: f8d3 883b 4440 bd3c 4a17 d23b 675d 9dbc
00000200: 03ed 2bbc 6c1e b9bb c1c2 ea3c 9c27 cf3b
00000210: 1103 693c c744 c13c 7f09 db3b 060c f8ba
00000220: 2dba a4bc ba5a 9f3c af50 d83c 11bd d33b
00000230: e21d d73c 1b54 953c 3a21 b73c 038c 823b
00000240: 3367 543c 0621 e73c 966d 17bb 8993 f6bb
00000250: daf5 b23c e902 763a 3175 013c 20b1 d1ba
00000260: ca3b f739 a4f4 15bc 9706 6bbc 7a9d 83bc
00000270: 8211 cf3c 4008 813c 5658 6b3c bb09 0bbb
00000280: 98fc 363c 3e38 153c 21d3 c13c b8de c8bc
00000290: 50bb 4ebc 9cae 2f3c cf33 8ebb d7ed f4bb
000002a0: e544 913b 9d6f 393b 8542 cc3b e456 6fbc
000002b0: f843 043b 15bf 8f3c 30d6 503a 27f5 933c
000002c0: 2d2a bb3c 8465 313c c484 c5bc affd 873c
000002d0: 7bfa d93c 1e36 dabb 653a 953c 95d1 19bb
000002e0: e675 863c 877d d03c 4fef a1bc c169 b6bc
000002f0: 58ad bebc 382f efbb fd1b 8b3b f062 c83b
00000300: d2e4 c13c 187b 0b3c 0c4a 133c fa9d ac3b
00000310: d324 763b 434a bebc a3ee 5fbc cea4 b3ba
00000320: 6acf 6a3c 3f67 85bb 6dcb 1e3c ec2e 17bc
00000330: 7be4 e13b 96ab 4b3c 4e04 f03c b43d cebb
00000340: 4d90 84ba fbcf 2b3c 3b37 18bc 8afb ac3c
00000350: be57 2a3c 26e6 7e3b a41f d73c 4bfa 0bbc
00000360: 44d9 663c 39d1 a33c 4de2 ff3b 5712 8cbc
00000370: 42fc 843c a531 b3bb 05e4 a1bc d6c2 8dbb
00000380: 07ae 8a3c b9fa f13b f891 a3bb abe4 06bc
00000390: e448 9bbc d650 d63c 285b 80bb f975 69bc
000003a0: 79b5 75bc 69da 9d3b fc40 63ba 946e 823c
000003b0: 37a9 913c c937 9a3c 4c41 4139 f255 dcbb
000003c0: e8a3 f6ba bb3b e63c 6b13 983b 0045 97bc
000003d0: 0f27 b43c f53d 5a3c 42c2 11bc e2db ad3c
000003e0: 38b9 95bc 8355 963c 0b3f 6b3a 7943 5ebc
000003f0: 700c 8abc 7458 a8bc e25e 913b 45dc 413b
0.026029263 0.011195617 0.01112382 0.020752927 0.0215398 -0.02224962 0.019095222 0.011144724
-0.0047341203 0.02692346 0.012184375 0.026875759 0.008439334 -0.013857733 0.008046439 0.01622152
0.023411183 0.02006604 0.0088814655 0.01893003 0.013067957 0.025867617 -0.01883825 -0.009466542
0.012147036 -0.0075624674 0.0075641256 -0.020468468 0.005461152 -0.0045793215 -0.007875278 -0.007354297
0.025495814 0.016058369 0.0177753 0.023972427 -0.011387734 -0.012453305 -0.004799933 -0.012767011
-0.006879309 0.016369144 -0.0030109321 0.008699145 0.0011563009 -0.020619841 -0.004132318 0.007819087
-0.015701577 -0.01863119 -0.006908493 -0.0034500163 0.0188105 -0.006347606 0.019868614 -0.006586464
-0.0126687335 0.0072863745 -0.02065863 -0.012226661 -0.007958345 -0.00026432244 -0.020015227 -0.012578989
0.0044032955 -0.026336923 0.0022849683 0.016350305 0.018577904 0.021836236 -0.01914125 0.006187141
0.017853627 -0.02415541 -0.016055493 -0.015577393 -0.0041858824 0.024450572 0.0009870192 0.0007321723
0.013642408 -0.011844793 -0.01541891 -0.0035771825 0.0140553275 0.0074426434 -0.008093791 0.008500385
0.019730708 0.016668592 0.009815471 0.0012450367 -0.020701041 0.0109480405 0.004582733 0.015265531
0.009716292 -0.01780682 -0.009630011 0.0019101013 0.014592041 -0.017391438 0.016917063 0.0026612221
0.014785985 -0.014929253 0.009092915 -0.0038784328 0.021843305 0.027934033 0.016664974 -0.0027674541
0.019186104 -0.014635878 0.004911458 0.02978657 0.02858797 0.0045434055 0.0034620503 -0.015621854
0.014523084 0.004126828 0.025929939 0.023207612 0.0041756593 0.023101933 0.0064114677 -0.019209577
-0.01049352 -0.0056493785 0.028657319 0.0063218605 0.0142219225 0.023592366 0.0066844816 -0.0018924482
-0.020108307 0.019452441 0.02640566 0.0064617475 0.026259366 0.018228581 0.02235471 0.003983976
0.012964058 0.028213989 -0.002310609 -0.007524912 0.021845747 0.0009384589 0.007901476 -0.0015998222
0.00047156058 -0.009152565 -0.014344833 -0.016066302 0.025276903 0.015751004 0.014364323 -0.0021215517
0.0111686215 0.009107647 0.023660244 -0.024520263 -0.012617901 0.010722782 -0.004339672 -0.007474642
0.0044332617 0.0028295286 0.0062335157 -0.014608119 0.0020182114 0.01754717 0.0007966487 0.018061234
0.02284726 0.010827426 -0.02411116 0.016600458 0.026608696 -0.0066592833 0.018216321 -0.0023470868
0.01641364 0.025450481 -0.019767432 -0.022267224 -0.023276016 -0.00729933 0.00424528 0.00611531
0.02366868 0.008513235 0.008989822 0.0052678557 0.003755857 -0.02322877 -0.013667735 -0.0013705732
0.014331678 -0.004071146 0.009692055 -0.009227496 0.006893692 0.012431046 0.029298928 -0.0062939767
-0.0010113806 0.010486598 -0.009290512 0.021116037 0.010396896 0.0038894503 0.026260205 -0.008543561
0.014089886 0.019997226 0.0078089596 -0.017098589 0.016233567 -0.0054685646 -0.019762048 -0.004326205
0.016928686 0.007384625 -0.004991766 -0.00823323 -0.018955655 0.026161592 -0.0039171167 -0.014249318
-0.01499688 0.0048172963 -0.0008669046 0.015921868 0.017780883 0.018825429 0.0001843024 -0.0067241127
-0.0018817158 0.028104654 0.0046409867 -0.018465519 0.02199128 0.013320436 -0.008896412 0.021223012
-0.018276796 0.018351322 0.00089739327 -0.013565891 -0.016851634 -0.02054999 0.0044363597 0.0029580754

bnorm.weight f4 [30]
00000000: d4cf a63f 6344 a63f c5d0 a93f 70c4 a43f
00000010: 62b6 a73f 5a71 b43f 7205 a63f 9286 a93f
00000020: d046 a93f 46df a63f 009c a73f 395b a73f
00000030: 4a91 a93f c4bd a83f fd62 a63f 9bfe ab3f
00000040: a1da ab3f 431b a73f 7b9c a63f 5142 a63f
00000050: ae7e a73f cb20 aa3f ba65 a23f 3022 ab3f
00000060: de3e ad3f 9ed1 a83f 812e a53f bdf6 ab3f
00000070: 5c89 ac3f e56d af3f
1.3032174 1.298962 1.3266836 1.2872448 1.3102534 1.4097092 1.2970412 1.3244193
1.3224735 1.3036888 1.3094482 1.3074714 1.3247464 1.3182912 1.2998959 1.3437074
1.3426095 1.3055195 1.3016504 1.2988988 1.3085535 1.3291258 1.2687294 1.3369808
1.353481 1.318897 1.2904817 1.3434674 1.3479419 1.3705412

bnorm.bias f4 [30]
00000000: 1103 3fbd 68d9 4f3d 30a6 2c3e ef54 993d
00000010: ff4a 2b3d fec9 983b af03 a3bc 6c8a 0bbe
00000020: 2d27 ebbd 29fa 1a3d 64bf abbd 7823 91be
00000030: 5e92 83bc 5fd7 aa3c c25e 8abd 6f63 a0bd
00000040: 978b e2bd e832 5cbe 575e 68be 37b5 d0bd
00000050: a0fe 243e 26fb 91bc 4dcd 96be 76c3 94bd
00000060: e5df 743d 4110 82be 6342 0ebc b5a5 69bc
00000070: 83d2 19bd 43d7 253b
-0.046633784 0.050744444 0.1686027 0.07486903 0.04181957 0.004662751 -0.019899217 -0.13627023
-0.114820816 0.037836228 -0.08386114 -0.28347373 -0.016061004 0.02085465 -0.06756355 -0.078314655
-0.11061781 -0.21503794 -0.22692238 -0.10190814 0.16112757 -0.017819952 -0.29453507 -0.07263844
0.059783835 -0.25403026 -0.00868282 -0.014260699 -0.037554275 0.0025305308

bnorm.running_mean f4 [30]
00000000: 37ff c7bc 43b7 adbc b3a0 c33c aef5 b7bc
00000010: e0d2 993c 015f 41bd 9f7f 22bb ffc9 0b3d
00000020: 46b8 1abc 4b94 a1bc e6e2 1ebb db67 083c
00000030: 5d10 dd3c 3388 4e3c 080a 40bc 6bde 98bc
00000040: d701 98bc f524 d33c 5c6b 893c dec5 2c3c
00000050: c204 f03b 3b79 cd3c 7945 a2bc 7479 6a3c
00000060: 77b9 cabc a74a 01bb 1eb5 6bbc fefe 613b
00000070: c1af c6bc aa75 9a3a
-0.024413688 -0.02120555 0.023880338 -0.022456016 0.01877731 -0.047209743 -0.0024795306 0.034128185
-0.009443348 -0.019724032 -0.0024244129 0.008325542 0.026985342 0.012605715 -0.011721142 -0.018660745
-0.018555565 0.025774458 0.016774826 0.010545222 0.007324786 0.025082221 -0.019808518 0.014311183
-0.02474664 -0.0019728334 -0.014386443 0.0034484263 -0.024253728 0.0011784334

bnorm.running_var f4 [30]
00000000: 47e1 aa41 1c2d 7842 aa85 9742 9fee e241
00000010: 76bf f741 b15a ea42 c47a 1c42 73b5 3b42
00000020: 13bc 3a42 77bc 6542 3735 c841 c30b 8e42
00000030: 1264 4442 f8e0 4742 7af4 c641 dcd7 2842
00000040: 87d1 5542 3f54 1542 783d 6442 3696 0d42
00000050: 6935 f541 1382 0742 14d0 b842 5223 0942
00000060: 47c5 1443 6f94 3242 304c b341 5bf9 5c42
00000070: 249c 8842 f070 3d42
21.359999 62.044052 75.76106 28.366514 30.968487 117.17713 39.11989 46.927197
46.683666 57.434048 25.025984 71.02297 49.097725 49.969696 24.869373 42.2108
53.454617 37.33227 57.060028 35.39669 30.65108 33.877026 92.4064 34.284492
148.77061 44.644955 22.4122 55.24351 68.30496 47.36029

conv_classifier.weight f4 [1, 30, 108, 1]
00000000: e7df 133d be91 313d 7460 82bb 0df0 3e3c
00000010: 39bb 0e3c aadd 63bd eb07 d1bc a2a4 4a3c
00000020: f7d9 db3b 617a 543c 3377 ad3c 6ec5 0b3d
00000030: f32f b9b9 b3a8 3b3d a281 8fba 4d59 1f3d
00000040: 993b b93c 8fa0 0c3c 13a6 ec3c e359 0dbd
00000050: a176 b6bc 0347 94bc 5363 0fbd 902f 23bd
00000060: 369f 71bc 8f08 053c cf7a 383d 22d2 9abc
00000070: 5856 82bd 873c b2bc 22ff 653d e544 42bb
00000080: efdb f8bc 5d65 abbc 0aa4 96bc 37ca ddbc
00000090: 4dfa a7bc 997d 9a3c 7a43 35bc 4608 ccbc
000000a0: 73aa 093d b75c ae3c 72b9 c63c 31ea 743d
000000b0: 7592 0a3d 1667 4e3c 1e9b 513d d70a 0d3d
000000c0: e479 9a3c a3cc e6ba cf14 96bc bb00 ee3c
000000d0: daa1 9f3c bb2f 24bd 5767 8e3a 0deb 01bd
000000e0: 81f9 343d f698 47bd e80e 8e3b c8a0 983c
000000f0: 53c9 38bc d3b5 9d3a 9b71 113d 7969 853d
00000100: ca37 71bc 722c 3e3d 4c77 9dbc dce8 92bc
00000110: ed6b 58bc 790c 263d 17c7 a03c ddd2 0e3d
00000120: 0052 8a3c 4103 6d3d a5ee 8aba 4514 8ebb
00000130: 4139 c63a eb44 00bd 0068 53bd f02e 4a3d
00000140: 8f2f 743d 1d1c e13c d7d9 13bd d5e8 163d
00000150: 376b fc3c b2f8 533c 0b75 293d efcb 5f3d
00000160: 2f5e 8abc 14ec b43c 737b 76bd feb6 643c
00000170: f436 b13b 0b83 8d3c 0e84 5a3c 92d0 9abc
00000180: ffe1 76bd 5fab 5cbd 77be 423d 71cf 253c
00000190: 1f40 94bc 33c5 c53c 97e0 893d 27ff 49bd
000001a0: 869d d1bb 4ba8 333d de52 24bd 94ba 503c
000001b0: e8e4 6fbd 39c9 083d c0e9 c13a 427e adbd
000001c0: 1218 85bb 74db 74bc 7b09 bd3c b9cc 99bd
000001d0: 7f0f 02bd c099 65bd 3265 2ebd 8e57 863c
000001e0: 3c1a 07bd d399 4f3c fb70 2cbd 9be3 223d
000001f0: 78cb 98ba 204e 103b b8af 20bd 40e9 e539
00000200: baf1 3ebd 5ce7 1abd 72f5 f3bc 00e2 89bc
00000210: e2ca 9ebc cd1c b43b e43e 02bd 8be3 a83b
00000220: f6dd d43c c1e5 15bd c31a b23c 485f 4ebd
00000230: 6c31 47bd 71f9 923b 536a 313d dd1a e63b
00000240: a69d f1bc b7ba 5fbb f8c1 9a38 3087 013d
00000250: 15ec 45bb 3d29 c43c 2f62 a83c 76ef ab3c
00000260: 2daa 61bd 66a4 0bbd 7ae2 6f3c e44a e13a
00000270: d3f2 323d 88de 72bd 3f47 b2bc c192 eebc
00000280: 2ec6 c7bd 8aee 3b3b a044 50bd ca7f 033d
00000290: cc64 8dbc fc9c 7f3b 52c0 8c3d a245 7ebc
000002a0: 9f57 b03c 5d69 073d 9682 7d3c ac45 873d
000002b0: c9c0 8c3c c38c eb3b 7e54 433d 8539 5a3d
000002c0: f7b4 6e3c 5c67 743d 3841 1a3d 90c6 6cbd
000002d0: e24b 8abc fe0d dfb9 abe4 82bd 027d a4bb
000002e0: 3e3d 28bd 61e0 a73c 91cf 18bd 2bb0 ca3c
000002f0: a9d5 14bd 2a0d a53b 63d3 8cbb 54e1 dc3c
00000300: fd65 c1bc cc61 9ebc cc65 90bc 8868 76bb
00000310: 4779 37bd 8e39 23b8 b561 debb 1c4c 06bc
00000320: eb79 db3a 26d1 923c 94d0 0cbc ce3b 17bc
00000330: 1538 34bc 6e08 bf3c 9fb1 6e3c e863 efbb
00000340: 0577 42bc c02e c3bc 8d77 38bd 80cc 85bc
00000350: 59ee c93c 8202 0dbd 6e7d 843a c0f3 6c3c
00000360: c431 3a3b 6e88 47bd 9ca2 9fbc 0075 ffbc
00000370: 5fc6 5c3d a984 823c 8793 34bd dc49 31bd
00000380: 72ce a2bd 441e 2a3c 9d1d 46bd a4e9 8fbd
00000390: eda4 3dbd c0e0 123d a184 b1bd 25a7 c83c
000003a0: 4330 b53c 7fb7 043d 3458 8dbd ffc0 46bb
000003b0: 390d 1e3c 6d23 febc f8ac 563c 6f61 f2bb
000003c0: 89d3 91bd fa58 16bc 48d0 a9bc cadc 6fbd
000003d0: 87d0 633b e3ff 28bd abe9 6ebd ad38 74bd
000003e0: aac2 abbd df0d fdbc 6464 073b a60a aa3b
000003f0: fd4b 12ba c63f ac3b f73d 07bd b59f 67bd
0.0361022 0.04335188 -0.0039787833 0.011653912 0.00871163 -0.055631317 -0.02551647 0.012368353
0.006709333 0.0129686305 0.021175003 0.03412383 -0.00035321675 0.04581518 -0.0010948668 0.038903523
0.022611426 0.008583202 0.028887784 -0.03450955 -0.022273364 -0.018100267 -0.035006832 -0.03984028
-0.0147474315 0.008119716 0.045038994 -0.018899027 -0.06364125 -0.021757377 0.056151517 -0.0029643115
-0.03037831 -0.020922357 -0.018388767 -0.027073963 -0.020505095 0.018858718 -0.011063451 -0.024906289
0.03360982 0.021284444 0.02425835 0.059793655 0.03383108 0.01259782 0.051173322 0.034434166
0.01885695 -0.0017608594 -0.01832047 0.029053083 0.019486357 -0.04008458 0.0010864538 -0.031718303
0.044183258 -0.04872986 0.004335273 0.018631354 -0.011278468 0.0012032337 0.035508733 0.06514258
-0.014722774 0.046429105 -0.019221924 -0.017933302 -0.013209325 0.04053924 0.019626183 0.034869064
0.016884804 0.05786443 -0.0010599686 -0.0043359124 0.0015123264 -0.031315725 -0.051612854 0.04936117
0.059615668 0.027479226 -0.03609642 0.03684314 0.030812843 0.012937712 0.041371386 0.054637846
-0.016890613 0.022085227 -0.060176324 0.013959644 0.0054081623 0.0172744 0.013337148 -0.018898282
-0.06027412 -0.05387437 0.047544923 0.010120259 -0.018096982 0.024141883 0.0673229 -0.049315598
-0.006396952 0.04386167 -0.04011809 0.012739796 -0.05856791 0.033395026 0.0014794394 -0.084713474
-0.0040617073 -0.0149449 0.02307581 -0.07509751 -0.03175306 -0.05605483 -0.042576976 0.016399171
-0.032984003 0.012670952 -0.042099934 0.039767843 -0.0011657318 0.0022019222 -0.03923008 0.00043852068
-0.046617247 -0.037818298 -0.029780123 -0.016831398 -0.019383851 0.0054965974 -0.03179826 0.0051540784
0.025984745 -0.036596064 0.021741277 -0.050383836 -0.048631117 0.004485302 0.04331429 0.0070222453
-0.029494118 -0.003413839 7.379422e-05 0.031623065 -0.003020053 0.023945445 0.02055463 0.020988207
-0.055093933 -0.03409233 0.014641399 0.0017188457 0.043688606 -0.059294254 -0.021762488 -0.029122712
-0.09754597 0.0028676116 -0.050846696 0.03210429 -0.017259978 0.0039003482 0.0687262 -0.015519531
0.021526156 0.033059467 0.015473029 0.06605086 0.01718177 0.007188411 0.047688 0.05327751
0.014569513 0.059668884 0.037659854 -0.05780655 -0.016881887 -0.000425443 -0.06391271 -0.005019785
-0.04107403 0.020492734 -0.037307326 0.024742207 -0.036336575 0.0050369697 -0.00429766 0.026962914
-0.023608202 -0.019333743 -0.017626666 -0.0037598927 -0.044793393 -3.891583e-05 -0.00678655 -0.008196857
0.0016744708 0.017921995 -0.008594651 -0.009230567 -0.010999699 0.02331945 0.014568715 -0.007305611
-0.011869197 -0.023826003 -0.045035888 -0.016332865 0.024649786 -0.03442622 0.0010108182 0.014462411
0.002841101 -0.048714094 -0.019486718 -0.03118372 0.05390012 0.015932398 -0.044086006 -0.04328333
-0.079495326 0.010383192 -0.048368085 -0.07026985 -0.046299864 0.03585887 -0.08667875 0.024493763
0.02211774 0.032401558 -0.06901589 -0.0030327437 0.009646707 -0.031022752 0.013102762 -0.007396869
-0.07120425 -0.009176487 -0.020729199 -0.05856017 0.0034761743 -0.041259658 -0.058328312 -0.059624363
-0.083867386 -0.030890403 0.0020659203 0.0051892577 -0.0005580781 0.005256626 -0.03301808 -0.056548793
