final_presentation/final_results/shallow/interval1/7000/2021-10-14_02-13-47/checkpoints/best_model_1_trial_4_validation_acc=0.5025.pt (torch, 713759 bytes, 3 tensors)

conv_time.weight f4 [40, 62, 70, 1]
000000 b2 81 72 3f fd b2 6c 3f 35 6f 7a 3f b1 8e 6f 3f
       0.9472915 0.92460614 0.9782594 0.93577105
000010 fc c1 71 3f 4b 6e 6f 3f 4a ec 75 3f a6 da 76 3f
       0.9443662 0.9352767 0.96063673 0.9642738
000020 e7 b8 70 3f df 27 73 3f 23 47 6d 3f a8 76 73 3f
       0.9403214 0.94982713 0.9268667 0.9510293
000030 bb 4e 6d 3f ef 00 6e 3f 40 e9 6f 3f a1 87 75 3f
       0.9269826 0.92970175 0.93715286 0.9591008
000040 e6 d7 6d 3f db d5 78 3f 36 9e 75 3f 58 69 73 3f
       0.9290756 0.9720132 0.95944536 0.95082617
000050 6e be 6f 3f fa ef 74 3f d1 ec 77 3f 17 da 6c 3f
       0.9364995 0.95678675 0.9684573 0.9252028
000060 c2 70 6e 3f 13 95 79 3f 61 33 76 3f a0 e8 76 3f
       0.93140805 0.97493094 0.9617215 0.9644871
000070 6b 68 75 3f 6d 86 71 3f 2e b3 76 3f cf ea 79 3f
       0.95862454 0.9434574 0.96367157 0.97623914
000080 81 9f 6e 3f 13 6d 74 3f 0e 52 75 3f f9 a8 6d 3f
       0.93212134 0.95478934 0.9582833 0.92835957
000090 40 8c 70 3f e1 bc 75 3f 6a 18 72 3f 19 46 71 3f
       0.93964005 0.9599133 0.945685 0.94247586
0000a0 a1 33 6f 3f 53 fa 77 3f a0 5b 6c 3f 79 64 6d 3f
       0.93438154 0.9686634 0.9232731 0.92731434
0000b0 17 96 74 3f 11 d6 6d 3f f7 61 74 3f 1f 47 75 3f
       0.9554152 0.92904764 0.9546198 0.9581165
0000c0 ca b1 79 3f 49 27 79 3f 77 d2 77 3f 6e b8 6c 3f
       0.9753691 0.9732557 0.9680552 0.9246892
0000d0 3e 7e 6c 3f 40 2f 75 3f 4b c8 71 3f 87 54 72 3f
       0.9238013 0.9577522 0.9444625 0.9466023
0000e0 05 4b 75 3f d4 14 78 3f f4 02 7a 3f 94 45 70 3f
       0.95817596 0.9690678 0.97660756 0.9385617
0000f0 b3 34 77 3f 75 a0 6c 3f 22 a7 70 3f d1 b1 6d 3f
       0.9656479 0.9243234 0.94005024 0.9284945
000100 f5 bf 6d 3f a7 63 7a 3f 44 57 6d 3f 31 e1 74 3f
       0.9287103 0.9780831 0.9271128 0.95656115
000110 fe b6 6f 3f d7 a9 72 3f e1 e9 75 3f 7b 81 78 3f
       0.936386 0.94790405 0.96059996 0.9707257
000120 9d ff 76 3f 6f a2 78 3f 03 0c 75 3f 0a 9f 7a 3f
       0.96483785 0.97122854 0.95721453 0.97898924
000130 ba 67 78 3f e5 aa 6f 3f 06 5f 73 3f 6f d0 76 3f
       0.97033274 0.9362014 0.9506687 0.96411794
000140 a1 d2 70 3f 2e 2b 70 3f d2 2d 74 3f a9 09 6d 3f
       0.94071394 0.93815887 0.95382416 0.92592865
000150 bd 2d 79 3f bd a6 71 3f 9d 8d 7a 3f 6d 11 79 3f
       0.97335416 0.9439505 0.97872335 0.97292215
000160 34 0f 6e 3f 59 b6 6f 3f a3 8f 71 3f b9 05 6f 3f
       0.9299195 0.93637615 0.943598 0.9336811
000170 ba b8 6e 3f b8 c7 74 3f 2f 27 70 3f d3 ac 6c 3f
       0.9325062 0.95617247 0.9380979 0.9245121
000180 b3 ab 6e 3f b2 ba 6d 3f 80 eb 75 3f d5 16 72 3f
       0.9323074 0.92863 0.9606247 0.9456609
000190 71 14 6f 3f 13 cd 77 3f 51 c9 77 3f 03 47 79 3f
       0.93390566 0.96797293 0.9679156 0.9737398
0001a0 08 dd 6c 3f f8 71 77 3f 45 27 74 3f bc 04 72 3f
       0.92524767 0.9665828 0.9537242 0.94538474
0001b0 54 f2 75 3f 97 b7 77 3f e6 51 76 3f 63 50 6d 3f
       0.9607289 0.9676451 0.9621872 0.92700785
0001c0 18 97 6c 3f c2 70 78 3f b1 c6 6c 3f 05 27 78 3f
       0.9241805 0.97047055 0.9249068 0.9693454
0001d0 ec f1 6e 3f 2b 19 75 3f 03 86 73 3f 3c 23 7a 3f
       0.93337893 0.9574153 0.9512636 0.97710013
0001e0 b6 cd 77 3f cf af 70 3f 35 b5 6d 3f a4 a0 6d 3f
       0.96798265 0.9401826 0.92854625 0.92823243
0001f0 3e 60 75 3f dd de 79 3f d9 2f 78 3f d2 85 72 3f
       0.9584998 0.9760569 0.9694801 0.94735444
000200 47 2a 7a 3f ab 02 6e 3f f8 76 79 3f fd 4f 6d 3f
       0.9772076 0.9297282 0.97447157 0.9270018
000210 29 15 76 3f 79 84 70 3f aa 3a 79 3f 8e 5f 6c 3f
       0.9612604 0.9395214 0.9735514 0.92333305
000220 4a 3b 75 3f 69 63 75 3f 8e c0 6d 3f 99 25 76 3f
       0.9579359 0.9585481 0.9287194 0.9615112
000230 f4 e1 6f 3f b6 46 79 3f 96 3c 76 3f f1 b7 73 3f
       0.9370415 0.9737352 0.96186197 0.9520255
000240 cc 02 70 3f a6 21 73 3f 32 8a 6f 3f dd 11 6e 3f
       0.9375427 0.9497322 0.93570244 0.9299601
000250 e3 16 6e 3f 73 55 70 3f c5 6f 6c 3f 8f b1 6c 3f
       0.9300367 0.93880385 0.92358047 0.9245843
000260 2c f5 73 3f 19 0b 74 3f 95 dd 7a 3f 0f 00 70 3f
       0.9529598 0.95329434 0.9799436 0.9375009
000270 1e 6c 78 3f d9 2a 79 3f 5c 7a 6e 3f ba ce 77 3f
       0.97039974 0.97331005 0.93155456 0.96799815
000280 65 eb 73 3f 8b 2c 72 3f f2 23 6d 3f 52 8c 77 3f
       0.9528106 0.9459922 0.92632973 0.96698487
000290 85 d1 70 3f ae 19 76 3f e2 99 79 3f 53 01 74 3f
       0.940697 0.96132934 0.9750043 0.9531452
0002a0 00 18 76 3f f1 f4 76 3f 43 27 6f 3f b0 ac 6f 3f
       0.9613037 0.964675 0.93419284 0.93622875
0002b0 f8 6e 72 3f 67 de 75 3f d1 6d 6d 3f 6f 6c 72 3f
       0.94700575 0.96042484 0.9274569 0.94696707
0002c0 63 83 6c 3f 58 69 6c 3f 25 a5 70 3f 2c 2b 7a 3f
       0.9238798 0.9234824 0.9400199 0.97722125
0002d0 ac b3 7a 3f 7d 56 73 3f 55 55 73 3f b6 75 6e 3f
       0.9793041 0.95053846 0.9505208 0.9314836
0002e0 76 eb 7a 3f ab 40 74 3f 21 8a 77 3f a2 77 79 3f
       0.98015535 0.95411175 0.96695143 0.9744817
0002f0 c0 59 70 3f a7 24 73 3f 54 bc 6f 3f a8 84 70 3f
       0.9388695 0.949778 0.9364674 0.9395242
000300 83 a6 75 3f a8 cb 70 3f ab 95 71 3f 45 01 71 3f
       0.959572 0.94060755 0.94369 0.9414256
000310 32 99 71 3f 4f b3 72 3f 0c 4a 6d 3f e4 4a 6d 3f
       0.9437438 0.94804853 0.9269111 0.926924
000320 ce c7 6f 3f b0 6f 71 3f aa 91 77 3f 08 a5 79 3f
       0.9366425 0.94311047 0.9670664 0.9751744
000330 cb f8 71 3f e0 d8 74 3f 23 fa 77 3f 03 09 70 3f
       0.9452025 0.95643425 0.96866053 0.9376375
000340 1b a1 6c 3f c1 cb 71 3f 41 c4 6c 3f a5 40 73 3f
       0.9243333 0.9445153 0.9248696 0.95020515
000350 a5 58 72 3f 6b bc 77 3f a0 d4 6f 3f 08 17 7a 3f
       0.9466651 0.9677188 0.93683815 0.9769139
000360 f4 9f 6d 3f 09 96 7a 3f ec ad 76 3f d5 01 7a 3f
       0.92822194 0.97885185 0.96359134 0.97659045
000370 d5 9b 74 3f f5 d1 78 3f a6 ce 73 3f 92 db 6c 3f
       0.9555028 0.9719537 0.95237195 0.9252254
000380 13 ec 71 3f ff a8 6d 3f 90 0e 6d 3f 6c ca 6c 3f
       0.94500846 0.9283599 0.92600346 0.9249637
000390 05 6c 78 3f fd 69 6c 3f 36 a3 7a 3f 28 75 7a 3f
       0.97039825 0.92349225 0.9790529 0.97835016
0003a0 f9 46 6f 3f 5e d6 6f 3f 39 8c 75 3f 40 6a 77 3f
       0.9346767 0.93686473 0.9591709 0.966465
0003b0 8f 2f 6f 3f bb 9d 76 3f 4c b4 73 3f 51 49 74 3f
       0.93431944 0.9633443 0.95196986 0.9542437
0003c0 35 8f 78 3f 8a fd 74 3f 82 95 79 3f f2 44 70 3f
       0.97093517 0.9569937 0.97493756 0.938552
0003d0 52 a1 76 3f b5 cd 78 3f d5 4d 6f 3f f9 06 73 3f
       0.96339905 0.97188884 0.9347814 0.94932514
0003e0 1e f2 77 3f 80 a1 6c 3f 19 f9 71 3f 10 d0 7a 3f
       0.96853817 0.9243393 0.9452072 0.9797373
0003f0 c6 a5 77 3f eb 02 73 3f 47 59 78 3f 9c f4 70 3f
       0.96737325 0.9492633 0.97011226 0.94123244

conv_time.bias f4 [40]
000000 d4 86 73 3f d4 86 73 bf 39 86 73 3f d4 86 73 bf
       0.95127606 -0.95127606 0.9512668 -0.95127606
000010 cf 86 73 3f bc 86 73 bf d5 86 73 3f d7 86 73 3f
       0.95127577 -0.95127463 0.9512761 0.95127624
000020 d2 86 73 bf d7 86 73 3f d5 86 73 3f 9a 86 73 bf
       -0.95127594 0.95127624 0.9512761 -0.9512726
000030 d4 86 73 bf d7 86 73 bf d8 86 73 3f 43 83 73 3f
       -0.95127606 -0.95127624 0.9512763 0.95122164
000040 d4 86 73 bf d5 86 73 3f cc 86 73 3f c9 86 73 bf
       -0.95127606 0.9512761 0.9512756 -0.9512754
000050 d4 86 73 3f d5 86 73 3f cc 86 73 3f c8 86 73 bf
       0.95127606 0.9512761 0.9512756 -0.95127535
000060 d2 86 73 3f cc 86 73 bf cf 86 73 3f d8 86 73 3f
       0.95127594 -0.9512756 0.95127577 0.9512763
000070 3d 86 73 bf d5 86 73 3f ce 86 73 bf cb 86 73 3f
       -0.95126706 0.9512761 -0.9512757 0.9512755
000080 c2 86 73 bf d8 86 73 bf d1 86 73 bf d4 86 73 bf
       -0.951275 -0.9512763 -0.9512759 -0.95127606
000090 d1 86 73 3f bf 86 73 bf d5 86 73 bf d2 86 73 3f
       0.9512759 -0.9512748 -0.9512761 0.95127594

conv_classifier.weight f4 [1, 40, 109, 1]
000000 5e f1 79 bf 2d 1a 7c bf 22 12 74 bf 10 50 78 bf
       -0.9763392 -0.9847744 -0.9534017 -0.96997166
000010 d0 b7 6e bf 65 60 7a bf 65 20 75 bf 30 2c 74 bf
       -0.93249226 -0.97803336 -0.95752555 -0.95379925
000020 27 a9 6b bf 40 72 77 bf 85 3c 6c 3f 9c 7e 6b bf
       -0.9205498 -0.96658707 0.92279845 -0.91990066
000030 77 99 6b 3f 24 11 6b bf 88 75 7b bf ef 17 74 3f
       0.92031044 -0.9182303 -0.98226213 0.9534902
000040 5c 00 79 3f f3 ae 6a 3f 41 f9 73 bf 7a f5 72 bf
       0.97266173 0.916732 -0.95302206 -0.9490582
000050 58 73 6c bf 68 c9 6f bf 91 2b 70 bf f2 ab 7a bf
       -0.923635 -0.93666697 -0.9381648 -0.9791862
000060 b7 e0 6a 3f f2 f7 6c 3f 22 2f 6e 3f c0 d4 77 3f
       0.9174914 0.92565835 0.9304067 0.96809006
000070 8a 46 78 bf cc 49 74 bf 24 dc 7b bf d2 ba 6c bf
       -0.96982634 -0.95425105 -0.9838278 -0.92472565
000080 d0 b0 6e 3f bd 68 79 3f 1d ba 72 bf bf 84 6b bf
       0.93238544 0.9742544 -0.94815236 -0.9199943
000090 69 c0 6f bf 47 77 71 bf 35 39 6d bf 48 76 6d 3f
       -0.9365297 -0.9432263 -0.92665416 0.9275861
0000a0 19 64 6d 3f 87 25 6a bf f0 7b 70 3f 6c 59 73 bf
       0.9273086 -0.9146351 0.93939114 -0.9505832
0000b0 1b 01 7c 3f 52 79 6a bf 9e da 71 bf 40 dc 7c bf
       0.98439187 -0.9159137 -0.9447421 -0.98773575
0000c0 c0 d7 6f bf 19 d9 74 bf 4e 39 75 3f 6e 9c 6b bf
       -0.93688583 -0.95643765 0.95790565 -0.9203557
0000d0 95 c9 6a bf a4 5a 7b bf a1 7d 7b bf 60 28 6f bf
       -0.9171384 -0.9818518 -0.9823857 -0.9342098
0000e0 3c 5e 76 bf 83 d6 6e bf 21 9e 72 bf a7 80 6c bf
       -0.9623754 -0.9329607 -0.94772536 -0.9238381
0000f0 74 93 6c bf 75 10 72 bf 53 be 6c 3f b0 e3 6b bf
       -0.92412496 -0.9455636 0.9247791 -0.921443
000100 bc c1 6a 3f af ca 6a bf e0 3d 7c 3f c6 ef 73 bf
       0.91701865 -0.9171552 0.98531914 -0.9528774
000110 d0 48 72 bf 36 21 6c bf 78 15 72 bf 99 72 76 bf
       -0.94642353 -0.92238176 -0.9456401 -0.9626861
000120 d9 86 6a bf 7c 51 75 bf 91 62 6f bf 55 7a 6f bf
       -0.9161201 -0.9582746 -0.93509775 -0.9354604
000130 c3 4e 79 bf 13 17 7b bf 6a c3 72 bf 8e ca 7a bf
       -0.97385806 -0.98082083 -0.9482943 -0.97965324
000140 ca 1e 6b 3f 7e 2c 76 bf cd be 6f bf d4 55 75 bf
       0.91843855 -0.9616164 -0.93650514 -0.9583409
000150 6a 2b 72 bf 3b fd 74 bf ee 94 75 bf a4 68 6d bf
       -0.94597495 -0.956989 -0.95930374 -0.92737794
000160 09 fe 71 3f 13 43 7b bf be 07 6c bf c5 09 77 3f
       0.9452825 -0.9814922 -0.92199314 0.9649928
000170 46 4d 6d bf 29 5b 6c bf ba 50 73 bf 67 ab 6e bf
       -0.92696035 -0.923266 -0.95045054 -0.9323029
000180 5b 71 6f 3f bc df 75 bf 3b 51 76 3f 1f c3 71 bf
       0.9353234 -0.96044517 0.962177 -0.94438356
000190 83 f1 6c bf 92 d7 6c bf 9c c9 6c bf ea 1c 70 bf
       -0.9255602 -0.92516434 -0.9249513 -0.9379412
0001a0 02 5f 7a 3f 1b 0b 72 bf 0d 16 6f bf 7e c1 79 bf
       0.9780122 -0.94548196 -0.9339302 -0.9756087
0001b0 3b f8 7b bf 26 ba 70 bf aa b9 70 bf fc df 72 bf
       -0.98425645 -0.9403404 -0.940333 -0.94873023
0001c0 3a c8 70 bf 85 d3 6a 3f a0 cd 72 3f 5e 90 71 bf
       -0.9405552 0.91729003 0.9484501 -0.9436091
0001d0 c6 a6 7a bf 64 e3 76 bf c7 08 6c bf 7d 91 7b bf
       -0.97910726 -0.9644072 -0.92200893 -0.9826887
0001e0 d2 3f 71 bf 98 02 73 bf b5 b8 6c bf f0 64 74 bf
       -0.9423801 -0.9492583 -0.9246934 -0.9546652
0001f0 65 39 6b bf 57 be 74 bf 9e 0b 6b 3f 92 45 71 3f
       -0.9188445 -0.95602936 0.918146 0.9424678
000200 b4 49 6c bf 5d fa 6e bf a1 58 6f bf 95 a3 79 bf
       -0.9229996 -0.93350774 -0.9349461 -0.9751523
000210 85 15 74 bf ed e6 71 bf 38 c0 6c bf 8f 45 74 bf
       -0.95345336 -0.9449299 -0.924808 -0.9541864
000220 e3 f3 6e bf 93 11 75 3f d4 98 7b 3f 0e 12 73 bf
       -0.9334089 0.9572994 0.9828007 -0.94949424
000230 72 b6 7a bf 23 ea 7b 3f 72 17 75 3f 19 64 6c 3f
       -0.9793464 0.9840414 0.957389 0.92340237
000240 4b cb 6b 3f 30 f7 6b 3f 33 92 78 bf 4f d9 70 3f
       0.92107075 0.92174053 -0.9709808 0.94081587
000250 9a 1a 6c bf 2b f2 6d bf 59 c8 70 bf 6c 41 74 bf
       -0.9222809 -0.92947644 -0.94055706 -0.95412326
000260 a5 cc 70 bf e4 2b 6b bf ae 3b 76 bf b1 9e 79 bf
       -0.9406226 -0.91863847 -0.96184814 -0.9750777
000270 57 98 77 bf c5 26 72 bf 03 03 6b bf ce 6a 73 bf
       -0.9671683 -0.9459041 -0.9180147 -0.95084846
000280 09 c1 6d bf ba 19 6c bf e6 18 6d bf 6f c8 79 bf
       -0.92872673 -0.92226756 -0.92616117 -0.9757146
000290 67 7a 74 bf 50 bf 71 3f 26 99 76 3f 74 d4 6d bf
       -0.9549927 0.94432545 0.96327436 -0.929023
0002a0 ad d9 6f 3f 71 fc 75 bf eb 47 78 bf 58 1f 7a bf
       0.9369152 -0.9608832 -0.9698474 -0.97704077
0002b0 bc 3b 6d bf 57 0b 71 bf b5 e0 77 bf c8 27 6b bf
       -0.9266927 -0.9415793 -0.9682725 -0.91857576
0002c0 a4 ab 78 bf 9a 14 79 bf 9b 33 6e bf 42 23 7b bf
       -0.971369 -0.9729706 -0.93047494 -0.98100674
0002d0 25 e7 6c bf 4f 6a 6d 3f 82 8f 76 3f ff 4f 79 bf
       -0.925402 0.9274034 0.96312726 -0.9738769
0002e0 32 33 6b bf b0 d8 6a bf e5 59 74 3f e4 9c 6a bf
       -0.9187499 -0.9173689 0.9544967 -0.91645646
0002f0 10 89 7c bf 64 df 75 bf fb b1 73 bf f5 5d 6c 3f
       -0.9864664 -0.9604399 -0.9519345 0.9233087
000300 6b f0 76 3f 93 bb 7c 3f 8e a7 71 3f 45 f5 6d bf
       0.964606 0.98723716 0.94396293 -0.92952377
000310 16 95 70 bf 85 21 7b bf a7 8e 73 bf dd 5e 6b bf
       -0.9397749 -0.9809802 -0.95139545 -0.91941625
000320 94 d7 74 3f fc ce 6e bf a0 1e 6d bf 7f 88 6c bf
       0.95641446 -0.93284583 -0.92624855 -0.92395777
000330 64 78 72 3f 7e cb 6f bf 51 94 7a 3f 6e 65 6e bf
       0.9471495 -0.9366988 0.9788256 -0.9312352
000340 cd 80 6a 3f fe e2 76 bf 0b 16 6c bf 64 d1 76 bf
       0.91602784 -0.9644011 -0.92221135 -0.96413255
000350 ae 00 71 3f 3e 09 78 bf 6b 2f 77 bf da f3 6a bf
       0.9414166 -0.968891 -0.9655673 -0.9177834
000360 10 b4 6a bf 4e 08 72 bf 18 ce 71 bf 1b 5b 7c 3f
       -0.91681004 -0.9454392 -0.944551 0.98576516
000370 ae b0 6e 3f 34 bb 73 3f 0f c5 78 bf 63 65 6c bf
       0.9323834 0.95207524 -0.9717569 -0.92342204
000380 8f ed 79 bf 48 30 6f 3f 6a d4 72 bf a5 64 7b bf
       -0.9762811 0.93433046 -0.9485537 -0.98200446
000390 31 19 73 bf 4f aa 6f 3f 33 ba 79 bf e6 d8 74 bf
       -0.94960314 0.93619245 -0.9754974 -0.9564346
0003a0 0d d1 6e bf 2e 61 74 bf fc f1 79 3f d5 65 70 bf
       -0.93287736 -0.95460784 0.97634864 -0.93905383
0003b0 d4 81 72 bf d0 3c 6d bf 7d 7f 6f 3f 75 84 73 bf
       -0.9472935 -0.9267092 0.93553907 -0.9512399
0003c0 ff 63 7b bf ae 59 79 3f bb bf 73 bf 46 a6 74 bf
       -0.98199457 0.97402465 -0.9521443 -0.95566213
0003d0 95 11 6d bf 55 73 7a bf 1a 77 6c bf 83 77 7b bf
       -0.92604953 -0.9783223 -0.92369235 -0.98229235
0003e0 b5 90 77 bf cc 16 70 bf 1b 6b 7c 3f e5 cd 73 3f
       -0.9670518 -0.93784785 0.9860093 0.95236045
0003f0 79 d6 6f bf 6d 41 6e bf 15 84 6a bf de bd 6b bf
       -0.93686634 -0.9306858 -0.9160779 -0.9208659
