final_presentation/final_results/shallow/interval1/7000/2021-10-14_02-13-47/checkpoints/best_model_1_trial_12_validation_acc=0.9555.pt (torch, 458319 bytes, 6 tensors)

conv_time.weight f4 [20, 62, 90, 1]
00000000: 9769 c93c 228d 4fbc fda7 053d 825c 71bb
00000010: 9d1a 7abc 4790 95bb c607 22bb 8354 e7bb
00000020: e273 863c 15af 6b3c 59c2 483c 42e1 aabb
00000030: 1a46 cbba 366e b1bc 53a9 a9bb 2eb4 1cbb
00000040: 4cd3 36bc 2f18 b03c 22d9 be3c 25cd 94bc
00000050: 8b98 b4bc 4f2c 73bc fd23 06bb c35f 7ebc
00000060: 9719 a6bb d66f 2d3b 5e79 b23c d269 373c
00000070: 51de 32bb 4d71 433c 7f47 2c3c a0c1 433c
00000080: 1eea cd3c 8cc1 b9bc 48f9 cabc 8436 17bc
00000090: dae4 a3bb 023c c7bc a38c 973c fd99 d43c
000000a0: 8c7f ebbc 3a87 063a 0d4e 173b f75b e93b
000000b0: 3518 9cbc 51dd b53b 8287 be3c 17b4 133c
000000c0: 5f20 a8bc 430f a2bc f229 da3b 316f 2eba
000000d0: b23d 8e3c a107 de3c 8557 563b ae6f 7f3c
000000e0: 30bf 07bb 161b 373b 2357 393c c6f2 6fbc
000000f0: 5d09 a03c 1f6c a0bb d298 7b3c 9008 e7bc
00000100: 6512 38ba c9b0 7fbc 33d2 c33b 5166 70b9
00000110: 765c 9d3b dbe0 eabc 421d 753c 30be e73c
00000120: 5559 b53c 8ac3 0dbc bdd7 aebc 1f1f c8bc
00000130: 544b 99bb f720 fd3b 7657 a9bc 76b0 213c
00000140: e0e0 39bc 8a1a 97bc 55a6 7bbc 2c77 b2bc
00000150: 9633 bc3b 2c2c 9b3c f732 b6bc b435 1d3c
00000160: e98b 273c 5455 c63b 8803 073d 7a0c 4e39
00000170: 0d84 10bb 1986 a23b 879c c33c afeb 90bb
00000180: 0df9 a8bc af33 a53c 8e1b 4a3c d8be e2bb
00000190: 8100 79bc eca9 543c d4b9 a83c 4ab2 473c
000001a0: 3c08 8b3c 7dce 283c 4851 603c 1c29 743c
000001b0: 6304 b63c 603f da3c 211e 59bb 5414 fabb
000001c0: c415 47bc 702b adbb 07d2 ebbc 5e5b c63c
000001d0: 85ba cd3b 4f40 ccbc aded 8d3b c2b6 2abc
000001e0: df5d b3bc 13e9 bebc f539 26bc a82b 63ba
000001f0: f723 9b3c 4eb4 4cbc 9e01 64bc 9579 2f3c
00000200: b372 cb3b 0c49 9abc 5588 e339 3847 ebbc
00000210: 1bc8 a8bc ef7d 913b 44b0 9e3a 2de5 bfbb
00000220: 2eef 9d3c 0095 51bc 1642 4d3b 296a 563c
00000230: 8f36 8abc 51cf 0dbc a84d bdbc 31aa 1dbc
00000240: 88f3 c03c c80e a53c 0f24 69bb 207c 163a
00000250: 89c9 debc ed91 4fbc 2583 3c3c c72a a23c
00000260: 1efb 903c 7571 7b3c a40f 673c 842d f33b
00000270: 49e0 bc3c 979f 573a ff1f debc 125a d2bc
00000280: da28 04bc ee94 ee3c 7d00 54bc 2019 46bc
00000290: ef21 063b 25cb 163c e015 62bc f36b 8bbc
000002a0: 8e08 093c 2570 7e3c 2bb5 e53c 4bb1 a63c
000002b0: 3990 ce3c 745f 953b cddf 96bc 29d5 213a
000002c0: f2a1 57bc 4966 c53c f1a8 843c f180 ab3b
000002d0: ada6 ae3c 9a27 993c 5f0a b2ba fad0 8d3b
000002e0: 8eb6 093d b215 a1bc a3ae 1abc c454 ce3c
000002f0: 10d1 47bc b24a 58bb f0b5 073b 043f 44bb
00000300: 1ba3 673c 505a a1bc b0bc 86bb 99ae a2bc
00000310: ea7d 95bc 5f37 e5b9 c0c2 573b 8303 d73c
00000320: dcba 37bc a992 4fbc e8d5 c93c e69c 693c
00000330: 9830 9e3c fbca c63c 5584 8ebb 2ba5 a9bb
00000340: 42c2 1abb 3ff6 913a 0572 d03c 64ca c43b
00000350: a465 25bc b450 38bb b118 40bb 8bc6 953c
00000360: a342 46bc 26f6 9b3c 8033 2e3c cb7b 673c
00000370: 56d7 f03c 1ea8 3abb 7a22 ad3a e0cd b2bc
00000380: edbf c93c 829d e63c c629 8f3c 3bb4 a23c
00000390: eb18 c33c ec62 eb3c c5d9 61bc fda6 133c
000003a0: ffb6 8f3b 505e 683b e7ff 603c bcda 8abc
000003b0: 6544 b23c 1885 aabc 2f15 11bc 67b5 c43c
000003c0: 70d7 4b3c 5fc4 9f39 9a4f 60bc 77f1 a6bc
000003d0: d595 52bc 6fe7 dd3c 9cf9 a33c 64da 1e3b
000003e0: 5958 f63c 98d3 9abb e911 073d 8f96 4cbb
000003f0: 1c8f f53b 20ed e53c 205b 583c e1ba 1f3c
0.024586482 -0.012667926 0.03263091 -0.003682882 -0.015265134 -0.0045643183 -0.0024723872 -0.007059635
0.01641268 0.0143850045 0.012253367 -0.005214841 -0.0015508563 -0.021658998 -0.0051776557 -0.0023911106
-0.011158776 0.021495907 0.023296896 -0.018164227 -0.022045394 -0.014842107 -0.0020468228 -0.015525761
-0.0050689685 0.0026464364 0.021786388 0.011194663 -0.0027293155 0.0119288685 0.010515093 0.011948019
0.02513605 -0.022675298 -0.02477707 -0.009229306 -0.0050016465 -0.024320606 0.018499678 0.025952334
-0.028747343 0.00051318447 0.0023087293 0.0071215588 -0.019054512 0.0055500646 0.023257975 0.009015105
-0.020523248 -0.019782668 0.0066578323 -0.0006654142 0.017363403 0.027103247 0.0032705974 0.015590591
-0.0020713322 0.0027939728 0.011312279 -0.014645284 0.019535715 -0.0048957015 0.015356259 -0.028202325
-0.0007021784 -0.015606114 0.0059759854 -0.000229263 0.004802282 -0.028671673 0.014960589 0.02828893
0.022137323 -0.008652577 -0.021343106 -0.024428902 -0.0046781693 0.007724877 -0.020671587 0.009868732
-0.011345118 -0.018445272 -0.015359481 -0.021785341 0.005743454 0.018941961 -0.022241099 0.009595323
0.010226228 0.0060526524 0.032962352 0.00019650339 -0.0022051365 0.0049598333 0.023878349 -0.004422627
-0.02062657 0.020166246 0.012335671 -0.006919723 -0.015197874 0.012979966 0.020596422 0.0121885035
0.0169717 0.010303137 0.013691254 0.014902379 0.022218889 0.026641548 -0.003312953 -0.007631818
-0.012151185 -0.005284719 -0.028786672 0.02421349 0.0062783384 -0.024933008 0.0043313117 -0.010419549
-0.021895347 -0.023304498 -0.010145654 -0.0008665868 0.018938048 -0.01249416 -0.013916401 0.01071014
0.0062087416 -0.01883366 0.0004339839 -0.028720483 -0.02060323 0.0044400613 0.0012106975 -0.0058561773
0.019279089 -0.012791872 0.0031319908 0.013086834 -0.016871719 -0.008655385 -0.023108318 -0.009623096
0.023553625 0.02014865 -0.003557447 0.0005740542 -0.027195709 -0.012669069 0.011505877 0.019795788
0.017697867 0.0153468745 0.01410285 0.0074211974 0.023056166 0.000822538 -0.027114866 -0.025677714
-0.00806638 0.02912375 -0.01293957 -0.012090951 0.0020467003 0.009203707 -0.013799161 -0.017019248
0.008363856 0.015529667 0.02804049 0.020348212 0.025215255 0.004558498 -0.018417263 0.0006173426
-0.013161169 0.024096625 0.016193839 0.005233877 0.021319712 0.018695641 -0.0013583413 0.0043278905
0.033621363 -0.019663665 -0.009441051 0.025186904 -0.0121958405 -0.0033003506 0.0020707808 -0.0029944787
0.0141380085 -0.019696385 -0.004111849 -0.019858645 -0.018248517 -0.00043719538 0.0032922477 0.026246792
-0.011213984 -0.012669244 0.024638131 0.014258599 0.01931028 0.02426671 -0.0043492713 -0.0051771603
-0.0023614322 0.0011136009 0.025444994 0.006005572 -0.010095034 -0.0028124275 -0.0029311592 0.01828315
-0.012100848 0.019038271 0.010632396 0.014128636 0.029399555 -0.0028481553 0.0013209127 -0.021826684
0.02462765 0.028151277 0.017475974 0.019861331 0.023815593 0.028733693 -0.01378483 0.009011981
0.0043858285 0.0035456605 0.013732887 -0.016950004 0.021761129 -0.020815417 -0.008855148 0.02401228
0.012441501 0.0003047315 -0.0136908535 -0.020378811 -0.012853106 0.027087895 0.020016484 0.0024239058
0.030071424 -0.004724931 0.032976065 -0.003121767 0.0074938666 0.028067172 0.01320532 0.009749145

bnorm.weight f4 [20]
00000000: 4971 a83f aa97 a83f 991a a83f bfb8 ac3f
00000010: 47e9 ab3f fc16 b03f 7953 a33f 261a ad3f
00000020: fa4f a43f 57d3 a83f 6886 aa3f 5df7 b03f
00000030: f86b a63f 20c6 ab3f b94b a83f 475b ad3f
00000040: 0734 a03f fafb b33f e28c a93f 7958 a83f
1.3159572 1.3171284 1.3133117 1.349388 1.3430566 1.3757014 1.2759849 1.3523605
1.2836907 1.3189496 1.3322268 1.3825489 1.30017 1.3419838 1.3148109 1.3543481
1.2515877 1.4061272 1.3246119 1.3152

bnorm.bias f4 [20]
00000000: 272d e5bd 3968 eebe 0e0b 5a3e 2998 d3bd
00000010: d0ec 953e d4c7 523d 5e34 02bf 14c8 813e
00000020: c01d 263e f4b7 14be 95fc 393c cecc f6bd
00000030: 5347 8b3e 4eed c73c 8366 4ebc dd87 7a3e
00000040: 9ef2 29bf 0932 dbbd f9ff 113d d248 33bd
-0.11190253 -0.4656389 0.2129328 -0.103317566 0.29282236 0.051460102 -0.50861156 0.2534796
0.16222286 -0.14523298 0.011351724 -0.12050782 0.27202854 0.024405148 -0.012597683 0.2446589
-0.6638583 -0.10702903 0.035644505 -0.04377062

bnorm.running_mean f4 [20]
00000000: 7b27 933c 4112 8d3b f070 8bba de44 f8bc
00000010: 6d95 8aba e103 343d f803 2bbc 1adc b43c
00000020: 17b8 97bb 4358 d13a 5067 a8bc b97b a5bc
00000030: f794 17bc 5b45 3b3c 2e28 ab3a b46d ddbc
00000040: e79b 08bd a327 0ebb 5ffa 343c 9f0f 0d3b
0.017963162 0.0043051546 -0.0010638516 -0.030306276 -0.0010573097 0.04394901 -0.010437958 0.022077609
-0.0046300995 0.0015971739 -0.020557076 -0.020200597 -0.009251825 0.01143011 0.0013058239 -0.02702985
-0.033351805 -0.0021691106 0.011046021 0.0021524203

bnorm.running_var f4 [20]
00000000: 19ad 5342 db1e 7542 ee48 f441 8805 4842
00000010: f1ea 6742 9e98 a742 d446 5342 bbba a242
00000020: c19a 0142 09d1 d041 0574 e341 6bbe 5c42
00000030: b1ac 1342 fafb 5a42 9e50 d141 8582 1e42
00000040: bd4a a942 9a17 8042 669b db41 50e6 f141
52.91904 61.280132 30.53561 50.0054 57.979435 83.79808 52.819168 81.36471
32.401127 26.102068 28.43165 55.185955 36.918644 54.74607 26.164364 39.62746
84.64597 64.0461 27.450878 30.237457

conv_classifier.weight f4 [1, 20, 109, 1]
00000000: f3a2 b33d e6b4 ac3d 90d3 c5bc a312 d7bd
00000010: 5497 0bbc d8b8 183e bfdf 8cbd 2154 4b3d
00000020: 9856 ab3d c1b0 633c e1cb f13c 4ff1 cbbd
00000030: 62fa a93d 7758 14bc fc4b 7ebd 5f05 98bd
00000040: eafa 9cbd 3d9c ccbd dce4 aeba 4e09 583d
00000050: 2bb2 83bd a79c 223d ce04 46bd 07aa 933c
00000060: 7e0c a9bd de75 acbc 8231 6abc 961a 03bd
00000070: 916e 94bd f0ac 51bc ad4a 163c 93fb 1e3d
00000080: 5437 a9bc fcc7 a73d 326e d4bd a27e 41bd
00000090: 5528 85b9 2430 973b a7cf d73d 06a6 b63c
000000a0: 8e96 213c cb45 d53a 1dfe 863d 37e9 86bd
000000b0: 23d8 393d 7f9d f23c 65bc 183e 268b fc3d
000000c0: 5bfc b9bc 0847 fc3c d1d3 a0bc 7bbf 983d
000000d0: 80d4 513c 1c54 97bd 56e3 d13d a32d a33c
000000e0: 5e57 c53d f8b2 8f3c 9f31 1a3a 1381 0d3d
000000f0: 3cfe b7bb 5362 33bd 559f 093e f101 a23d
00000100: 833e 113d 8736 80bc 942b 2dbe 1bff 023e
00000110: ce8a f93c 47c4 3bbd 1709 803d 0abd eebd
00000120: 7e51 96bd a5c4 8a3d 2789 cabd 2fdb 9a3c
00000130: 0cf5 b73c 1f70 e83c fe0b bd3c e731 8a3d
00000140: df08 cd3d bb83 df3c cb2f 393d 3285 653d
00000150: 5f19 43bc 6320 08bd 8599 9b38 18aa d5bd
00000160: d20f 48bd 943d 18bd 0eba 1d3d dfd6 913c
00000170: 982a 77bd 195c 0b3e 324d 1bbd 5a9d 6abc
00000180: 89b5 9c3d cd5c be3d a249 3b3d 005a d63d
00000190: eb07 b03d b7e6 e9bd fedf bc3d 4421 a83c
000001a0: 6062 513c 9ae8 103c 350e dc3c 3f13 90bd
000001b0: 2e9f 883d 7f78 553d b071 003e 61a0 7f3d
000001c0: 26c4 1abd 5c1c 99bd 1307 c13c 8c20 5abd
000001d0: 2d1e 22bd f433 09be c06a 4cbe 56af 16bd
000001e0: 96fe 26bd 73b9 1b3d 5d23 6cbc 160b 06bd
000001f0: 8853 25bd e9fa 233a 1eb4 81bc e0c5 f4bd
00000200: a106 16bc 18e3 93bd f968 92bc 2b3e 56bd
00000210: 668e c5bd 816b 783c cea6 c13a 96ae 853d
00000220: dc0d 163d bce2 0f3e a649 be3c 76bc c0bd
00000230: c8ad 2bbc a482 9bbc 3dc5 34bd c599 033e
00000240: 3069 6dbc 1681 953d 67ff e43d dda3 efbd
00000250: af04 333d 6b53 0f3c c69f dd3d 2c4b 163d
00000260: 27f9 153d fd8c 22be 4ae6 733c af25 393c
00000270: e113 bb3d d2cb 523d 203e 123d 6819 423e
00000280: 79fd c93d 47ef 92bd b671 43bd c07f 533d
00000290: 2604 463d 68d4 cebd 71a0 983c d042 5a3d
000002a0: e86d cb3c 7f4a 03be 8df4 d5bb b85f 96bc
000002b0: 95dd 463c 9d1e c13c 3e65 683d b34a d3bc
000002c0: 76a9 a53d 23d2 ca3c 8776 29be c588 683d
000002d0: c6db b6bc a961 9c3d 17dd b23d 55f3 05bb
000002e0: 32de 3d3d e842 103e 3770 d43d 4a40 1dbc
000002f0: 3bf4 143e 8e31 71bd 0bd8 3a3d 7ed6 6a3d
00000300: cdce 903d e286 44bd d0a4 9d3d 8a92 073b
00000310: e171 f9bb e17a 11bd 3fa7 153d 6a06 e43b
00000320: dfb2 183e f926 933c 48b2 613c 7559 f8bc
00000330: 6d16 063d f64b 4c3d c14c 383c abce d53c
00000340: a07a 3cbd bcda aa3c fe48 ce3d f988 2ebc
00000350: 70ca 1e3d cab8 0c3d 3b0c 01bd ab89 323d
00000360: d648 ee3c b478 e23c f8fc 87bd cd53 95bc
00000370: 242b 74bd f51e 8a3d 3581 7dbc 171b 6b3e
00000380: e69a 783e fa28 ad3c 6ca5 683d 4680 983d
00000390: 4803 efba 2869 a2bd 9ca8 0b3b 8fef c9bd
000003a0: f2d9 be3d 6da9 b43c 11ab 503d 86ba a33d
000003b0: 2665 503b 4cff d13d 4d45 2dbd 8691 ec3d
000003c0: d1c2 273d 60d8 423d 4854 b039 149a 9e3c
000003d0: 7aad de3b a98e 01bd edbe 43bd eda4 bcbd
000003e0: 424e a33d e445 efbd 904f f8bc 2653 35bd
000003f0: 5adb d1bc a10e c23c fd55 8c3d ecfb e13b
0.087713145 0.08432941 -0.024148732 -0.105016015 -0.008519966 0.14914262 -0.06878614 0.04964078
0.08366126 0.013897122 0.029516162 -0.09958135 0.0829971 -0.009054295 -0.062084183 -0.074228995
-0.076650456 -0.099907376 -0.0013343352 0.05274325 -0.06430467 0.039700177 -0.048344426 0.018025411
-0.08254336 -0.021052297 -0.01429403 -0.032007776 -0.07247651 -0.012797579 0.0091730775 0.03881414
-0.020656265 0.08192441 -0.103725806 -0.047239907 -0.00025397787 0.004613893 0.105376534 0.022295963
0.009862555 0.001627141 0.06591437 -0.06587451 0.04537214 0.029616116 0.14915617 0.12331228
-0.02270334 0.03079559 -0.019632252 0.07458397 0.012807012 -0.073890895 0.10248439 0.019919222
0.096358046 0.017541394 0.0005882028 0.034546923 -0.005615024 -0.04379494 0.13439687 0.079105265
0.035460006 -0.015651 -0.16911155 0.12792628 0.030461695 -0.04584148 0.06251734 -0.1165715
-0.07339762 0.06775788 -0.09889441 0.018903343 0.022455715 0.028373776 0.023077007 0.06747799
0.10011458 0.027284494 0.045211595 0.056035228 -0.011907904 -0.03323401 7.419571e-05 -0.104328334
-0.048843212 -0.0371681 0.038507514 0.017802654 -0.060343355 0.13609351 -0.037915416 -0.014319742
0.076518126 0.09295044 0.04572452 0.10466385 0.0859526 -0.114209585 0.092224106 0.020523675
0.012779802 0.008844519 0.026862243 -0.07034921 0.06670986 0.052116867 0.12543368 0.06240881
-0.037784718 -0.07476112 0.023562944 -0.053253695 -0.03957956 -0.13398725 -0.19962597 -0.036788307
-0.040770136 0.038018655 -0.014412728 -0.032725416 -0.040362865 0.0006255345 -0.015832957 -0.11951804
-0.009156854 -0.07221049 -0.01787232 -0.05230538 -0.09646301 0.01516235 0.0014774443 0.0652744
0.03663431 0.14051336 0.023228478 -0.09410946 -0.010478444 -0.018983193 -0.044133414 0.12851627
-0.014490411 0.07300012 0.11181527 -0.11701176 0.04370564 0.008747916 0.1082149 0.036692783
0.036614563 -0.15874095 0.014886448 0.011300488 0.09134651 0.05146391 0.03570378 0.18955004
0.09862799 -0.07174545 -0.047715865 0.051635504 0.0483438 -0.10099107 0.018631192 0.053286374
0.02483268 -0.12821387 -0.006529397 -0.01835619 0.01213779 0.023574168 0.056737177 -0.025792455
0.08088963 0.024758404 -0.16549121 0.05677106 -0.022321593 0.07635815 0.08733576 -0.0020439227
0.04635448 0.14088023 0.10372966 -0.009597847 0.14546292 -0.05888515 0.04561619 0.057333462
0.07070694 -0.047980197 0.07697451 0.002068671 -0.0076124524 -0.035517577 0.03653645 0.0069587724
0.14911984 0.01796292 0.013775416 -0.030316094 0.03273623 0.04987713 0.011248768 0.026099524
-0.04601538 0.020856254 0.10072516 -0.010652774 0.03876728 0.034355916 -0.031505805 0.04358832
0.029087465 0.027645446 -0.06640047 -0.018228436 -0.059611455 0.06744186 -0.0154727 0.22959553
0.24277839 0.021137703 0.056798384 0.07446341 -0.0018235231 -0.07930213 0.0021310216 -0.09860145
0.093189135 0.022053445 0.05094439 0.07994561 0.003179857 0.10253772 -0.04230242 0.11551194
0.040957276 0.047569633 0.0003363213 0.01936058 0.0067955824 -0.031630192 -0.047789503 -0.092111446
0.07973911 -0.116832525 -0.030311376 -0.04426875 -0.02561729 0.023688616 0.068523385 0.0068964865
