final_presentation/final_results/shallow/interval1/7000/2021-10-14_02-13-47/checkpoints/best_model_1_trial_69_validation_acc=0.7844.pt (torch, 512143 bytes, 6 tensors)

conv_time.weight f4 [20, 62, 100, 1]
0.025454476 0.018370882 0.012389123 0.022311065 0.013023501 0.012941346 0.002741922 -0.0074236207
0.010032739 0.023860933 0.007248329 0.03161618 0.0006353141 0.016321473 0.024499932 -0.010815935
-0.019413685 -0.00060732884 0.019106675 0.022057578 0.007125449 0.029467206 0.029069543 -0.0003294031
0.01707554 0.02958885 0.018991616 -0.022621565 0.010575758 1.0807648e-05 -0.008167912 -0.016886236
0.018508747 -0.0029531086 0.017064184 0.016616236 -0.0076671736 0.0012760278 0.021980539 0.009894955
0.0008616164 0.017919356 -0.013178552 0.027877945 -0.0100657195 0.0078866305 -0.013205648 0.0063748895
0.0031553986 0.0061466796 3.0358848e-05 -0.019026628 -0.014010202 -0.019574625 0.014181249 0.0075127515
0.00876192 -0.01275045 0.0057671648 0.017222943 -0.009910356 0.019646501 0.017011605 -0.013765392
-0.017527256 0.008404228 -0.0047857966 0.028721316 0.010792811 0.020285195 0.021083055 -0.009622735
0.008227298 -0.011299116 -0.015578194 0.019803567 -0.01025916 -0.016868755 0.025038322 0.0171314
0.014211874 0.018720634 0.030478716 -0.019874014 0.019309582 0.011230838 -0.015164137 -0.0013773288
-0.008561553 0.009753513 0.029883204 0.0068311873 -0.00997291 0.018562801 -0.014225801 0.02381591
0.03255243 -0.008583257 -0.019028917 -0.013876599 -0.016118394 0.00317661 -0.005498874 -0.015190064
-0.0033588295 0.016290221 -0.005368213 0.0046307165 -0.007360907 0.015763272 -0.008911298 0.011449696
-0.01650803 -0.014990457 0.0032840867 -0.0069635897 0.018968431 -0.0022654058 0.0072297812 0.024318153
0.0007378707 0.017434536 0.020168342 -0.022848018 -0.0018650342 0.012690194 0.026225518 0.023186417
0.005029466 -0.02037555 0.008057541 0.026288567 0.012141342 0.011277437 -0.011206626 -0.011847344
-0.00016629197 0.02343589 -0.014382215 0.0087011475 0.0046569374 -0.012792747 -0.018381102 -0.020784715
-0.025206547 -0.0058823433 -0.017893204 -0.014637782 -0.004986601 -0.021800807 -0.0086072525 0.008048847
0.0018511185 0.026585255 0.01981464 0.016416028 0.026148217 -0.017916748 -0.008537109 -0.012376499
0.008716064 -0.012296289 -0.009767332 -0.01738276 0.0036228518 -0.015476345 -0.0130614955 -0.0046610297
0.022906452 -0.004929663 -0.018506698 -0.017742649 0.02859328 0.019706931 0.013981028 -0.006472194
0.001653675 0.003621474 -0.0016100424 0.0012543832 -0.017773675 0.016794514 0.006656321 -0.01579757
0.0033720774 -0.0093700215 0.008982659 -0.011439459 0.0077503105 0.007683466 0.01293143 0.001494806
-0.021362988 -0.006448101 0.013190646 -0.021122988 0.028232196 0.03173339 -0.01625818 0.026913472
0.027221108 0.0024425113 0.00010953275 0.023610229 0.018024188 0.024664175 0.010578647 0.0039346484
-0.014685297 0.0110665355 0.025651345 0.029602794 0.01948537 -0.014374039 -0.016094957 0.031011121
-0.0062864986 0.028251527 -0.01858689 -0.0022537084 -0.015524363 0.0063450253 0.016288726 0.02288415
-0.004817299 -0.007858296 0.0006371046 -0.010788349 -0.015979024 -0.008943518 0.029783163 0.002127513
0.022501517 0.030448379 -0.010775643 -0.011665559 0.006962703 0.004699596 0.022398937 -0.022340128
-0.018364789 0.029959485 0.023083083 0.0076053767 -0.0089186495 -0.008735556 0.010506566 0.01108956
0.0050991033 0.029187405 0.01627346 0.0036042838 -0.0014153365 0.012656211 0.011220088 -0.01295602
00000000: e885 d03c 887e 963c c0fb 4a3c b2c5 b63c
00000010: 8660 553c f007 543c d1b1 333b d841 f3bb
00000020: 5b60 243c 0178 c33c 6483 ed3b f87f 013d
00000030: 358b 263a 9cb4 853c 15b4 c83c 5235 31bc
00000040: 7309 9fbc 2635 1fba 9a85 9c3c 18b2 b43c
00000050: 997c e93b 3665 f13c 4023 ee3c bcb3 acb9
00000060: 01e2 8b3c 5164 f23c 4e94 9b3c dc50 b9bc
00000070: f245 2d3c 7f52 3537 b5d2 05bc 0155 8abc
00000080: a89f 973c f188 41bb 30ca 8b3c c61e 883c
00000090: ea3c fbbb 6340 a73a 8810 b43c 731e 223c
000000a0: 19de 613a 9dcb 923c daea 57bc 4a60 e43c
000000b0: b0ea 24bc ed36 013c 815c 58bc 73e4 d03b
000000c0: ceca 4e3b 166a c93b 21ab fe37 bbdd 9bbc
000000d0: 0c8b 65bc f75a a0bc 7858 683c 872d f63b
000000e0: 288e 0f3c 43e7 50bc 7cfa bc3b 2117 8d3c
000000f0: 0c5f 22bc b3f1 a03c ec5b 8b3c 3d88 61bc
00000100: 5295 8fbc e3b1 093c 2cd2 9cbb f748 eb3c
00000110: 55d4 303c 232d a63c 5fb6 ac3c ada8 1dbc
00000120: cacb 063c ed1f 39bc ae3b 7fbc 173b a23c
00000130: 0916 28bc 5830 8abc 2b1d cd3c 2657 8c3c
00000140: ecd8 683c 045c 993c 80ae f93c d4ce a2bc
00000150: 212f 9e3c 8c01 383c 0073 78bc 7c87 b4ba
00000160: c245 0cbc 33cd 1f3c 9fcd f43c 27d8 df3b
00000170: 6b65 23bc 0411 983c 5613 69bc 9519 c33c
00000180: b255 053d caa0 0cbc 88e2 9bbc ad5a 63bc
00000190: b90a 84bc ac2e 503b e62f b4bb bfdf 78bc
000001a0: cf1f 5cbb 1273 853c d6e7 afbb 44bd 973b
000001b0: c333 f1bb fa21 813c b100 12bc 8197 3b3c
000001c0: d93b 87bc 899a 75bc d539 573b d32e e4bb
000001d0: af63 9b3c 3477 14bb cde7 ec3b dd36 c73c
000001e0: aa6d 413a dfd2 8e3c 1438 a53c c42b bbbc
000001f0: 2a74 f4ba 88ea 4f3c e6d6 d63c 71f1 bd3c
00000200: 38ce a43b a0ea a6bc c703 043c 1f5b d73c
00000210: 7bec 463c 00c5 383c ff9b 37bc 5d1b 42bc
00000220: a95e 2eb9 a0fc bf3c 62a3 6bbc 428f 0e3c
00000230: 3999 983b ab98 51bc f793 96bc b544 aabc
00000240: f67d cebc acc0 c0bb c594 92bc 4fd3 6fbc
00000250: a466 a3bb 9b97 b2bc 6f05 0dbc 50df 033c
00000260: 3ba1 f23a 52c9 d93c 5052 a23c e87a 863c
00000270: c934 d63c 25c6 92bc 3bdf 0bbc cdc6 4abc
00000280: d2cd 0e3c 6076 49bc 2907 20bc 4a66 8ebc
00000290: 5e6d 6d3b 7f90 7dbc e2ff 55bc 8dbb 98bb
000002a0: 50a6 bb3c 0389 a1bb 5c9b 97bc 0859 91bc
000002b0: 743c ea3c 6e70 a13c af10 653c b314 d4bb
000002c0: 20c0 d83a 4056 6d3b 0f08 d3ba 1e6a a43a
000002d0: 199a 91bc a694 893c 451d da3b e869 81bc
000002e0: 12fe 5c3b b884 19bc 012c 133c 926c 3bbc
000002f0: 51f6 fd3b 96c5 fb3b 59de 533c 5eed c33a
00000300: 6f01 afbc 974a d3bb 941d 583c 1e0a adbc
00000310: 3547 e73c dffa 013d e02f 85bc a479 dc3c
00000320: cdfe de3c 8a12 203b f3b4 e538 3d6a c13c
00000330: 76a7 933c 860c ca3c 1052 2d3c 39ee 803b
00000340: 9a9a 70bc 6a50 353c c522 d23c 8f81 f23c
00000350: c89f 9f3c 1781 6bbc 92d9 83bc 090b fe3c
00000360: f9fe cdbb bf6f e73c 8943 98bc f4b2 13bb
00000370: e659 7ebc eee9 cf3b ef6f 853c 8a77 bb3c
00000380: 6fda 9dbb 15c0 00bc 5e03 273a 9ec1 30bc
00000390: 71e6 82bc d587 12bc d2fb f33c bf6d 0b3b
000003a0: 1a55 b83c e16e f93c 538c 30bc e720 3fbc
000003b0: 6327 e43b 12ff 993b fa7d b73c a502 b7bc
000003c0: c171 96bc 986d f53c bc18 bd3c 8636 f93b
000003d0: 871f 12bc 941f 0fbc bb23 2c3c fcb0 353c
000003e0: 6116 a73b 6d1a ef3c eb4f 853c d935 6c3b
000003f0: d082 b9ba ff5b 4f3c 76d4 373c 7d45 54bc

bnorm.weight f4 [20]
1.4650781 1.4002167 1.4417346 1.4460878 1.4802705 1.4253553 1.4365655 1.4102623
1.4720677 1.4603246 1.3990058 1.495629 1.4761804 1.4695798 1.4057673 1.4017594
1.4513222 1.4590536 1.4674939 1.513729
00000000: ae87 bb3f 4d3a b33f c28a b83f 6819 b93f
00000010: 8179 bd3f 0b72 b63f 61e1 b73f 7a83 b43f
00000020: b76c bc3f ebeb ba3f 9f12 b33f c570 bf3f
00000030: 7bf3 bc3f 311b bc3f 2ff0 b33f da6c b33f
00000040: edc4 b93f 45c2 ba3f d7d6 bb3f dfc1 c13f

bnorm.bias f4 [20]
0.34248695 0.2769941 -0.08957147 0.13053036 -0.08031779 0.053855326 -0.07185779 -0.07696138
-0.23883393 -0.01388441 0.10910307 -0.13429083 -0.19704148 -0.16239925 -0.34624806 0.31819028
-0.82620156 -0.39721635 0.06145464 -0.37181422
00000000: 735a af3e 2cd2 8d3e 3f71 b7bd c0a9 053e
00000010: a77d a4bd 6797 5c3d 2d2a 93bd ee9d 9dbd
00000020: e290 74be 707b 63bc 6e71 df3d 8983 09be
00000030: 3ec5 49be fd4b 26be 6d47 b1be d6e9 a23e
00000040: f281 53bf f15f cbbe dcb7 7b3d 6f5e bebe

bnorm.running_mean f4 [20]
0.01186134 0.019674323 0.01375969 0.035179622 -0.0075413026 -0.013853945 0.02883549 0.015850443
0.016402869 0.019039027 -0.025226006 0.03040553 0.03170325 0.043542102 0.03937898 0.0038103317
-0.00040258057 0.021893619 -0.0324976 0.020805135
00000000: 1156 423c 0c2c a13c 5370 613c 8218 103d
00000010: 081d f7bb a8fb 62bc 6838 ec3c cad8 813c
00000020: 4f5f 863c bcf7 9b3c c5a6 cebc 0515 f93c
00000030: 44db 013d 3459 323d da4b 213d c2b6 793b
00000040: 7311 d3b9 3f5a b33c 341c 05bd 886f aa3c

bnorm.running_var f4 [20]
182.58208 140.50327 94.04343 137.55347 158.49765 98.306114 123.50508 150.5196
143.71942 229.89445 87.93407 116.9712 194.55466 126.77478 231.79324 82.57248
581.1814 238.5569 192.09671 174.38419
00000000: 0395 3643 d680 0c43 3c16 bc42 b08d 0943
00000010: 667f 1e43 bb9c c442 9a02 f742 0585 1643
00000020: 2cb8 0f43 fbe4 6543 3ede af42 41f1 e942
00000030: fe8d 4243 b08c fd42 12cb 6743 1c25 a542
00000040: 9c4b 1144 918e 6e43 c218 4043 5a62 2e43

conv_classifier.weight f4 [1, 20, 162, 1]
-0.04070417 -0.016064543 -0.04765779 -0.018537894 0.044576608 0.016413402 -0.02472162 -0.10179034
0.012522583 0.005094792 0.03604267 0.064749196 0.11491067 0.14451319 0.013443374 0.056158703
0.062009122 0.049217932 0.08239614 0.018347206 0.053217083 0.06142734 0.10136421 -0.058002945
-0.02244553 0.0069712624 0.023909513 0.045658905 0.053142942 0.028948763 0.05499937 0.0108863255
-0.023073861 0.015651455 -0.003289513 -0.024617866 0.025718113 0.02194999 0.09074366 0.022653908
0.013614106 -0.017662184 0.01821967 -0.05334653 0.006275201 -0.11711467 -0.048460446 -0.029059695
0.058114108 0.07708198 -0.0061964323 -0.021760643 -0.0050343056 0.0005827391 -0.01677772 -0.025092693
-0.017303707 0.026474653 -0.121306166 -0.054692697 0.038506668 0.048145518 -0.08991858 -0.036715947
-0.003919385 0.00090571877 0.024750652 0.046814166 0.0039359075 -0.011413243 -0.056371566 0.012831505
-0.0068922336 -0.019823547 0.041724615 -0.09343233 -0.031897232 0.04439255 -0.054365706 -0.037931737
-0.013933831 0.04652252 0.040270157 -0.056101426 -0.07330416 -0.009687051 -0.08052142 0.04423637
0.027410733 0.008401549 0.0524659 -0.07214152 -0.016745515 0.0557787 -0.021735143 0.080995165
-0.0697239 0.03913635 -0.0356758 0.06698735 -2.567323e-05 -0.008322682 0.034772255 0.028780552
0.03697833 -0.05321963 -0.0721938 -0.030218264 -0.0049438016 -0.058077276 -0.07626007 0.037183978
0.09656438 -0.018902224 0.08084617 0.010636544 0.00466536 -0.0031511069 -0.0586186 0.029673006
0.07320363 -0.021923317 0.012730891 0.04178093 0.057372358 0.012601569 -0.0054445188 -0.005425273
0.04334679 -0.04258363 -0.055572733 -0.016976649 -0.023027075 0.009396101 -0.05955265 -0.046197984
-0.0076474766 -0.052510075 -0.081690796 -0.09326138 -0.037143543 -0.025872076 -0.021798579 0.0041017956
0.013549895 0.016346747 -0.081383936 0.08388745 -0.023330621 0.0008691892 0.04097125 0.060940623
0.018781345 0.0041026142 -0.031541787 -0.02700697 -0.059329327 -0.08362085 0.056466233 -0.017903326
0.022140333 -0.11043338 -0.015534338 -0.074411646 -2.4656269e-05 -0.002390932 -0.07978341 -0.057937067
-0.023287978 -0.06404227 0.02204465 -0.0683408 0.02508857 0.008747695 -0.069276504 -0.029992815
-0.005142714 -0.087255895 0.0073223524 0.010983396 -0.07912536 0.040951326 -0.015832046 -0.027921684
-0.00049440697 -0.025093611 -0.012823034 0.0017060838 -0.036574412 0.013909203 -0.09804836 -0.023006488
0.0073743826 0.005681994 -0.060869146 -0.10545709 -0.04488234 -0.06966438 0.02002347 0.02107302
-0.020192238 0.018660922 0.013814509 -0.06434618 -0.02413171 -0.049658086 -0.035855576 0.04659177
-0.03801578 0.055345003 0.017043246 0.00051519333 0.01666818 0.015787883 0.02190153 -0.07384859
-0.028432254 0.014702404 -0.03948081 -0.038327012 0.06693837 -0.09942744 0.06311049 0.09612019
0.0021330486 -0.058885287 0.09522423 -0.039305266 -0.021132326 -0.0074499147 -0.014389673 -0.009294275
-0.019123254 0.06970558 0.037534203 0.04176085 0.02251141 0.009345346 0.030893132 0.06832756
0.09287303 -0.00086478586 0.12983552 0.06671928 -0.02540456 0.030694671 0.009186513 -0.07952267
0.031361468 -0.021286005 0.043853387 0.05764714 0.041180644 -0.018766595 -0.0030535762 0.05554113
00000000: 6ab9 26bd ca99 83bc d134 43bd c8dc 97bc
00000010: f695 363d 6675 863c ff84 cabc 7477 d0bd
00000020: 852b 4d3c 37f2 a63b 7ba1 133d 3a9b 843d
00000030: 4956 eb3d 44fb 133e 9941 5c3c ab06 663d
00000040: 47fd 7d3d be98 493d 4fbf a83d e14c 963c
00000050: 28fa 593d 3c9b 7b3d 0a98 cf3d 7f94 6dbd
00000060: b0df b7bc 306f e43b e2dd c33c d504 3b3d
00000070: 6aac 593d f525 ed3c 0547 613d 8f5c 323c
00000080: 6505 bdbc 7b37 803c df94 57bb 68ab c9bc
00000090: cbae d23c 77d0 b33c d0d7 b93d b094 b93c
000000a0: b30d 5f3c 49b0 90bc 6b41 953c e481 5abd
000000b0: 34a0 cd3b d1d9 efbd 767e 46bd 990e eebc
000000c0: 0f09 6e3d 28dd 9d3d 710b cbbb 6043 b2bc
000000d0: d1f6 a4bb f6c2 183a 6e71 89bc 318f cdbc
000000e0: 81c0 8dbc 5fe1 d83c 5e6f f8bd 7305 60bd
000000f0: 2bb9 1d3d 3c34 453d 3c27 b8bd 7663 16bd
00000100: 2f6e 80bb c26d 6d3a e1c1 ca3c 36c0 3f3d
00000110: c9f8 803b 9cfe 3abc dfe5 66bd 3c3b 523c
00000120: 3fd8 e1bb fe64 a2bc 6ee7 2a3d 7359 bfbd
00000130: aca6 02bd f6d4 353d 93ae 5ebd 4f5e 1bbd
00000140: b94a 64bc 668e 3e3d 52f2 243d 9cca 65bd
00000150: 7e20 96bd 70b6 1ebc 6ae8 a4bd 3231 353d
00000160: 798c e03c a7a6 093c 7ce6 563d efbe 93bd
00000170: e42d 89bc 3578 643d e60d b2bc cbe0 a53d
00000180: 67cb 8ebd 704d 203d ca20 12bd aa30 893d
00000190: d75c d7b7 dc5b 08bc 5a6d 0e3d 31c5 eb3c
000001a0: 9776 173d d4fc 59bd 58da 93bd 4b8c f7bc
000001b0: 9dff a1bb 70e2 6dbd 3d2e 9cbd 3a4e 183d
000001c0: 8cc3 c53d d6d8 9abc ad92 a53d e644 2e3c
000001d0: e0df 983b cd82 4ebb 0f1a 70bd ce14 f33c
000001e0: c9eb 953d 8798 b3bc 3a95 503c 7b22 2b3d
000001f0: 47ff 6a3d d076 4e3c ef67 b2bb 7dc6 b1bb
00000200: 678c 313d 2c6c 2ebd 3ca0 63bd 9d12 8bbc
00000210: 47a3 bcbc 1bf2 193c 7bed 73bd 193a 3dbd
00000220: af97 fabb ce14 57bd 814d a7bd d3ff bebd
00000230: d423 18bd adf1 d3bc ef92 b2bc 5b68 863b
00000240: 6100 5e3c 9de9 853c 9fac a6bd 2fcd ab3d
00000250: dc1f bfbc 4dda 633a 78d1 273d e09c 793d
00000260: 56db 993c 396f 863b f631 01bd b93d ddbc
00000270: 4f03 73bd 6941 abbd 2349 673d ffa9 92bc
00000280: a55f b53c e52a e2bd bc83 7ebc 2265 98bd
00000290: efd4 ceb7 2fb1 1cbb 7c65 a3bd 6b4f 6dbd
000002a0: 6ec6 bebc 9828 83bd fb96 b43c 43f6 8bbd
000002b0: 8b86 cd3c 7e52 0f3c d7e0 8dbd 7eb3 f5bc
000002c0: 3684 a8bb 38b3 b2bd 58f0 ef3b b4f3 333c
000002d0: 7a0c a2bd 94bc 273d 35b2 81bc 04bc e4bc
000002e0: 179b 01ba 1e91 cdbc b417 52bc ac9e df3a
000002f0: 0dcf 15bd 6de3 633c 94cd c8bd 1a78 bcbc
00000300: cea4 f13b 0530 ba3b ed51 79bd e3f9 d7bd
00000310: 8bd6 37bd 33ac 8ebd 4308 a43c 53a1 ac3c
00000320: 316a a5bc cade 983c 4056 623c eec7 83bd
00000330: ddaf c5bc 4766 4bbd 4cdd 12bd 03d7 3e3d
00000340: 6fb6 1bbd 71b1 623d 479e 8b3c 0a0e 073a
00000350: b58b 883c 9755 813c d66a b33c ee3d 97bd
00000360: c2ea e8bc 5ae2 703c a1b6 21bd c9fc 1cbd
00000370: fc16 893d 9da0 cbbd 1340 813d aada c43d
00000380: 9eca 0b3b b331 71bd ec04 c33d 8ffe 20bd
00000390: b31d adbc 6a1e f4bb aac2 6bbc 0447 18bc
000003a0: 5fa8 9cbc cdc1 8e3d 77bd 193d 6d0d 2b3d
000003b0: d969 b83c 391d 193c 9813 fd3c 52ef 8b3d
000003c0: 3734 be3d ccb2 62ba 9af3 043e 1ea4 883d
000003d0: 391d d0bc 6473 fb3c 0783 163c c8dc a2bd
000003e0: e274 003d fd5f aebc 9c9f 333d 681f 6c3d
000003f0: 09ad 283d 67bc 99bc 821e 48bb 197f 633d
