final_presentation/final_results/shallow/interval1/7000/2021-10-14_02-13-47/checkpoints/best_model_1_trial_23_validation_acc=0.9683.pt (torch, 512143 bytes, 6 tensors)

conv_time.weight f4 [20, 62, 100, 1]
000000 05 7b a9 bc 63 b8 d9 3c d3 2f 98 3c 93 87 4e 3c
       -0.020688543 0.02657718 0.018577492 0.012605566
000010 d0 60 b4 bc 79 70 3f bc 1e 37 d6 3c 4a c4 49 ba
       -0.02201882 -0.01168453 0.026149329 -0.0007696791
000020 a9 31 f4 b9 e4 31 29 bc 7f 7a 06 3c e2 0a ba 3b
       -0.00046576306 -0.010326836 0.008207916 0.005677567
000030 fe e3 f2 ba d9 c7 3c 3c 9a ec 8b bb 8f fe e6 3c
       -0.0018531082 0.011522257 -0.0042701485 0.028197555
000040 2c 53 22 bc ed d5 2b 3c b0 9d 83 bc 19 a7 bd bc
       -0.009907525 0.010488016 -0.016066402 -0.023150967
000050 d2 94 61 3a b5 2a 1d bc 15 c4 56 3c 40 52 e0 3c
       0.0008605245 -0.009592702 0.013108273 0.02738297
000060 4e b7 b3 bc 9d cd ce 3c 00 93 ed 3c 38 6a cf 3c
       -0.021937992 0.025244528 0.02900076 0.025319204
000070 4b 0a 62 bb 00 6b df 3a 66 08 8e 3c 09 78 c2 3c
       -0.0034490998 0.0017045438 0.017337989 0.023738878
000080 da 04 83 bc fb f5 87 3c 93 bd 7c bc cc 71 ed 3b
       -0.015993524 0.016596785 -0.015426057 0.0072462317
000090 d6 d5 dc ba 5f 45 7d bc 08 02 76 bc 57 2e 1c bc
       -0.0016848396 -0.015458434 -0.015015133 -0.009532533
0000a0 2a 49 81 bc 82 76 a4 3c c8 d5 69 3c ec dc 31 3c
       -0.015781958 0.02007604 0.014272161 0.010855895
0000b0 b3 16 dd 3c 20 c8 17 bc 82 eb ed bb a1 55 93 3c
       0.026988363 -0.009264022 -0.0072607407 0.017985167
0000c0 2c 94 ad ba 11 95 33 ba b5 66 e5 3c 3a fd b7 3b
       -0.0013243011 -0.0006850521 0.028003076 0.0056149038
0000d0 bd c2 e2 3a 24 a3 7a bc cd 93 cd ba 88 5b 8f 3c
       0.0017300468 -0.015297685 -0.0015684307 0.0174997
0000e0 f1 a1 5a bc 91 d5 9e 3c 9d ca 4b bc 54 b6 42 bc
       -0.013344274 0.019388946 -0.0124384435 -0.011884291
0000f0 c2 03 5a 3a ef a9 e2 bb 0d 7d 40 bb 77 27 1a 39
       0.00083166 -0.0069172303 -0.002937141 0.00014701286
000100 63 6d ab 3c 03 63 46 3c 3d 5a aa 3b 7e 5e 8b 3c
       0.020926183 0.012108567 0.0051987455 0.01701283
000110 ea d0 96 3c 00 72 88 3c 07 92 8f bc d4 bf 2b 3c
       0.018410165 0.016655922 -0.017525686 0.010482747
000120 b0 62 80 bb 5a 35 1e 3c aa 98 0e bc 78 cd 8d bb
       -0.0039180145 0.009656275 -0.00870339 -0.0043274723
000130 49 85 dd 3c 6b e4 42 bb 7d f0 48 bc 05 b9 6c bc
       0.027041094 -0.0029738199 -0.012264368 -0.014448409
000140 56 e5 8d bc 46 6a 74 bc 13 b7 89 3c 00 7f d1 39
       -0.01732127 -0.014917916 0.01681093 0.0003995821
000150 2c 51 71 3c 97 a1 dd bb 20 a6 8b bc 5a 9a 1a bb
       0.014728826 -0.006763648 -0.017046988 -0.0023590536
000160 52 8a 4b 3c d1 0a e6 3b 6d 1b 3d 3c 41 44 26 bc
       0.012423115 0.0070203324 0.011542183 -0.010148109
000170 9c ea 8f 3c 74 e1 b3 3c a3 39 b3 bc 0c 55 21 bc
       0.017567925 0.02195809 -0.02187807 -0.009846937
000180 f0 22 45 bb d1 69 9a 3c 90 35 f5 b9 c9 ed 0b 3c
       -0.0030080639 0.018849285 -0.0004676995 0.008540579
000190 c8 e1 4f bc 71 8c d8 3b 7f 2e be 3b 5e 1a d9 bc
       -0.012688108 0.006608539 0.0058038826 -0.02650183
0001a0 f2 55 c6 3c 2a 97 8f bc 23 50 b4 bc a8 1f 4b ba
       0.024210904 -0.017528135 -0.022010868 -0.00077485526
0001b0 cd 16 ca 3b 76 af 8a 3c e2 8d 2e 3c db c9 82 bc
       0.006167269 0.01692937 0.010653945 -0.015965393
0001c0 e5 f2 85 3b 22 7b 97 3a 87 32 b1 3c e3 45 97 3a
       0.004087793 0.0011557082 0.021630539 0.0011541214
0001d0 40 eb 40 bc fe dd aa bc e4 f8 79 3c 49 d1 3e bb
       -0.011774838 -0.020857807 0.015257094 -0.0029116443
0001e0 7f bf a7 3a ee fd b7 3a 20 bd 87 3c e5 a2 24 3c
       0.0012798159 0.0014037469 0.016569674 0.010048603
0001f0 3c 39 9f bc c5 11 6a bb 37 35 ce bc 5a 6b a9 3c
       -0.019436471 -0.0035716158 -0.02517186 0.020681072
000200 63 e8 95 bb 99 22 33 bc 93 30 5a 3b b8 e0 c0 3b
       -0.004574822 -0.010933542 0.0033293113 0.0058861636
000210 6b 63 58 3b 49 19 a4 bb 32 af 50 3c 1a 01 17 3c
       0.0033018242 -0.005007897 0.012737082 0.009216571
000220 7b f1 2f 3b b3 ad 8f bc 75 81 9c bc ff 2a dd 3c
       0.0026846814 -0.01753888 -0.019104699 0.026998041
000230 ae 5b a1 3c 1b d7 12 bb 85 52 0f bc 9e 16 ec 3b
       0.019697037 -0.0022406045 -0.0087477015 0.0072048446
000240 06 ed 03 3c 2b d1 7c 3c 79 74 0c 3c ad 4c bc bc
       0.008052116 0.015430729 0.008572691 -0.02298578
000250 84 2b f4 3c 11 8c bc bc 74 f5 9b bb f6 87 a3 3c
       0.029805906 -0.023016008 -0.004759485 0.019962292
000260 19 8c c4 3b 32 8a ba 3c c9 af 69 bc 17 bd b3 3c
       0.0059981463 0.022770975 -0.014263102 0.021940751
000270 58 26 d8 3c 2c 9e 41 bb f2 58 a5 bc 99 85 06 bc
       0.026385471 -0.002954374 -0.020184014 -0.008210563
000280 3f d6 db 3c 19 3e fc 3b 01 d5 17 3a d8 9c 84 3c
       0.026835559 0.0076978323 0.0005791933 0.01618807
000290 58 a8 c1 bb 40 f6 ca 3c 99 09 69 bc 03 79 a5 3c
       -0.0059099607 0.024775624 -0.01422348 0.020199304
0002a0 f2 09 a7 3a 8a 4c 69 3c a1 a0 5e bc dd 27 38 3c
       0.0012744053 0.01423944 -0.013588102 0.011239973
0002b0 89 31 49 3b 3c c5 ae 3c 12 fa d5 bc e8 3c 97 3c
       0.0030699691 0.021334283 -0.02612022 0.01846166
0002c0 ee b2 d1 3c b7 6b 26 bc 2c 34 8d bc 6d 22 1b 3c
       0.025598016 -0.010157517 -0.017236792 0.009468657
0002d0 11 0c 7c bc fe b0 8f bc 29 82 b8 3c 61 b7 e5 bc
       -0.015383736 -0.017540451 0.022523003 -0.028041543
0002e0 cb 61 ba bc c7 99 bf bc 48 71 ff 3b a6 35 0f 3c
       -0.02275171 -0.023388756 0.0077954866 0.008740818
0002f0 cf 65 dd 3b d7 ec de 3c 80 98 3e bc 60 fa 54 bc
       0.0067565213 0.027212543 -0.0116330385 -0.012999147
000300 e9 83 d3 3b 0f b9 9d bc 12 2d 21 bc c1 0a b1 3c
       0.006454934 -0.019253282 -0.009837406 0.021611573
000310 12 d6 a8 bc 5d b5 86 ba 9c 7d fa 3b 5c 45 57 3c
       -0.02060989 -0.0010277439 0.0076443683 0.013139095
000320 c3 0f fb 3c 67 88 03 3c 10 92 ea 3a 2b 33 0c bb
       0.030647164 0.008028126 0.0017896313 -0.0021392803
000330 0e eb 8a bc 89 3f 1b 3c d3 ed ce 3b e3 b1 79 bc
       -0.016957786 0.009475597 0.006314972 -0.015240165
000340 e0 3c 5c bb db 15 eb 3c 2d c9 d4 3b 7e 84 96 3c
       -0.003360562 0.028696945 0.0064937086 0.018373724
000350 85 a0 d3 3c bb e0 e7 3c f9 1f 05 bc 74 f2 5c 3b
       0.025833378 0.028305402 -0.008125299 0.003371385
000360 ef 48 c6 bb 49 32 45 3c ee ab d3 3c d1 fd a8 3c
       -0.006051175 0.012035915 0.025838818 0.020628842
000370 af 0c 26 3c 20 b1 87 bb ca 89 f3 3c 11 ac 73 3c
       0.01013486 -0.004140988 0.029728789 0.014872567
000380 b3 65 68 bc 0b 6d f1 3c 19 8a 47 3b a2 87 c9 3b
       -0.014184403 0.029470941 0.0030447303 0.006150202
000390 7f 0c 95 bc 33 95 44 bc b6 34 94 bb 25 62 84 ba
       -0.018194435 -0.0119984625 -0.004522885 -0.001010005
0003a0 c4 69 d8 3b c6 40 07 3d c5 f5 81 3c 2d c9 14 bb
       0.006604405 0.033020757 0.015864262 -0.0022702918
0003b0 a1 29 1e bc 7c 83 40 3c 16 54 2d 3c dc 3d 7a 3b
       -0.00965348 0.011750098 0.01057913 0.0038183844
0003c0 9e 64 36 bc f3 24 02 3c 68 3b 97 3c 8d fb 86 3c
       -0.011132387 0.00794338 0.018460944 0.01647737
0003d0 30 38 a4 3c 23 3a 06 bc 32 f2 62 3c 12 f9 31 3b
       0.020046324 -0.008192572 0.013851689 0.0027156514
0003e0 c4 1c db 3c d0 d7 5b 3c 08 21 8b 3c cb e6 d7 b9
       0.026747115 0.013418153 0.016983524 -0.0004117995
0003f0 d4 7e 29 bc 2d 0e aa 3c 79 55 4e bc ce 71 52 bc
       -0.01034518 0.020758713 -0.01259362 -0.012844516

bnorm.weight f4 [20]
000000 7f 18 9e 3f fb 12 9d 3f e9 1d 9f 3f cb f8 a2 3f
       1.2351226 1.2271417 1.2431003 1.2732176
000010 53 f0 9f 3f 82 29 9e 3f cd 9e 9b 3f 9b 44 9f 3f
       1.2495216 1.2356417 1.2157837 1.2442812
000020 bc 51 9f 3f ee 00 9e 3f 99 41 9f 3f a6 fa 9e 3f
       1.2446818 1.2344034 1.2441894 1.2420242
000030 6c db 9c 3f de 05 92 3f c7 77 9c 3f 93 33 9b 3f
       1.2254462 1.140804 1.2224053 1.2125114
000040 34 c4 a0 3f 1b fb 91 3f 08 ff 98 3f 7b 19 a0 3f
       1.2559876 1.1404756 1.1952829 1.2507776

bnorm.bias f4 [20]
000000 04 c4 98 3d 10 87 5f 3e 92 ef da bd a3 02 fe bd
       0.07459262 0.21828866 -0.10690226 -0.12402847
000010 50 b2 4e be 02 57 39 be 30 e7 c5 3e 14 dd f9 bd
       -0.20185208 -0.18099597 0.38652945 -0.122003704
000020 e4 1e 42 bc dd 3a 36 3e 3f f4 8e 3c 74 bf 0a be
       -0.011848185 0.17795892 0.01745045 -0.13549596
000030 32 5e 0a bb 38 43 0d bf 1f de bd bc 86 6a d1 bd
       -0.0021113274 -0.5518069 -0.023177205 -0.10225396
000040 dc 1e 68 bd 72 e3 31 bf 3f 77 7b 3e d4 4f 4f 3d
       -0.056670055 -0.6948768 0.24557208 0.05061324

bnorm.running_mean f4 [20]
000000 dd 24 83 b9 be ef f2 bb ad 9a ca 3a df 66 88 b9
       -0.00025013732 -0.0074138334 0.0015457474 -0.00026016586
000010 1e e6 cf 3b 19 67 19 3b d4 18 93 3b 05 1b 37 39
       0.006344571 0.0023407398 0.0044890437 0.00017462306
000020 31 c0 40 bb f7 33 6b bc f5 c9 47 bb 25 12 cb bb
       -0.002941143 -0.014355651 -0.0030485366 -0.0061972314
000030 81 40 a7 3b 5f a5 25 bc ba aa 72 bc c4 db 14 3b
       0.005104125 -0.010110228 -0.014811212 0.0022713998
000040 37 52 58 bb 61 29 f8 bb 5f 02 f1 bb 9d 7d 27 bc
       -0.0033007988 -0.007573292 -0.007355019 -0.01022282

bnorm.running_var f4 [20]
000000 4d f7 67 41 50 f0 a2 41 96 23 29 41 90 18 87 41
       14.497876 20.36734 10.571188 16.886993
000010 49 a2 b1 41 2d d5 89 41 1e 12 df 41 d1 d0 87 41
       22.20424 17.22909 27.883846 16.976961
000020 78 d9 69 41 7f 45 68 41 07 b3 8d 41 2b 89 84 41
       14.615593 14.516967 17.712416 16.566977
000030 7d 09 08 41 9f 93 a6 41 7d 27 a5 41 d5 d9 03 41
       8.502316 20.82208 20.644281 8.240682
000040 72 26 5c 41 0f 99 37 42 48 d2 30 41 0c 4d 89 41
       13.759386 45.89947 11.051338 17.16262

conv_classifier.weight f4 [1, 20, 162, 1]
000000 e9 83 e3 3c 38 83 10 bc 01 14 29 bd d0 0b b4 bc
       0.02777286 -0.0088203475 -0.041278843 -0.021978289
000010 53 49 a7 bd 01 80 3c bd 2c 9c 0a 3d 1e 2e 9a bc
       -0.08168282 -0.04602051 0.033840343 -0.018820819
000020 cf 32 48 3d e2 b3 10 3c f7 d6 8d bc 37 bb ba 3c
       0.04887658 0.00883195 -0.017314417 0.02279435
000030 8c fe 96 bc 50 96 ae 3d 97 ec 58 3d 51 3b 82 3d
       -0.018431924 0.085247636 0.052960005 0.0635897
000040 85 84 64 3c ef 0a 03 bd 32 12 ba 3b 97 38 34 bc
       0.013947611 -0.03199285 0.0056784386 -0.01099982
000050 04 e2 55 3d f9 4d 06 3d de 1e 0c 3d 3c 10 0e 3d
       0.0522175 0.032789204 0.034209125 0.03468345
000060 d5 0d 89 3c 9d 2a 30 3d 1b 94 05 3c 7e fe 51 3a
       0.016730228 0.04300939 0.008152987 0.00080106396
000070 66 68 d7 bc 31 d4 00 3a 5a 3e 1a bd 86 d0 40 3d
       -0.026294898 0.00049144315 -0.03765712 0.047073863
000080 57 28 4d 3d 7b 57 c0 3b 2c 0b f9 3c e3 a4 07 bd
       0.0500873 0.0058698035 0.030400835 -0.033116233
000090 50 c4 88 bd 4a cf 10 bc f2 38 34 3d 52 5f 01 3c
       -0.06678069 -0.008838484 0.04399962 0.007896261
0000a0 90 9f 91 3d 07 b8 7e 3d 8f d8 4f 3d 31 07 0e bd
       0.07110512 0.06218722 0.050743636 -0.034674827
0000b0 44 ec 55 bc e0 38 e7 3c 29 e4 6d 3b 13 b1 f8 3c
       -0.013056818 0.028225362 0.0036299324 0.030357873
0000c0 a2 77 70 3d c0 03 6f 3d 00 d0 05 3d 43 cd 40 3d
       0.05870784 0.058353186 0.032669067 0.047070753
0000d0 c7 0f 92 bc de ff e3 3c b4 63 5c 3d 47 52 fa ba
       -0.017829789 0.027831968 0.05380602 -0.0019098007
0000e0 72 55 1f bd 5c e6 f3 3c 72 c8 e4 3c 86 fa 8f 3b
       -0.038899846 0.02977293 0.027927611 0.0043938784
0000f0 9e 45 84 3c 4e 0e 6c bd e0 c6 60 bd d7 28 4b bc
       0.016146477 -0.05763083 -0.054877162 -0.012399874
000100 55 c1 47 bd a9 a3 98 bc 18 3d 8b 3c 95 af 4a 3c
       -0.04876836 -0.018632727 0.016996905 0.012370964
000110 7e aa f5 3c 94 9e 08 3c 8c a1 11 bc 2d 11 d4 bb
       0.029988524 0.008338589 -0.008888613 -0.006471774
000120 54 b7 27 bc fc 51 b5 3c 97 71 a8 3c 4a d8 3f bc
       -0.01023658 0.02213382 0.020561976 -0.011709282
000130 74 9f aa bb 9b 39 4e 3d 17 70 cf 3c a6 20 35 bd
       -0.0052069966 0.050347906 0.025322003 -0.04422059
000140 9d b6 0c 3c 50 e0 8d 3c ed 1a 17 bd 6e d2 35 bd
       0.00858846 0.017318875 -0.036890913 -0.044390135
000150 79 6f 42 3c cb ff 9c bc 55 ae 4b 3c 08 0e 28 3d
       0.011867397 -0.01916494 0.012431701 0.041029006
000160 49 aa bd 3b 1d b1 1b bd ca e5 14 3d f8 4a 9a ba
       0.005788122 -0.038010705 0.036351956 -0.001177161
000170 df e4 93 3c 53 54 40 3b 50 2e b3 3c ec 29 68 3d
       0.01805347 0.0029347136 0.02187267 0.056680605
000180 4a c8 0f 3d 5b ac bf bc 62 c8 c6 bc 8f 49 43 bb
       0.03510312 -0.023397615 -0.024265472 -0.0029798483
000190 03 46 81 bd 67 e6 ae bc e3 25 5f bd b1 9b b7 3b
       -0.06312182 -0.021350099 -0.05447949 0.0056032767
0001a0 69 e7 98 3c 9a b4 49 bd a9 ba 1e bd 9e 20 85 bb
       0.018665032 -0.0492445 -0.03875223 -0.004062726
0001b0 4b 47 59 3c f7 46 3c 3d 44 b7 0f 3d 36 d5 4c 3d
       0.0132616265 0.045966115 0.035086885 0.05000802
0001c0 12 fc 8b 3d 75 30 60 3d d9 0a 22 3c a7 c3 6c bc
       0.06835188 0.054733712 0.009890282 -0.014450944
0001d0 54 86 2b 3b 60 04 9d bc 89 50 07 3a be 5e 43 bb
       0.0026172595 -0.019167125 0.0005161842 -0.002981111
0001e0 3f f4 37 3d 47 0a 4f bd 4a 76 e0 bb db 18 7f bc
       0.044910666 -0.05054691 -0.0068500387 -0.015569891
0001f0 64 4d c0 bc 6f f7 b7 3d cd 52 b6 3c 4a 08 1e bd
       -0.023474403 0.08982741 0.02225628 -0.038582124
000200 2a e3 4b bd 6d 23 22 3c b4 25 85 3c 61 ac b1 b9
       -0.049777187 0.0098961415 0.01625333 -0.00033888503
000210 2b 1e 86 3d a5 e2 53 3d de de 85 bc a0 5e f6 3c
       0.06548723 0.051729817 -0.016341623 0.030074418
000220 eb d3 35 3b df ad c0 3c 12 32 d1 3c 84 d3 a5 bb
       0.002774472 0.023520408 0.02553657 -0.005060615
000230 70 97 87 bc ba 48 09 3d e9 bb 77 ba 6c 4f f2 3b
       -0.016551703 0.033516623 -0.0009450303 0.0073947217
000240 d8 41 89 3b 06 dd 4e 3a a7 c0 48 bd 79 74 fb bb
       0.0041887574 0.00078912114 -0.049011853 -0.0076737967
000250 bf 53 7c 3b 08 c0 b3 3c 37 5b 7c bb 3b 86 e7 bc
       0.0038502065 0.021942154 -0.0038506517 -0.028262248
000260 a6 d2 9f 3c 49 7d 3e bc cb 9c a9 3c db 9e 18 3d
       0.019509625 -0.01162655 0.020704648 0.03726087
000270 58 3a b9 3b f7 99 1e bc 66 bb 6e bd b3 b5 42 bc
       0.005652707 -0.009680263 -0.058284186 -0.011884141
000280 a1 d4 ca 3c 3e 19 27 bd 9c 30 c6 3c 56 b2 3a 3b
       0.024759592 -0.040795557 0.0241931 0.0028487644
000290 0a 10 9d bd dc 5c 9d bd 6f 23 02 bd ab 9d e5 3c
       -0.07669075 -0.07683727 -0.031772073 0.028029284
0002a0 56 f5 e8 3c 7d 75 55 3d d3 9f bf 3d 8f 5b f9 3c
       0.028437298 0.052114 0.09356656 0.030439166
0002b0 ea 36 73 3d 66 58 8a 3d d7 ee aa 3c 93 0e 70 3d
       0.059378542 0.06755142 0.02086584 0.05860765
0002c0 3d 7f 4c 3d 8c 2e 5e 3d a4 7e cb bc 7d 88 78 3c
       0.04992603 0.05424361 -0.02484066 0.01516926
0002d0 8a dd 45 3d f2 87 49 3d 54 f9 74 3d 66 47 1d 3c
       0.04830698 0.049201913 0.05980809 0.009599542
0002e0 01 42 53 bd af 20 dd 3c bc 7d 78 3d 3f 65 02 3d
       -0.051576618 0.026993124 0.060666785 0.031834837
0002f0 fb 27 25 3d 2c e1 75 3c 07 05 01 3d 60 bc ec 3c
       0.04032133 0.015007298 0.031498935 0.028898418
000300 61 bd 14 3d e0 58 30 bb cf a9 08 bd bc 21 59 bd
       0.03631342 -0.0026908442 -0.033365067 -0.053010687
000310 96 57 39 bc ef c2 c6 bc 75 6a 5e 3d 70 b8 87 3d
       -0.011312386 -0.024262873 0.054300744 0.066269755
000320 cb 66 b5 3c d9 6b fc 3c c7 24 0e 3d e6 5b 8e bc
       0.022143742 0.030813145 0.034703042 -0.017377805
000330 47 7d 61 bc 67 94 18 bc 61 1b 71 3d 5d 52 e5 3c
       -0.013762779 -0.009312726 0.058864 0.027993375
000340 94 f0 50 bc e4 a2 89 bc 4d 87 ee 3c 02 76 4c 3d
       -0.012752671 -0.016801305 0.02911725 0.04991723
000350 ea 8d 64 bd 7d 21 a0 bd 5d 3f 1d 3d d5 cd 00 3d
       -0.055799402 -0.078188874 0.038390506 0.031446297
000360 1f ac ac bb 6d a5 98 bb 98 9f 23 bd 4b 0f 06 3d
       -0.005269542 -0.004658392 -0.039947122 0.03272943
000370 90 83 04 3d b3 b5 68 3c 6e c4 2a bd 08 f5 3d 3d
       0.03235203 0.014203477 -0.041691236 0.046376258
000380 5e c1 8c 3b 01 93 10 bd 31 0b 8e 3c fa fd ed 3c
       0.004295512 -0.035296444 0.01733932 0.02905177
000390 6d 45 9f bc 20 e8 ac bd aa b8 35 3d 33 05 d7 3d
       -0.019442284 -0.08442712 0.044365562 0.104990385
0003a0 80 50 2f 3d 2d 9e a6 3d 03 21 25 3d d2 25 e9 bc
       0.04280138 0.081356384 0.040314686 -0.028460417
0003b0 93 6c b7 3c b4 27 5c bd fe 72 01 be d2 ef 9a ba
       0.02239064 -0.0537488 -0.12641522 -0.001182074
0003c0 34 6f 9b bd 6e bc fc bd 58 69 97 bd 3e 01 cd bb
       -0.0758957 -0.123406276 -0.073931396 -0.0062562516
0003d0 38 cf fa 3c 41 f2 27 3d ff 0e 99 3c f1 ff 1c 3c
       0.030616388 0.041002516 0.018683909 0.009582506
0003e0 fd 63 d6 3c 8b d2 87 3d da a5 00 3c 69 af 98 3c
       0.026170725 0.06631955 0.007852042 0.01863833
0003f0 7d bb e0 3c 65 14 a5 bc fe c5 d8 bc d9 42 92 3b
       0.027433151 -0.020151326 -0.026461598 0.0044635353
